python/logs/tensorboard/amp_model/15_targets_LSTM40_pwr_GRU8/epoch=11-step=12960.ckpt (torch, 121903 bytes, 30 tensors)

preamp.model.rec.weight_ih_l0 f4 [160, 1]
-0.5719486 -0.60169655 0.09077005 0.39688385 -0.3940666 -0.64072585 -0.24876572 -0.07070619
-0.11542181 -1.1536618 0.066641055 -0.37247452 0.05860001 -0.043665387 -0.9266577 1.0071572
-0.2791051 0.6799704 0.45882916 -0.23620394 -0.9981692 0.31225234 0.31295523 -0.13787398
-0.63301665 0.237599 0.57619876 -0.48776656 -0.5938973 0.18962574 0.0550875 -0.53056556
-0.04077678 0.1764623 0.07147425 -0.27461857 -0.38839677 0.3719268 -0.37794796 -0.066015564
-0.3700501 -0.45868087 -0.50839514 0.30881882 -0.02310532 -0.693524 -0.26532406 0.3852629
-0.6115355 -0.49340922 -0.18823299 -0.34810355 0.47858214 0.31116763 -0.19690809 0.6563065
-0.38363513 0.57421184 0.41597074 -0.17256495 -1.3653207 0.3706447 0.56069946 -0.36488774
-0.61268306 -0.085162945 -0.14086567 -0.7397879 -0.8782514 -0.099087 0.09308287 -0.5364103
0.33744642 -0.08753059 -0.5484387 -0.5120057 -0.9395777 0.8974834 -0.927612 -0.23773491
-0.7605479 0.7773434 0.8105538 -0.0025121698 -0.25780892 -0.9115274 -1.2018853 0.03948809
-0.5108089 -1.2569366 -0.36282918 0.49986115 -0.30175003 0.14433332 0.46981382 3.1623805
-0.823242 0.7540528 0.15283759 0.33476862 -2.4961057 0.11040622 -0.08181152 -0.40459773
1.1183301 0.21113662 -2.8850837 -1.4612846 0.86896926 0.4294036 -0.52971834 0.96744925
0.64029235 -0.15319847 -0.41269892 -1.0257049 0.5188008 0.12457562 1.1540023 0.47905204
-0.6028428 -0.44517773 -0.7925428 0.36934116 -0.13801736 -0.6794694 -0.393495 -0.1275541
-0.9002039 0.12214366 -0.39977035 -0.38808864 0.24003339 -0.054313723 1.0754101 0.7291024
-0.4477283 0.75347596 0.465893 0.10254584 -1.2363875 0.5172883 0.5525966 -0.51661503
-0.61891294 -0.21137574 0.7586834 -1.0128597 -1.1410065 -0.16798036 0.22253425 -0.77165866
-0.009965667 -0.043091837 -0.4643024 -0.57369393 -1.2428381 1.0454513 -0.87038285 -0.26303977
00000000: 396b 12bf c908 1abf a6e5 b93d 5c34 cb3e
00000010: 19c3 c9be 9c06 24bf 71bc 7ebe 68ce 90bd
00000020: 4562 ecbd 31ab 93bf 1b7b 883d fbb4 bebe
00000030: 9006 703d 7ada 32bd 7039 6dbf 87ea 803f
00000040: dde6 8ebe 8a12 2e3f a8eb ea3e 72df 71be
00000050: 0488 7fbf 8adf 9f3e ab3b a03e d62e 0dbe
00000060: 610d 22bf 274d 733e c381 133f 8abc f9be
00000070: a709 18bf 402d 423e 6ea3 613d 25d3 07bf
00000080: 8e05 27bd 88b2 343e 1761 923d ce9a 8cbe
00000090: f1db c6be 316d be3e 6582 c1be 2b33 87bd
000000a0: 3577 bdbe 38d8 eabe 2f26 02bf 801d 9e3e
000000b0: 5e47 bdbc ca8a 31bf 8ed8 87be 2e41 c53e
000000c0: 978d 1cbf 22a0 fcbe 26c0 40be a13a b2be
000000d0: b808 f53e 5d51 9f3e 46a2 49be b403 283f
000000e0: d36b c4be 8cff 123f 1efa d43e deb4 30be
000000f0: d4c2 aebf 24c5 bd3e 008a 0f3f 91d2 babe
00000100: ccd8 1cbf e969 aebd 173f 10be bd62 3dbf
00000110: 15d5 60bf 20ee cabd 3ba2 be3d 2f52 09bf
00000120: c7c5 ac3e 3d43 b3bd 7b66 0cbf ce12 03bf
00000130: 2a88 70bf 79c1 653f fb77 6dbf c870 73be
00000140: 44b3 42bf faff 463f 7480 4f3f 37a3 24bb
00000150: 88ff 83be dc59 69bf 61d7 99bf 43be 213d
00000160: 5fc4 02bf 4ce3 a0bf bfc4 b9be cded ff3e
00000170: fb7e 9abe 1dcc 133e 708b f03e 7164 4a40
00000180: fdbf 52bf 9b09 413f 7581 1c3e cb66 ab3e
00000190: 32c0 1fc0 a81c e23d cc8c a7bd 6f27 cfbe
000001a0: 7125 8f3f 3334 583e 36a5 38c0 600b bbbf
000001b0: c574 5e3f cada db3e 9f9b 07bf c1aa 773f
000001c0: 33ea 233f 0fe0 1cbe 464d d3be 4c4a 83bf
000001d0: 21d0 043f 8121 ff3d 59b6 933f 4f46 f53e
000001e0: e853 1abf 56ee e3be 16e4 4abf 491a bd3e
000001f0: 6c54 0dbe b5f1 2dbf 2d78 c9be 8b9d 02be
00000200: c373 66bf 7526 fa3d b3ae ccbe 8eb3 c6be
00000210: 50cb 753e 1178 5ebd 0aa7 893f 74a6 3a3f
00000220: a53c e5be cde3 403f 8789 ee3e 8e03 d23d
00000230: f241 9ebf 026d 043f f976 0d3f e240 04bf
00000240: 1471 1ebf e272 58be 1339 423f 63a5 81bf
00000250: 800c 92bf 0b03 2cbe 05e0 633e 6c8b 45bf
00000260: 0947 23bc 1181 30bd 0bb9 edbe 9bdd 12bf
00000270: 5215 9fbf 59d1 853f 69d1 5ebf 26ad 86be

preamp.model.rec.weight_hh_l0 f4 [160, 40]
0.03607607 0.27354455 -0.1018785 -0.106622055 0.15605332 0.09282586 0.24102898 0.35176826
-0.34178072 -0.02883218 -0.00836286 -0.21261841 -0.050080817 0.2684694 -0.1671825 -0.25983047
-0.2782758 0.0271438 -0.08366694 -0.2043524 0.15288034 0.2029595 -0.002579087 -0.44671953
0.28576592 0.16522661 -0.25292447 0.20611085 0.15870526 0.33305976 0.18694237 0.106319316
0.26859978 0.022032056 0.063206844 0.08893888 0.041572876 0.03326314 0.16657598 0.29612574
0.28370422 -0.16192587 0.07118558 0.08811555 0.12160286 0.01591093 0.21672934 0.31987628
0.15832855 0.01681518 -0.1153664 -0.22108155 -0.1337875 -0.20599163 -0.039862484 -0.37695107
0.12804802 -0.27695355 -0.08395145 0.05524454 0.21952742 -0.0070661586 0.18771997 0.075526774
-0.18323709 0.04442801 0.18672386 0.027517607 -0.05295554 -0.13244179 0.023439365 -0.16704524
-0.1553714 0.0711089 0.40005055 -0.1981432 0.04929069 0.070458986 0.17819619 -0.04151837
-0.33567384 -0.12278429 -2.4395952 -0.038655028 0.9517883 0.33388898 -0.53182197 0.2842914
-0.61655825 2.1246817 -0.59115666 -0.9006041 0.2598847 -0.015744574 -3.4889312 -0.14778279
-0.26404437 -1.1985115 0.040053584 -1.1611322 0.29101196 -0.123029225 0.025442231 -0.04908556
-0.79147714 -1.228327 -1.5770406 0.1721237 -0.12323802 -0.41670892 0.23793605 -0.4861303
-0.21242344 0.45851007 0.4166127 1.126797 -0.31224024 0.09802326 0.7374719 0.025569553
-0.042632204 0.1101205 0.100043155 0.07659964 -0.22306818 -0.20784958 -0.16840644 0.03415568
-0.28834245 -0.06777494 0.29057047 0.3105586 0.15009855 -0.010413075 0.042927828 -0.24369134
-0.24488512 -0.23609483 0.23122032 0.08531925 -0.08447675 0.016312445 -0.025805922 -0.044139706
0.10727606 0.17902042 -0.13795274 -0.248518 0.08517017 -0.004836364 -0.06339999 0.18857868
-0.22585441 0.087133296 0.27473703 -0.01432721 0.36561412 -0.1567325 0.15515052 0.34245694
-0.04469426 -0.07105273 0.59386927 -0.09450152 -0.25418004 0.18431143 -0.10498734 -0.2632228
-0.036688086 -0.57344294 0.18374625 0.3503496 -0.03442542 0.37155548 0.72355574 0.13878407
-0.011250424 0.20919465 0.067903586 -0.13213879 -0.048901252 0.06420466 -0.17717126 -0.09883936
-0.027192902 0.14336444 -0.6836986 0.016804913 0.28009623 0.26750025 -0.12762368 -0.07587532
0.01757881 -0.13417459 0.1938884 -0.49123183 0.4206733 0.18426788 -0.030491915 0.36488688
-0.034694415 0.11603877 -0.121322446 0.018860277 0.04073895 0.1096368 0.044091783 0.05544018
-0.08161942 -0.104390144 -0.08022314 -0.031530637 0.09890481 0.22471537 -0.06740667 0.06551031
-0.105838805 0.015668796 0.004587531 -0.067054905 -0.067805715 -0.030849745 -0.0550483 0.11213642
-0.16293406 0.15504606 -0.14998668 0.027107067 -0.13868141 -0.1401822 -0.025328718 0.039363954
0.2329597 0.049749028 0.13733974 -0.06257282 0.018546574 -0.15206012 -0.10712888 -0.019991444
0.19268474 -0.23316327 -0.14430548 -0.067080624 0.1301163 0.052436374 0.041195128 0.32910421
0.13210762 0.29791325 -0.26518378 -0.23199587 0.024203781 -0.040616773 -0.09021376 0.27828038
00000000: 80c4 133d 080e 8c3e ada5 d0bd aa5c dabd
00000010: 71cc 1f3e 7c1b be3d 4dd0 763e f81a b43e
00000020: e2fd aebe 7731 ecbc 6104 09bc a4b8 59be
00000030: 8b21 4dbd d274 893e e431 2bbe 8008 85be
00000040: 2a7a 8ebe ad5c de3c 9359 abbd c141 51be
00000050: aa8c 1c3e 9dd4 4f3e e605 29bb 6cb8 e4be
00000060: e94f 923e 2a31 293e 517f 81be b90e 533e
00000070: a283 223e cf86 aa3e d26d 3f3e f1bd d93d
00000080: e985 893e 927c b43c 9772 813d 9625 b63d
00000090: 5248 2a3d ee3e 083d e592 2a3e cb9d 973e
000000a0: ae41 913e e5cf 25be bfc9 913d ed75 b43d
000000b0: ec0a f93d a357 823c 4cee 5d3e d3c6 a33e
000000c0: e120 223e fdbf 893c 3845 ecbd 3463 62be
000000d0: 97ff 08be 78ef 52be d846 23bd bbff c0be
000000e0: 051f 033e dbcc 8dbe bdee abbd 1948 623d
000000f0: cccb 603e 3c8b e7bb aa39 403e c8ad 9a3d
00000100: 81a2 3bbe 25fa 353d 8a34 3f3e 9b6c e13c
00000110: e9e7 58bd d29e 07be e903 c03c e80d 2bbe
00000120: ae19 1fbe 8ba1 913d 6dd3 cc3e 0de6 4abe
00000130: 09e5 493d cd4c 903d 1079 363e 2b0f 2abd
00000140: 71dd abbe 5476 fbbd 5422 1cc0 bc54 1ebd
00000150: 66a8 733f 7ff3 aa3e 7c25 08bf a48e 913e
00000160: c3d6 1dbf c9fa 0740 0b56 17bf fe8d 66bf
00000170: 9b0f 853e c4fa 80bc a64a 5fc0 5f54 17be
00000180: d330 87be d368 99bf 3a0f 243d fb9f 94bf
00000190: 85ff 943e bff6 fbbd 3a6c d03c f10d 49bd
000001a0: 3f9e 4abf d239 9dbf 77dc c9bf 3241 303e
000001b0: 3764 fcbd df5a d5be 82a5 733e 12e6 f8be
000001c0: 8885 59be d5c1 ea3e 434e d53e e23a 903f
000001d0: f4dd 9fbe 6bc0 c83d f5ca 3c3f 3d77 d13c
000001e0: 1b9f 2ebd db86 e13d 6de3 cc3d 46e0 9c3d
000001f0: fc6b 64be 85d6 54be bd72 2cbe d4e6 0b3d
00000200: 9fa1 93be 96cd 8abd a7c5 943e 8901 9f3e
00000210: 6fb3 193e 9a9b 2abc 17d5 2f3d 398a 79be
00000220: 2ac3 7abe d8c2 71be 05c5 6c3e dcbb ae3d
00000230: 2502 adbd ada1 853c f166 d3bc d6cb 34bd
00000240: 8db3 db3d 2151 373e 7c43 0dbe 817b 7ebe
00000250: b36d ae3d 5d7a 9ebb dbd7 81bd c51a 413e
00000260: 6146 67be f172 b23d 55aa 8c3e adbc 6abc
00000270: c631 bb3e 7c7e 20be c7df 1e3e 8456 af3e
00000280: 5411 37bd 1884 91bd d107 183f 038a c1bd
00000290: e323 82be 23bc 3c3e 9a03 d7bd 24c5 86be
000002a0: 3f46 16bd 28cd 12bf fa27 3c3e 0661 b33e
000002b0: ab01 0dbd 853c be3e f33a 393f 691d 0e3e
000002c0: b353 38bc 1f37 563e 0911 8b3d 644f 07be
000002d0: ae4c 48bd bc7d 833d 626c 35be 4a6c cabd
000002e0: a6c3 debc 21ce 123e df06 2fbf 75aa 893c
000002f0: c668 8f3e cbf5 883e c8af 02be 8564 9bbd
00000300: 7001 903c 1065 09be ae8a 463e bd82 fbbe
00000310: 7e62 d73e b8b0 3c3e 2eca f9bc 74d2 ba3e
00000320: bb1b 0ebd bca5 ed3d e777 f8bd de80 9a3c
00000330: e3dd 263d 4289 e03d 9699 343d 3e15 633d
00000340: 1528 a7bd 80ca d5bd 084c a4bd 4526 01bd
00000350: 9b8e ca3d c91b 663e 820c 8abd 452a 863d
00000360: 04c2 d8bd d95b 803c 0053 963b 1554 89bd
00000370: b9dd 8abd 9bb8 fcbc 547a 61bd c8a7 e53d
00000380: 30d8 26be 65c4 1e3e 1c96 19be a40f de3c
00000390: 8002 0ebe ec8b 0fbe 2c7e cfbc 193c 213d
000003a0: fd8c 6e3e a3c5 4b3d caa2 0c3e 2e26 80bd
000003b0: fcee 973c a6b5 1bbe 6366 dbbd 19c5 a3bc
000003c0: 264f 453e 5ac2 6ebe d1c4 13be 9161 89bd
000003d0: 353d 053e 86c7 563d 39bc 283d 5980 a83e
000003e0: 3847 073e 1688 983e 2bc6 87be 5390 6dbe
000003f0: 0247 c63c c65d 26bd fec1 b8bd c47a 8e3e

preamp.model.rec.bias_ih_l0 f4 [160]
0.06454025 0.17464288 0.08817384 -0.0108629465 -0.1753521 0.1887846 0.17062227 -0.0923894
0.011536419 0.50129765 -0.3149444 0.1399929 -0.32189545 -0.29566696 -0.6546814 0.8256904
0.11423369 0.18942742 0.14957117 0.061393794 0.2250662 -0.059069913 -0.06790402 -0.10300643
0.055552747 -0.04632699 0.7391976 0.22986032 -0.019180698 -0.13095585 -0.12271978 -0.10907937
-0.18148816 -0.06671897 -0.40937892 0.19798063 -0.46757612 -0.0017619927 0.41005406 0.075683326
0.1901858 0.23804383 0.003982477 0.042342022 -0.026126215 0.16309923 -0.1397133 -0.01855097
0.50077474 -0.021183591 0.22462356 -0.116326325 0.2665766 0.50251913 -0.21116398 0.14141016
0.14743316 -0.031081706 0.17318396 -0.091815405 -0.12636247 0.08610517 0.22006287 0.09988564
0.10645699 0.36374527 0.11751179 0.032327697 0.029391596 0.39362028 0.17195174 0.03095818
0.16937715 -0.12116922 0.27643618 -0.034593146 0.08108639 0.16860932 -0.16292067 0.33500198
-0.048266023 -0.08090613 -0.029409008 -0.040193263 -0.04723506 0.12136954 0.17237456 0.04468075
-0.012155132 -0.09286038 0.081516154 -0.07774266 0.08086029 -0.068384014 0.0862675 0.17238605
0.15018615 0.13507952 -0.10087171 0.07780442 0.16582829 -0.057023138 -0.09261205 0.022787862
-0.017453404 -0.13913567 0.19326867 0.18814993 -0.08665697 0.11353366 -0.0045941193 -0.09341282
-0.048955057 0.17284283 -0.013549623 -0.0793422 -0.16763116 -0.009307453 -0.11200755 -0.05627004
0.008317686 -0.038292024 0.3746216 0.012007448 -0.06588247 -0.062817015 0.16034847 -0.15459864
0.07736629 0.24764487 -0.067481644 0.031716164 0.1254591 -0.01569368 -0.021628536 0.9283967
0.1383385 0.21845543 0.0225779 0.12091597 0.3337256 0.019054456 0.15744345 0.05704093
-0.010488128 -0.050781514 0.844307 0.06018929 -0.0395949 0.10278362 0.11686245 0.14710899
-0.025275238 -0.04602333 0.119093835 0.20231551 -0.13972406 0.030217342 0.31741273 0.12222804
00000000: ae2d 843d 95d5 323e 7c94 b43d 80fa 31bc
00000010: 808f 33be c050 413e 9bb7 2e3e a736 bdbd
00000020: 4003 3d3c 0b55 003f 6440 a1be 4c5a 0f3e
00000030: 7bcf a4be a961 97be 3399 27bf 7260 533f
00000040: 5af3 e93d 43f9 413e 2f29 193e 0f78 7b3d
00000050: c177 663e 4bf3 71bd 4311 8bbd 09f5 d2bd
00000060: 478b 633d 5fc1 3dbd 0e3c 3d3f 8160 6b3e
00000070: d720 9dbc 4a19 06be 8254 fbbd 0165 dfbd
00000080: 08d8 39be f5a3 88bd 1d9a d1be 6fbb 4a3e
00000090: 2366 efbe aaf2 e6ba 9bf2 d13e dcff 9a3d
000000a0: 11c0 423e c3c1 733e 707f 823b d46e 2d3d
000000b0: a506 d6bc 7c03 273e 0111 0fbe 34f8 97bc
000000c0: c632 003f 3689 adbc b803 663e 7f3c eebd
000000d0: ba7c 883e 18a5 003f 5f3b 58be d3cd 103e
000000e0: b8f8 163e 109f febc 2357 313e b709 bcbd
000000f0: 2a65 01be e857 b03d 2958 613e d890 cc3d
00000100: 1f06 da3d d23c ba3e 05aa f03d 0c6a 043d
00000110: a5c6 f03c 9988 c93e 1e14 303e 029c fd3c
00000120: 3471 2d3e 9127 f8bd 0b89 8d3e 8bb1 0dbd
00000130: 9f10 a63d eca7 2c3e add4 26be 6185 ab3e
00000140: 98b2 45bd 1db2 a5bd 29eb f0bc b1a1 24bd
00000150: 8d79 41bd 9890 f83d f582 303e 2a03 373d
00000160: 5226 47bc 952d bebd f1f1 a63d 8b37 9fbd
00000170: 149a a53d eb0c 8cbd 04ad b03d f885 303e
00000180: 66ca 193e 4952 0a3e d495 cebd ec57 9f3d
00000190: e4ce 293e 1891 69bd 63ab bdbd 9cad ba3c
000001a0: 71fa 8ebc 9579 0ebe 39e8 453e 60aa 403e
000001b0: 3679 b1bd 5684 e83d 448a 96bb 384f bfbd
000001c0: 1985 48bd b6fd 303e 3dff 5dbc 2a7e a2bd
000001d0: 81a7 2bbe 4a7e 18bc 3764 e5bd 6a7b 66bd
000001e0: e746 083c 19d8 1cbd 67ce bf3e e3ba 443c
000001f0: 63ed 86bd 35a6 80bd 6432 243e 1b4f 1ebe
00000200: 3872 9e3d 9e96 7d3e d133 8abd cfe8 013d
00000210: 5a78 003e 0890 80bc 542e b1bc 68ab 6d3f
00000220: 9ca8 0d3e c8b2 5f3e 4af5 b83c cba2 f73d
00000230: 15de aa3e 1718 9c3c db38 213e c0a3 693d
00000240: 66d6 2bbc 4700 50bd 8124 583f 0c89 763d
00000250: 432e 22bd 3880 d23d 9555 ef3d bda3 163e
00000260: 040e cfbc f682 3cbd 78e7 f33d cc2b 4f3e
00000270: d313 0fbe 5c8a f73c ec83 a23e b252 fa3d

preamp.model.rec.bias_hh_l0 f4 [160]
-0.05312459 0.18496181 -0.12998803 -0.03781097 -0.12861553 0.047775276 0.21031505 -0.3249193
-0.17029974 0.5665613 -0.27362216 -0.05008429 -0.105935976 -0.22016397 -0.41147014 0.75522417
0.16909406 0.10384594 0.10470681 -0.07495616 0.38414404 -0.0669053 0.1445208 -0.15258147
0.004668818 -0.25868136 0.6755547 0.1548459 -0.11506154 -0.014672042 0.11642863 0.12962759
-0.3008231 -0.19121617 -0.14746109 0.24487649 -0.4643502 -0.08478015 0.4630968 0.014958756
0.3170653 0.09289432 0.0024958074 0.049031142 -0.17957748 0.14860868 -0.04166246 -0.12502173
0.36329836 0.11629557 0.23067018 0.0144878775 0.24962108 0.54110473 -0.23372383 0.21313217
0.34401813 -0.1836018 0.23697074 0.1527869 -0.13721044 0.11092616 0.07589004 -0.08781285
-0.02088199 0.491169 0.21090142 0.22926077 0.045149513 0.25519368 0.07070244 -0.057231072
-0.029591158 0.1884647 0.19511262 -0.040117506 0.15773654 0.36151603 -0.21899739 0.3178239
0.18100402 -0.053094234 -0.05403439 0.08302595 0.14966448 0.017126443 0.019194277 -0.054321945
0.17243963 -0.04139711 -0.037933666 -0.207792 0.023750458 -0.06396348 0.0019248736 -0.032853566
-0.012944032 0.10906257 0.037035268 -0.06382111 -0.11858851 0.0400541 0.11182903 0.035705414
-0.08618264 -0.08876187 0.072570845 0.07637582 0.013458749 -0.0952321 -0.014244681 -0.21587212
0.024486903 -0.09952744 -0.13668208 -0.139229 0.08220931 0.0056329737 -0.12631904 -0.03190413
-0.17464387 -0.06586157 0.35533282 0.05436855 -0.14291655 -0.0076989196 0.4047553 -0.15710838
0.2669627 0.21796758 0.10793104 -0.06675759 -0.08044525 0.015894204 -0.060584065 0.7555456
0.12979789 -0.020191753 0.00054500217 -0.16485202 0.53036445 0.0015080536 -0.098322056 0.055814564
0.08032726 -0.012662233 0.8114023 0.07058689 -0.041469637 0.051846523 -0.058536977 -0.091473676
0.10670539 -0.013784893 0.025908912 0.16038094 -0.029939558 -0.0078091677 0.4374897 -0.0006073551
00000000: 2c99 59bd a166 3d3e 951b 05be addf 1abd
00000010: cab3 03be 02b0 433d d45c 573e d35b a6be
00000020: 0e63 2ebe 290a 113f 3418 8cbe 2f25 4dbd
00000030: f6f4 d8bd aa72 61be 37ac d2be 5f56 413f
00000040: fe26 2d3e 2ead d43d 8670 d63d 9d82 99bd
00000050: 87ae c43e a505 89bd 43fd 133e 513e 1cbe
00000060: e2fc 983b e271 84be 27f1 2c3f ec8f 1e3e
00000070: 62a5 ebbd 0163 70bc 2272 ee3d 18bd 043e
00000080: 7c05 9abe 2cce 43be 0a00 17be e7c0 7a3e
00000090: 4fbf edbe 37a1 adbd 061b ed3e 9215 753c
000000a0: 6256 a23e 613f be3d b390 233b e1d4 483d
000000b0: 29e3 37be e02c 183e 41a6 2abd b205 00be
000000c0: 3e02 ba3e 5f2c ee3d ce34 6c3e 905e 6d3c
000000d0: ab9c 7f3e d785 0a3f 4d55 6fbe 523f 5a3e
000000e0: 2523 b03e 1c02 3cbe 75a8 723e 2b74 1c3e
000000f0: e580 0cbe 412d e33d 3d6c 9b3d 39d7 b3bd
00000100: b510 abbc 817a fb3e 8bf6 573e 56c3 6a3e
00000110: b2ee 383d bfa8 823e 71cc 903d 216b 6abd
00000120: 2869 f2bc e4fc 403e 9acb 473e 4152 24bd
00000130: b085 213e a118 b93e da40 60be d0b9 a23e
00000140: 1e59 393e 5779 59bd 2a53 5dbd 8209 aa3d
00000150: a541 193e c14c 8c3c 513d 9d3c b080 5ebd
00000160: 0494 303e 0490 29bd 5560 1bbd 6dc7 54be
00000170: 5290 c23c 49ff 82bd 0a4c fc3a 7691 06bd
00000180: 3513 54bc 325c df3d 4bb2 173d a4b4 82bd
00000190: 88de f2bd c50f 243d 9e06 e53d d73f 123d
000001a0: 8680 b0bd c9c8 b5bd 06a0 943d ed6a 9c3d
000001b0: 1682 5c3c 0c09 c3bd 8662 69bc 950d 5dbe
000001c0: c298 c83c 0bd5 cbbd 63f6 0bbe 0c92 0ebe
000001d0: 5b5d a83d cf94 b83b c759 01be e8ad 02bd
000001e0: d8d5 32be 6ee2 86bd 2fee b53e 8fb1 5e3d
000001f0: b758 12be 3847 fcbb 163c cf3e 05e1 20be
00000200: 56af 883e e532 5f3e f30a dd3d 34b8 88bd
00000210: 7bc0 a4bd 9034 823c ff26 78bd 706b 413f
00000220: bde9 043e 2d69 a5bc 7ade 0e3a f8ce 28be
00000230: f7c5 073f e2a9 c53a 135d c9bd d09d 643d
00000240: 9e82 a43d 4175 4fbc 10b8 4f3f dc8f 903d
00000250: 11dc 29bd 055d 543d 78c4 6fbd 8d56 bbbd
00000260: 5b88 da3d 08da 61bc ed3e d43c e73a 243e
00000270: ce43 f5bc 0ce4 ffbb a6fe df3e e936 1fba

preamp.model.lin.weight f4 [1, 40]
0.17760229 -0.028540336 -1.364939 0.0024887356 0.0948329 0.1615952 0.5004519 -0.27016807
0.034551274 -0.28220597 0.3444535 -0.66812086 -0.107066035 -0.0604571 -1.5528288 0.43352866
0.08987898 0.1535007 0.02445093 -0.56623524 0.29381278 0.057823304 -0.015432743 0.025166465
-0.4186398 -0.11397143 0.12390753 0.2156631 0.010556865 -0.17479275 0.08917815 -0.30818373
-0.2799742 -0.10399997 0.026580615 0.19026174 0.11977134 0.14379369 -0.38704777 -0.08182511
00000000: 60dd 353e 6ccd e9bc 52b6 aebf 0e1a 233b
00000010: c037 c23d 3679 253e 9e1d 003f 7853 8abe
00000020: a385 0d3d 4d7d 90be 365c b03e f809 2bbf
00000030: 7045 dbbd dda1 77bd 18c3 c6bf 78f7 dd3e
00000040: 7812 b83d 4a2f 1d3e 514d c83c cbf4 10bf
00000050: a16e 963e 21d8 6c3d 9ed9 7cbc e729 ce3c
00000060: f557 d6be da69 e9bd 3bc3 fd3d cad6 5c3e
00000070: b3f6 2c3c dffc 32be 09a3 b63d 42ca 9dbe
00000080: c758 8fbe f0fd d4bd 97bf d93c f9d3 423e
00000090: ad4a f53d a73e 133e 202b c6be ec93 a7bd

poweramp.model.rec.weight_ih_l0 f4 [24, 1]
0.13668908 0.32158563 -0.47657314 0.7350802 -1.2742592 -0.32750827 -0.4648896 -0.36967635
-2.922635 0.6125674 0.37671646 -1.0067132 -0.396087 0.52262914 -0.01702507 0.25724858
-0.1664939 0.6388675 -0.1415099 -0.48174837 -0.60804844 -0.038996123 0.24893704 0.25430694
00000000: 39f8 0b3e dfa6 a43e 6501 f4be 372e 3c3f
00000010: ed1a a3bf 2aaf a7be 0206 eebe 3846 bdbe
00000020: 740c 3bc0 38d1 1c3f fbe0 c03e fadb 80bf
00000030: eacb cabe 06cb 053f 2978 8bbc 16b6 833e
00000040: 607d 2abe d28c 233f f9e7 10be b9a7 f6be
00000050: 10a9 1bbf 66ba 1fbd 5ae9 7e3e 8534 823e

poweramp.model.rec.weight_hh_l0 f4 [24, 8]
0.10458459 0.27668366 -2.0962868 -0.30342528 -0.08159646 -0.6196248 0.092082575 -0.2505799
0.08316127 -0.14841928 -0.06245481 -0.6201812 -0.7760754 0.8281508 0.6322904 1.967786
-0.33840972 0.1583072 -1.1532997 1.0159653 0.36886597 -2.210568 -0.73543423 0.96529907
0.60856694 0.18681483 -1.067367 -1.439844 -1.8478602 0.17729327 0.5319347 -1.4351004
0.14358637 0.1871659 -0.53036076 0.0718949 0.109435394 -0.12135529 -0.054231618 -0.1676754
-0.31004986 0.23541573 -0.5793305 0.2701461 0.23137903 -0.58805174 0.08343389 0.088921994
0.10389416 0.012169312 0.28555247 0.1261539 0.24800147 -0.008714462 -0.37173232 0.2791125
-0.6364497 0.12543409 -0.86849433 0.0114053115 -0.20384364 -0.20426784 0.12620673 0.054799158
0.98829186 2.379573 -1.3932345 -0.6452287 -1.7667767 -0.35450274 0.33595034 -2.7096298
-0.9876506 1.4767741 -0.46914926 0.703807 0.13750954 -0.65928835 -0.82123685 -0.5192287
-2.1268425 1.7694538 0.9406538 0.8467026 0.60206354 -1.0065093 -1.1983618 -0.71927184
0.23048086 0.36126497 -1.1984235 0.46862784 0.28471705 -0.05088404 0.1664103 -0.2158606
-1.3154378 1.1606538 -1.2086344 0.32033187 0.36601582 -0.51339 -0.22591123 -0.094097726
-1.4517471 1.8121241 -0.77407193 1.0279604 0.7708417 -1.5699201 -1.1161996 -0.30199558
0.050824277 0.32153052 -1.2876462 0.19837953 0.1707958 0.009815256 0.22501495 -0.69680494
-1.0285738 1.3496919 0.76840234 0.44843355 0.063597195 -0.7232813 -0.942826 0.56993043
-0.23123415 0.23971766 -0.003981174 -0.14466844 -0.5052418 0.44060916 0.021855082 0.4165406
0.07984007 -0.30253467 -0.3984687 0.1734952 0.20853598 0.071125075 0.2684378 -0.021305466
-0.35473254 -0.65017736 0.8787669 0.09555769 0.0034941924 0.8326881 -0.16639958 -1.1977068
0.17665602 -0.1713767 0.086595476 -0.08191682 0.48305428 -0.2788258 -0.2736027 0.3095841
0.30513945 -0.19643676 0.48998883 -0.19974513 0.19703211 -0.12106652 -0.093036205 0.18246634
-0.13708557 -0.49711522 0.43183365 0.095362455 0.17797707 -0.08857222 0.44467497 -0.7212965
-0.038885426 -0.40881577 -0.22619307 -0.21240264 -0.20708334 0.15360321 -0.029867757 -0.01591735
-0.16250928 -0.061641753 0.82858306 -0.008614792 -0.19262949 0.5095666 0.05439662 0.15054557
00000000: 7230 d63d 7ba9 8d3e 9029 06c0 8f5a 9bbe
00000010: 0b1c a7bd bb9f 1ebf ca95 bc3d 024c 80be
00000020: 7550 aa3d 39fb 17be 9dd0 7fbd 32c4 1ebf
00000030: e1ac 46bf b101 543f c9dd 213f 69e0 fb3f
00000040: 0a44 adbe 481b 223e 539f 93bf 270b 823f
00000050: 00dc bc3e f279 0dc0 6b45 3cbf d71d 773f
00000060: 0bcb 1b3f 634c 3f3e 7b9f 88bf cf4c b8bf
00000070: af86 ecbf 5e8c 353e df2c 083f 5fb1 b7bf
00000080: 4e08 133e 6ba8 3f3e b9c5 07bf a23d 933d
00000090: aa1f e03d 1f89 f8bd f921 5ebd 1ab3 2bbe
000000a0: dbbe 9ebe d210 713e 014f 14bf 9750 8a3e
000000b0: a0ee 6c3e 8f8a 16bf 63df aa3d bc1c b63d
000000c0: 76c6 d43d cb61 473c ef33 923e 7d2e 013e
000000d0: 19f4 7d3e 1ac7 0ebc b353 bebe d5e7 8e3e
000000e0: 5eee 22bf cb71 003e a555 5ebf 58dd 3a3c
000000f0: 63bc 50be 972b 51be 563c 013e 1575 603d
00000100: b200 7d3f ed4a 1840 8255 b2bf b52d 25bf
00000110: bd25 e2bf 6281 b5be af01 ac3e 936a 2dc0
00000120: abd6 7cbf ef06 bd3f 5534 f0be b22c 343f
00000130: 4dcf 0c3e 1fc7 28bf 943c 52bf 2cec 04bf
00000140: 301e 08c0 767d e23f b0ce 703f 80c1 583f
00000150: d620 1a3f 4cd5 80bf eb63 99bf 3322 38bf
00000160: 2d03 6c3e b9f7 b83e f165 99bf fdef ef3e
00000170: 6fc6 913e c86b 50bd 7667 2a3e 900a 5dbe
00000180: 4460 a8bf 4e90 943f 88b4 9abf 8a02 a43e
00000190: 6d66 bb3e 876d 03bf 4655 67be 4fb6 c0bd
000001a0: d9d2 b9bf aff3 e73f 9429 46bf 3594 833f
000001b0: e255 453f 24f3 c8bf a1df 8ebf 2a9f 9abe
000001c0: 1e2d 503d a69f a43e 97d1 a4bf 0124 4b3e
000001d0: 18e5 2e3e 2bd0 203c 526a 663e cf61 32bf
000001e0: 4ea8 83bf b4c2 ac3f 04b6 443f 1599 e53e
000001f0: 3f3f 823d f728 39bf 0b5d 71bf f6e6 113f
00000200: a5c8 6cbe 8c78 753e 8274 82bb f723 14be
00000210: 8757 01bf 8697 e13e 6e09 b33c cf44 d53e
00000220: 3183 a33d d3e5 9abe 1704 ccbe baa8 313e
00000230: 758a 553e 06aa 913d ae70 893e cd88 aebc
00000240: 819f b5be 0672 26bf def6 603f c0b3 c33d
00000250: d2fe 643b 0c2b 553f a764 2abe 754e 99bf
00000260: 51e5 343e 607d 2fbe f858 b13d 01c4 a7bd
00000270: e452 f73e 41c2 8ebe a715 8cbe cf81 9e3e
00000280: 3d3b 9c3e b826 49be d1df fa3e fd89 4cbe
00000290: c9c2 493e b9f1 f7bd c489 bebd 75d8 3a3e
000002a0: 2960 0cbe e385 febe 4d19 dd3e 644d c33d
000002b0: 9f3f 363e 5a65 b5bd 70ac e33e e3a6 38bf
000002c0: 5346 1fbd 4d50 d1be 289f 67be 1480 59be
000002d0: a80d 54be 294a 1d3e 3aad f4bc 1a65 82bc
000002e0: d568 26be 107c 7cbd 051e 543f 0e25 0dbc
000002f0: aa40 45be f572 023f fdce 5e3d 9e28 1a3e

poweramp.model.rec.bias_ih_l0 f4 [24]
0.13697092 -0.553605 0.16528544 -0.33010036 -0.25169593 -0.10308418 -0.17384787 -0.048380874
0.13753226 0.32691923 0.9430643 0.053083707 0.061359398 0.8874814 -0.10201454 1.198657
0.06596362 0.09741807 0.16197573 0.36078805 0.19666898 -0.10562879 -0.39151642 0.18905075
00000000: 1b42 0c3e 0fb9 0dbf 9640 293e ea02 a9be
00000010: 4ade 80be cc1d d3bd 2d05 32be 062b 46bd
00000020: 42d5 0c3e f561 a73e a96c 713f 4d6e 593d
00000030: fe53 7b3d fb31 633f 00ed d0bd 986d 993f
00000040: ef17 873d 2083 c73d f7dc 253e 36b9 b83e
00000050: 9863 493e e853 d8bd d774 c8be 8596 413e

poweramp.model.rec.bias_hh_l0 f4 [24]
-0.10551163 -0.12012829 0.23497364 -0.47880125 -0.0080615925 0.54130185 0.2408387 0.16992812
-0.109523 0.7950085 1.3394222 -0.23395348 0.06485452 1.0644839 -0.012251132 1.402116
-0.16923955 0.17694645 -0.24191579 -0.15500556 0.1352712 -0.26227397 -0.2705119 -0.12852272
00000000: 7b16 d8bd d205 f6bd ee9c 703e 7025 f5be
00000010: c514 04bc c292 0a3f 6c9e 763e a301 2e3e
00000020: 984d e0bd ad85 4b3f 3072 ab3f 8091 6fbe
00000030: 72d2 843d 0241 883f f9b8 48bc 8978 b33f
00000040: 224d 2dbe 7331 353e c6b8 77be c7b9 1ebe
00000050: 8984 0a3e c648 86be 8980 8abe 769b 03be

poweramp.model.lin.weight f4 [1, 8]
0.016001625 -0.1596715 0.40816888 0.22374965 0.41341475 -0.10884835 -0.18473239 0.32885373
00000000: d715 833c ed80 23be 83fb d03e a11e 653e
00000010: 19ab d33e e2eb debd 7d2a 3dbe 845f a83e

exp_avg f4 [160, 1]
2.5158183e-06 -7.1459996e-05 2.1517073e-06 1.695608e-05 -1.7596229e-05 1.4389726e-05 5.8805545e-06 5.151998e-05
6.126392e-05 5.482976e-07 0.00034635907 -7.755861e-06 9.728682e-05 -0.00037938406 7.736278e-06 -3.0080962e-05
-0.00023136086 1.3792341e-05 0.00016949941 3.2362514e-05 -2.584721e-05 0.00015507659 0.00014539884 -0.000101008394
-2.0558464e-05 -3.2605272e-05 -1.2752337e-05 -4.0385617e-05 -0.00012100625 -0.00014043324 -1.427211e-05 -4.907474e-05
-0.00018481139 0.00013182881 1.6696145e-05 8.051995e-06 0.00012132227 5.123382e-05 -3.329826e-05 -8.5402135e-05
3.5415148e-06 -0.00013455075 -8.18394e-07 2.4805224e-05 -4.724411e-05 1.6830854e-05 4.0087096e-05 4.715549e-05
-0.00024999664 -5.0425806e-05 0.00014085493 5.645756e-06 9.107498e-05 -0.00039073374 1.4932281e-08 -1.7317714e-05
-0.00037193403 1.6805003e-05 0.00020532643 2.7332952e-05 0.00011136865 0.00016973013 0.00016519106 -9.0130954e-05
-3.7340007e-05 -0.0001298013 -6.5347944e-05 -1.9757621e-05 -0.00013647614 -0.00022126877 1.4513938e-05 -2.2352708e-05
-0.00020988347 0.00013232481 1.35561095e-05 1.4487143e-05 9.754699e-05 6.973088e-05 -2.4852778e-05 -0.00010464153
-1.4337277e-05 0.0010819135 0.00025031806 3.565471e-05 0.0005797641 -0.00031360568 0.0022582442 0.00036636222
-0.0018340714 -0.0006152438 0.001983578 -0.0004952905 0.0010838244 0.0014429538 0.0001045627 -0.0007673797
-0.0018716338 0.00024569064 0.00026331618 7.425749e-05 0.00046132525 0.00037938572 0.00018728066 -0.0014418027
0.0011609397 0.00033719972 0.001191454 0.00036843756 0.001238216 0.0026670569 -0.00027918885 6.9302376e-05
0.0013252834 -0.00048785028 -0.0004391616 0.0003044533 0.0024059708 7.5618464e-06 -0.00024610612 0.0006699187
2.6512726e-05 -0.0003605472 -1.6768836e-05 1.1484094e-06 -1.4612096e-05 4.920238e-05 7.108867e-06 3.418961e-05
-0.00024699274 -2.6929187e-05 0.00010064223 -1.06240595e-05 2.6017484e-05 -0.0003142718 -3.5801313e-06 -3.2694108e-05
-0.00034300517 1.2457024e-05 9.7241704e-05 4.2574804e-05 -3.037997e-05 8.691603e-06 0.0001792174 -4.992599e-05
-6.1727085e-05 -5.0463586e-05 2.0929632e-05 -1.8007706e-05 -0.00013724665 -0.00020572363 -7.1329923e-06 -3.7448444e-05
-8.183589e-05 0.0001167205 0.000120829725 1.3643029e-05 1.9322899e-05 -2.1480382e-05 3.8783924e-06 -7.675835e-05
00000000: 6ed5 2836 cbdc 95b8 0d66 1036 e83c 8e37
00000010: 9d9b 93b7 676b 7137 9451 c536 2817 5838
00000020: d17a 8038 b92e 1335 8797 b539 2b1f 02b7
00000030: 7706 cc38 11e8 c6b9 10cb 0137 6056 fcb7
00000040: 7599 72b9 a765 6737 a7bb 3139 fcbc 0738
00000050: 76d2 d8b7 0e9c 2239 3476 1839 78d4 d3b8
00000060: f774 acb7 a5c1 08b8 dff2 55b7 ba63 29b8
00000070: bcc4 fdb8 4341 13b9 3f72 6fb7 9ad5 4db8
00000080: eec9 41b9 873b 0a39 b30e 8c37 0e17 0737
00000090: 666e fe38 e5e3 5638 bca9 0bb8 ec19 b3b8
000000a0: c3aa 6d36 3116 0db9 9caf 5bb5 d014 d037
000000b0: fa27 46b8 fc2f 8d37 3123 2838 d2c8 4538
000000c0: fb11 83b9 4c80 53b8 75b2 1339 ad70 bd36
000000d0: 82ff be38 65db ccb9 6f44 8032 8245 91b7
000000e0: 2400 c3b9 78f8 8c37 e54c 5739 1149 e537
000000f0: 978e e938 96f9 3139 2337 2d39 b004 bdb8
00000100: 879d 1cb8 451b 08b9 690b 89b8 2bbd a5b7
00000110: 091b 0fb9 6204 68b9 e480 7337 1382 bbb7
00000120: 2a14 5cb9 acc0 0a39 0c6f 6337 ce0d 7337
00000130: 2492 cc38 7b3c 9238 ef7a d0b7 fe72 dbb8
00000140: 238a 70b7 fece 8d3a 1f3d 8339 f48b 1538
00000150: 4ffb 173a 716b a4b9 0dff 133b 4e14 c039
00000160: 3965 f0ba 5048 21ba ebfe 013b 62d6 01ba
00000170: 1d0f 8e3a 7f21 bd3a ac48 db38 fb29 49ba
00000180: 9c51 f5ba 0ad0 8039 b30d 8a39 b0ba 9b38
00000190: 07de f139 4ae8 c639 c560 4439 dffa bcba
000001a0: ac2a 983a 2eca b039 902a 9c3a da2a c139
000001b0: a24b a23a cac9 2e3b 1860 92b9 6e56 9138
000001c0: 22b5 ad3a 28c6 ffb9 463f e6b9 089f 9f39
000001d0: 7ead 1d3b c4bb fd36 ce07 81b9 7c9d 2f3a
000001e0: a567 de37 d307 bdb9 cdaa 8cb7 0c23 9a35
000001f0: 7926 75b7 a75e 4e38 b488 ee36 d066 0f38
00000200: ce7e 81b9 fde5 e1b7 e30f d338 fd3d 32b7
00000210: 1f40 da37 d9c4 a4b9 3042 70b6 0821 09b8
00000220: 60d5 b3b9 83fe 5037 3eee cb38 5992 3238
00000230: 7dd8 feb7 27d2 1137 4eec 3b39 a067 51b8
00000240: 7a73 81b8 dda8 53b8 0b92 af37 410f 97b7
00000250: dee9 0fb9 84b7 57b9 f057 efb6 f611 1db8
00000260: 4f9f abb8 d7c7 f438 f765 fd38 5de4 6437
00000270: 9c17 a237 c530 b4b7 2323 8236 53f9 a0b8

exp_avg_sq f4 [160, 1]
3.0330927e-08 2.1037323e-07 3.1019717e-08 9.556796e-07 2.1904622e-08 1.638723e-07 1.4413074e-07 1.8866629e-07
9.03488e-06 2.753819e-08 3.7043244e-06 2.195077e-08 1.7417979e-06 1.2562226e-05 2.162594e-09 1.3865927e-08
1.6608335e-06 5.412768e-08 2.0527777e-06 2.0347324e-08 2.7742548e-08 3.8791045e-06 7.667903e-06 2.658481e-07
4.856112e-07 1.1487229e-05 4.5480803e-08 5.6477995e-07 3.0779483e-07 5.3457597e-06 5.4737893e-07 1.0492481e-07
1.4908651e-06 5.440213e-07 7.713942e-06 2.4528273e-09 1.9749596e-06 8.1407015e-06 8.098726e-08 9.1809915e-07
6.465518e-08 8.326645e-07 7.814146e-07 1.3902678e-06 3.2948904e-08 3.6500393e-07 4.903224e-07 1.7447842e-07
8.336079e-06 1.8085139e-07 1.1097355e-06 5.0148635e-08 1.9698073e-06 1.7104569e-05 2.0062119e-08 1.2180801e-07
3.9900106e-06 6.166964e-08 3.7641241e-06 1.7472459e-08 9.549219e-07 5.658482e-06 1.091543e-05 3.8850644e-07
7.907964e-07 5.9923664e-06 1.9727213e-07 5.3831803e-07 4.2907064e-07 9.235875e-06 1.2052197e-06 2.1260407e-08
1.51153e-06 5.343804e-07 6.847168e-06 3.431266e-08 1.3021476e-06 9.471261e-06 7.6710556e-08 2.315979e-06
3.4467218e-06 5.0453484e-05 6.600242e-06 3.531051e-05 1.1520311e-05 2.563143e-05 0.00011035088 9.289365e-06
0.00049599557 2.7880928e-05 0.00026028883 5.179418e-06 0.00013861003 0.00025766913 1.5098678e-06 2.7652784e-05
0.00012248283 2.1294596e-05 0.00016576643 4.2178326e-06 1.8034905e-05 0.00012441711 0.000106721665 4.666818e-05
2.293315e-05 0.00011146617 7.897258e-05 2.7244185e-05 3.9953953e-05 0.00027514485 4.148317e-05 5.231607e-07
7.28056e-05 1.1226422e-05 7.2343006e-05 8.513633e-06 0.00012125882 0.00036155983 8.183812e-06 6.347809e-05
2.2490715e-07 4.442495e-06 1.4940184e-07 1.1294196e-06 1.9987082e-08 5.0769205e-07 1.73683e-07 1.09387905e-07
3.8452736e-06 5.4890485e-08 2.2217934e-07 3.5691585e-08 4.2047012e-07 8.583387e-06 1.951805e-08 2.2210035e-08
3.4374436e-06 5.044104e-08 6.967594e-06 2.9395714e-08 2.592979e-08 6.252404e-06 1.4848609e-05 6.06311e-08
8.102241e-07 4.1604408e-06 1.1176533e-07 5.0506577e-07 4.0345958e-07 3.2817375e-06 7.416949e-07 5.8515056e-08
2.9393289e-07 3.5164717e-07 2.0437108e-06 6.11229e-09 4.162627e-08 2.3115508e-06 3.5450473e-08 2.811207e-06
00000000: 3545 0233 f4e2 6134 8a3a 0533 e744 8035
00000010: c628 bc32 e0f4 2f34 5bc2 1a34 3294 4a34
00000020: 8494 1737 1f8d ec32 cf97 7836 418e bc32
00000030: b8c7 e935 5ac2 5237 c29c 1431 fe36 6e32
00000040: cee9 de35 037a 6833 74c2 0936 3dc8 ae32
00000050: 824e ee32 4129 8236 65a5 0037 e2b9 8e34
00000060: f35a 0235 46b9 4037 ac56 4333 629b 1735
00000070: 003f a534 ba5f b336 98ef 1235 0653 e133
00000080: bc19 c835 dc08 1235 216b 0137 988e 2831
00000090: 8c89 0436 0c94 0837 38eb ad33 4b73 7635
000000a0: 90d8 8a33 4584 5f35 67c2 5135 3d99 ba35
000000b0: b483 0d33 c2f5 c334 b39e 0335 4358 3b34
000000c0: 30db 0b37 0d30 4234 39f2 9435 0263 5733
000000d0: 0831 0436 c87b 8f37 1155 ac32 55ca 0234
000000e0: eee1 8536 3e6f 8433 299b 7c36 5816 9632
000000f0: de2a 8035 fedd bd36 6a21 3737 eb93 d034
00000100: 1d47 5435 0912 c936 c0d1 5334 ef80 1035
00000110: 055b e634 c8f3 1a37 09c3 a135 21a0 b632
00000120: c6df ca35 5772 0f35 bac0 e536 2b5f 1333
00000130: 73c5 ae35 c2e6 1e37 13bc a433 376c 1b36
00000140: 3b4e 6736 049e 5338 a677 dd36 5f1a 1438
00000150: 5c47 4137 1403 d737 2d6c e738 85d9 1b37
00000160: b305 023a d6e1 e937 6077 8839 ddca ad36
00000170: d957 1139 c417 8739 aaa6 ca35 e7f7 e737
00000180: bc6e 0039 cca1 b237 96d1 2d39 e886 8d36
00000190: aa49 9737 f775 0239 c2cf df38 94bd 4338
000001a0: 9160 c037 f2c2 e938 159e a538 718a e437
000001b0: 3b94 2738 5141 9039 37fe 2d38 546f 0c35
000001c0: 35af 9838 1e59 3c37 dbb6 9738 c6d5 0e37
000001d0: 554c fe38 bd8f bd39 344d 0937 8a1f 8538
000001e0: 027e 7134 be10 9536 446b 2034 9096 9735
000001f0: 0fb0 ab32 5548 0835 9f7d 3a34 a3e8 ea33
00000200: a606 8136 bac0 6b33 3190 6e34 504b 1933
00000210: f9bc e134 5e01 1037 a5a8 a732 62c8 be32
00000220: d5ae 6636 83a4 5833 2dcb e936 dc81 fc32
00000230: 36bc de32 becb d136 4a1e 7937 4d34 8233
00000240: 2d7e 5935 ea99 8b36 a403 f033 db93 0735
00000250: 109b d834 d23b 5c36 e318 4735 fc51 7b33
00000260: d4cd 9d34 05ca bc34 af26 0936 4504 d231
00000270: 91c8 3233 2420 1b36 3542 1833 2ba8 3c36

exp_avg f4 [160, 40]
1.2924947e-05 -4.8279486e-05 9.2829185e-07 -4.9356862e-05 1.0274664e-05 8.091885e-05 -1.27708845e-05 -3.9672627e-06
-1.4275432e-05 7.757798e-07 2.3204462e-05 1.5294087e-05 -6.533949e-06 3.1025036e-05 4.80755e-05 2.6010583e-05
2.1826058e-06 2.3791059e-05 -0.00012218414 2.322067e-05 3.6751244e-05 -0.000106100655 -0.00010376903 0.00011453517
-3.162316e-05 0.00017848091 4.4959103e-05 3.5788467e-05 -1.0718339e-05 -0.00012266316 -3.4836383e-05 -3.4572644e-05
-3.656702e-06 8.690818e-06 4.0753457e-05 -0.00014429314 -2.7531396e-05 2.909395e-05 -2.8276148e-05 4.462964e-05
-1.27322555e-05 3.467719e-05 0.00046068983 -6.454306e-05 -1.1573131e-05 1.7758117e-05 -2.9509101e-05 7.3554706e-06
-7.614919e-05 -0.00019635589 4.6897032e-05 5.033929e-05 2.3674977e-05 0.0001368839 5.0018723e-05 4.94036e-05
-8.133475e-05 0.000111377165 -5.89356e-05 8.24092e-05 -2.0361067e-05 -3.6523226e-05 -0.00010062138 -2.2246017e-05
4.143149e-05 0.00018532277 3.8125856e-06 -6.451084e-05 3.3409175e-05 -2.2306807e-05 -7.614976e-05 3.5882917e-05
4.6580186e-05 -5.9438542e-05 4.2040818e-05 -0.00018436857 6.125884e-05 3.0242218e-05 -2.1348036e-05 0.00013339397
-6.307575e-06 0.00025425147 0.00030239986 0.00013167223 -1.6888715e-05 -0.00034342415 2.535922e-05 1.84776e-06
0.00020826943 -0.0001476911 4.3117147e-05 6.159319e-05 5.7973863e-05 -0.0001029968 -5.3403764e-05 -6.1004048e-05
-0.00023885518 -1.4168619e-05 0.00043431268 1.8541787e-05 -2.411171e-05 0.00045367793 0.00038109437 -0.00026695433
0.00026481706 -0.00041544405 -4.2259588e-05 -0.00021989566 2.7361204e-05 0.0004995769 6.393225e-05 0.000101225785
8.9141095e-06 3.8117382e-06 -0.00037925746 0.00028862662 7.667244e-05 -0.000112379385 -1.998292e-06 -0.00018803877
8.657898e-05 -0.000427116 -0.0005686014 -0.00023712541 3.3156317e-05 0.00069686933 -7.234393e-06 1.0954122e-05
-0.00038140424 0.00035171266 -9.468341e-05 -0.00018350875 3.0631185e-05 0.00012689095 0.00022028058 -3.989626e-05
0.00037760992 4.3139313e-05 -0.0008494395 7.0516344e-06 0.0003218307 -0.0009128704 -0.0008068561 0.00066229707
-0.0005234717 0.0009598983 7.239924e-05 0.00040666384 -2.4568677e-05 -0.0010411618 -8.8422516e-05 -0.00024048782
-6.976494e-05 7.846358e-05 0.0008275635 -0.00038206362 -0.00018398454 0.00011037329 6.8758694e-05 0.00033419512
-2.1119891e-05 7.2208204e-05 -6.430458e-07 3.0670773e-05 5.575708e-05 -9.207206e-05 -1.7981045e-05 7.1610098e-06
2.2887838e-05 -1.10846195e-05 3.2094198e-05 -2.4655743e-05 4.144608e-05 -1.4600837e-05 -9.973996e-06 -9.740277e-05
-0.00010550995 -3.8131115e-05 0.00016815068 -5.2381125e-05 2.6964963e-05 0.00013584502 0.00012369694 -4.583815e-05
5.6842717e-05 -0.00010953107 1.3165072e-05 -8.157042e-05 1.999638e-05 0.00016663868 3.4693265e-05 1.1325222e-05
-7.0715355e-06 1.822859e-05 -9.3519215e-05 4.8134854e-05 2.1279506e-05 -4.309925e-05 4.5040393e-05 -5.570791e-05
-0.00018876209 0.00019505905 0.0005838946 7.2885174e-05 1.5342542e-06 -0.00029588415 -0.00018575505 -8.422666e-06
0.00040835567 -0.00021708051 0.0001402377 0.00016780017 6.286589e-05 -3.6016474e-05 4.0014405e-05 5.2971987e-05
-0.00017869184 4.7608217e-05 0.0003674221 1.3333285e-05 2.1745564e-06 0.00030217378 0.00027523746 4.663517e-05
0.0002704779 -2.0890786e-05 -7.3660136e-05 -0.00037824427 -3.652316e-05 0.00022267703 7.2639734e-05 0.000108458924
-2.099662e-05 5.3166863e-05 -0.00031655436 -0.00015093252 -8.766319e-06 -0.00011373333 3.34564e-05 -0.00024529672
7.5342665e-05 -1.836633e-05 4.8408732e-05 -4.543756e-05 -4.772199e-05 7.796751e-05 7.8309116e-05 -1.1932757e-06
-6.213093e-05 5.751333e-06 3.2205e-05 5.8788835e-05 -1.5334783e-05 6.271294e-05 1.922695e-05 0.00013735304
00000000: 3ad8 5837 b47f 4ab8 bb2f 7935 8704 4fb8
00000010: 5961 2c37 fab2 a938 8842 56b7 871e 85b6
00000020: 8380 6fb7 2f3f 5035 34a7 c237 cd4b 8037
00000030: 323e dbb6 e120 0238 ada4 4938 4d31 da37
00000040: e278 1236 e992 c737 8e1e 00b9 02ca c237
00000050: 5925 1a38 5b82 deb8 939e d9b8 9a32 f038
00000060: 1ca3 04b8 9b26 3b39 7892 3c38 931b 1638
00000070: ead2 33b7 249f 00b9 481d 12b8 1802 11b8
00000080: a965 75b6 c7ce 1137 b1ee 2a38 654d 17b9
00000090: 39f3 e6b7 c80e f437 9132 edb7 b630 3b38
000000a0: 9f9c 55b7 5972 1138 be88 f139 4b5b 87b8
000000b0: 382a 42b7 44f7 9437 508a f7b7 03cf f636
000000c0: 49b2 9fb8 e2e4 4db9 4eb3 4438 6723 5338
000000d0: a099 c637 7e88 0f39 32cb 5138 b636 4f38
000000e0: 4392 aab8 2993 e938 9e31 77b8 1ad3 ac38
000000f0: 0fcd aab7 8430 19b8 b104 d3b8 f59c bab7
00000100: b9c6 2d38 3453 4239 b9db 7f36 fe49 87b8
00000110: d420 0c38 811f bbb7 97b2 9fb8 fd80 1638
00000120: 185f 4338 a64d 79b8 fc54 3038 1053 41b9
00000130: 1778 8038 abb0 fd37 8f14 b3b7 acdf 0b39
00000140: a8a5 d3b6 0e4d 8539 6c8b 9e39 7f11 0a39
00000150: 3dac 8db7 9c0d b4b9 83ba d437 8d00 f835
00000160: e662 5a39 87dd 1ab9 afd8 3438 982b 8138
00000170: f628 7338 fcff d7b8 dbfd 5fb8 99de 7fb8
00000180: 3375 7ab9 c1b5 6db7 76b4 e339 2f8a 9b37
00000190: 8143 cab7 9fdb ed39 9fcd c739 01f6 8bb9
000001a0: 25d7 8a39 f5cf d9b9 e33f 31b8 cb93 66b9
000001b0: bd85 e537 0af6 023a 5e13 8638 2e49 d438
000001c0: cf8d 1537 2acd 7f36 13d7 c6b9 cf52 9739
000001d0: 34cb a038 39ad ebb8 651a 06b6 462c 45b9
000001e0: bc91 b538 8aee dfb9 320e 15ba dea4 78b9
000001f0: 5311 0b38 1cae 363a f6be f2b6 99c7 3737
00000200: 36f7 c7b9 1366 b839 c590 c6b8 416c 40b9
00000210: fc79 0038 080e 0539 1efb 6639 4856 27b8
00000220: f2f9 c539 7cf0 3438 ebac 5eba 149d ec36
00000230: 63bb a839 b24d 6fba 3283 53ba 019e 2d3a
00000240: 9739 09ba afa1 7b3a 0cd5 9738 7f35 d539
00000250: d518 ceb7 9877 88ba 7a6f b9b8 752b 7cb9
00000260: c44e 92b8 d08c a438 d9f0 583a b64f c8b9
00000270: f9eb 40b9 3578 e738 8b32 9038 e936 af39
00000280: 9f2a b1b7 7c6e 9738 c59d 2cb5 7ea4 0038
00000290: b5dc 6938 d016 c1b8 00d6 96b7 9b48 f036
000002a0: 42ff bf37 14f8 39b7 e29c 0638 ced3 ceb7
000002b0: 64d6 2d38 1ef6 74b7 fd55 27b7 b744 ccb8
000002c0: 3945 ddb8 f9ee 1fb8 9b51 3039 ceb3 5bb8
000002d0: d132 e237 9f71 0e39 a5b4 0139 5742 40b8
000002e0: 676a 6e38 0cb4 e5b8 8edf 5c37 c910 abb8
000002f0: e6bd a737 bbbb 2e39 9c83 1138 7501 3e37
00000300: 0748 edb6 99e9 9837 bf1f c4b8 68e4 4938
00000310: 6481 b237 78c5 34b8 c1e9 3c38 eaa7 69b8
00000320: 70ee 45b9 c488 4c39 8110 193a eed9 9838
00000330: 93ec cd35 e620 9bb9 3ec7 42b9 134f 0db7
00000340: 9218 d639 1ba0 63b9 c50c 1339 84f3 2f39
00000350: ded6 8338 6510 17b8 24d5 2738 3d2e 5e38
00000360: 3a5f 3bb9 efae 4738 8fa2 c039 06b2 5f37
00000370: 98ee 1136 146d 9e39 bf4d 9039 229a 4338
00000380: eece 8d39 9f3e afb7 fc79 9ab8 164f c6b9
00000390: 7230 19b8 697e 6939 2956 9838 7174 e338
000003a0: e621 b0b7 7cff 5e38 35f7 a5b9 a443 1eb9
000003b0: 0e13 13b7 1e84 eeb8 8953 0c38 2b9b 80b9
000003c0: 4901 9e38 6511 9ab7 7b0a 4b38 3594 3eb8
000003d0: 1929 48b8 7d82 a338 e339 a438 a428 a0b5
000003e0: 4a4c 82b8 93fb c036 db13 0738 0894 7638
000003f0: 32a3 80b7 c184 8338 9049 a137 6d06 1039

exp_avg_sq f4 [160, 40]
2.7893236e-07 4.910831e-07 2.012345e-06 1.8638896e-07 2.1555461e-08 9.677459e-07 1.8827839e-07 2.2476476e-09
8.8267996e-07 7.2647185e-07 7.973223e-08 2.1049286e-07 7.1624264e-08 1.1381647e-07 1.4769342e-08 1.3415743e-07
3.7288146e-07 1.07331914e-07 1.3851094e-06 6.324531e-08 1.5751226e-07 1.3040396e-06 7.732224e-07 1.923775e-07
5.709292e-07 7.287209e-07 1.7545884e-07 6.0866006e-07 3.7144503e-08 1.2024883e-06 6.322894e-08 1.0791914e-07
2.0743155e-08 4.8276146e-08 8.26876e-07 4.9270363e-07 4.676879e-08 9.9908675e-08 1.0619124e-07 3.309426e-07
2.3905102e-07 2.1007136e-06 3.092836e-06 3.221259e-07 1.1084573e-07 2.071129e-06 1.5453077e-07 6.1191883e-09
5.0620633e-06 1.1395508e-06 1.9697583e-07 3.2472377e-07 1.611669e-07 8.9363806e-07 3.4885687e-08 6.6036637e-07
2.0434509e-06 2.0949771e-07 3.8975136e-06 2.0250788e-07 3.4726546e-07 3.0350418e-06 1.5280418e-06 3.269823e-07
7.4842654e-07 1.8325237e-06 7.2213953e-07 1.2981106e-06 1.7407173e-07 3.0869849e-06 1.2292394e-07 1.4567313e-07
4.5069537e-08 7.477802e-08 1.2269645e-06 1.23682e-06 5.928785e-08 4.715244e-07 1.9419558e-07 1.0227465e-06
8.8586326e-08 2.8303239e-06 6.16142e-07 3.014424e-07 2.859998e-08 3.7396733e-06 6.265039e-08 1.8321379e-09
1.4022148e-06 3.5304342e-07 1.2331462e-07 1.2465537e-07 3.936845e-08 1.0904467e-07 2.075021e-08 2.9097342e-07
2.4266358e-06 1.01281266e-07 6.559665e-06 1.4145581e-07 1.2475275e-07 6.660469e-06 3.5376447e-06 1.6201992e-06
1.5241583e-06 3.6859951e-06 2.0252016e-07 1.5698498e-06 6.272216e-08 7.741871e-06 1.1803733e-07 2.095093e-07
3.2555157e-08 3.8939813e-08 2.6518687e-06 1.4799368e-06 4.1151722e-08 3.151004e-07 6.6290184e-08 7.4051593e-07
1.7155049e-06 2.7622034e-05 5.0562146e-05 7.72992e-06 4.1384e-07 5.341304e-05 8.2225785e-07 8.086025e-08
1.8161543e-05 1.4556876e-05 7.9780233e-07 7.755022e-06 3.9797487e-07 3.635364e-06 8.631553e-07 8.9534393e-07
2.1337744e-05 7.729463e-07 7.6368735e-05 2.1957563e-07 2.3303708e-06 8.026972e-05 4.9585906e-05 1.4725995e-05
3.169396e-05 5.083375e-05 2.8078264e-06 2.0562e-05 3.3386678e-07 8.913329e-05 1.8557898e-06 3.7716993e-06
7.269436e-07 9.542188e-07 5.236735e-05 3.395128e-05 3.9393873e-07 3.646664e-06 3.8188216e-07 1.4382384e-05
3.2081847e-08 1.7306371e-07 2.2803842e-07 4.1855735e-08 8.4792795e-08 2.2430481e-07 4.8776144e-08 5.1712394e-09
2.6696313e-07 9.240617e-08 1.5667126e-08 4.061346e-08 9.3547975e-08 8.7461274e-08 2.9917626e-09 1.5745077e-07
2.0149287e-07 3.0279136e-08 7.413383e-07 5.6800314e-08 2.9973418e-08 5.214858e-07 4.77837e-07 3.991881e-08
1.4670755e-07 2.9524332e-07 2.6809351e-08 1.2830586e-07 1.2503414e-08 7.040692e-07 8.8663406e-08 9.7127435e-09
7.589642e-09 1.7211676e-08 1.7714925e-07 5.3466373e-08 5.1308855e-09 7.787466e-08 3.3916223e-08 2.0473097e-07
3.169882e-06 2.0463089e-05 3.9994666e-05 1.8369313e-06 3.5653764e-07 2.7319655e-05 2.2212153e-06 3.811282e-08
1.3326396e-05 1.6882872e-05 1.5153453e-06 4.642533e-06 8.2637644e-07 1.4882052e-06 3.668066e-07 1.8615954e-06
1.3546147e-05 1.1920229e-06 5.1099007e-05 9.702835e-07 2.3805853e-06 4.4964843e-05 2.0096797e-05 1.9445604e-06
1.1444281e-05 7.5890334e-06 5.3923077e-06 1.8522362e-05 3.068872e-07 3.8389615e-05 1.9373513e-06 1.8573131e-06
5.205573e-07 3.0673573e-07 8.651381e-06 7.4423046e-06 2.1828639e-07 5.784388e-06 1.2952963e-06 5.934254e-06
1.0131396e-06 4.7421202e-07 2.3228881e-06 2.0213974e-07 8.203286e-08 1.2138985e-06 1.8302887e-06 1.8966178e-08
1.09844e-06 6.766771e-07 5.2458528e-08 2.9573627e-07 4.0598806e-07 2.5965227e-07 3.676624e-08 1.0201215e-06
00000000: 2cc0 9534 f9d2 0335 d30b 0736 3522 4834
00000010: f628 b932 7fe3 8135 9229 4a34 0975 1a31
00000020: 4ef1 6c35 c402 4335 4239 ab33 d603 6234
00000030: dbcf 9933 446b f433 41bc 7d32 ea0c 1034
00000040: 7030 c834 587e e633 ffe7 b935 7ad1 8733
00000050: a420 2934 7606 af35 708f 4f35 5390 4e34
00000060: f541 1935 529d 4335 c265 3c34 cd62 2335
00000070: d088 1f33 2f65 a135 7ac8 8733 2dc1 e733
00000080: ae2e b232 2f58 4f33 7cf6 5d35 5642 0435
00000090: d4de 4833 608d d633 400b e433 68ac b134
000000a0: ec56 8034 fcf9 0c36 858e 4f36 a6f0 ac34
000000b0: 160a ee33 bafd 0a36 18ed 2534 f340 d231
000000c0: cbda a936 abf2 9835 4e80 5334 b255 ae34
000000d0: 380d 2d34 57e2 6f35 38d5 1533 0844 3135
000000e0: 3822 0936 4bf2 6034 63c7 8236 f170 5934
000000f0: cd6f ba34 9fad 4b36 1e17 cd35 1b8c af34
00000100: 7be7 4835 09f5 f535 0dd9 4135 be3a ae35
00000110: 79e8 3a34 ff29 4f36 13fd 0334 536a 1c34
00000120: 7b92 4133 a795 a033 2eae a435 d000 a635
00000130: aea3 7e33 d225 fd34 1384 5034 4d45 8935
00000140: d93c be33 98f0 3d36 f564 2535 eed5 a134
00000150: 05ac f532 19f7 7a36 6b8a 8633 9fce fb30
00000160: bc33 bc35 eb89 bd34 7768 0434 02d9 0534
00000170: 1216 2933 f12b ea33 323e b232 1537 9c34
00000180: 49d9 2236 f77f d933 181b dc36 14e3 1734
00000190: c6f3 0534 fe7c df36 4668 6d36 9f75 d935
000001a0: ae91 cc35 ea5c 7736 5174 5934 a1b3 d235
000001b0: dfb1 8633 15e3 0137 b57b fd33 7af5 6034
000001c0: c6d2 0b33 c73e 2733 c2f6 3136 3ea2 c635
000001d0: ccbe 3033 122b a934 6a5b 8e33 dec7 4635
000001e0: 4d40 e635 deb5 e737 b112 5438 c1af 0137
000001f0: bd2d de34 d107 6038 21b9 5c35 64a5 ad33
00000200: 9e59 9837 4e39 7437 8f28 5635 911b 0237
00000210: 40a9 d534 14f7 7336 95b3 6735 9157 7035
00000220: 75fe b237 777c 4f35 2728 a038 7dc4 6b34
00000230: 7763 1c36 7a56 a838 76fa 4f38 ab0f 7737
00000240: 21ef 0438 5336 5538 176e 3c36 8f7c ac37
00000250: 4d3e b334 12ed ba38 7414 f935 4d1d 7d36
00000260: 2f23 4335 b512 8035 04a5 5b38 e966 0e38
00000270: 877e d334 36b9 7436 7c05 cd34 de4b 7137
00000280: 5dca 0933 64d3 3934 b9da 7434 dec4 3333
00000290: 5517 b633 70d8 7034 f07d 5133 b4ae b131
000002a0: 2253 8f34 d470 c633 6094 8632 f96e 2e33
000002b0: 8be4 c833 58d2 bb33 a597 4d31 bd0f 2934
000002c0: f059 5834 430c 0233 6100 4735 9bf4 7333
000002d0: 1fbc 0033 3bfc 0b35 b544 0035 3273 2b33
000002e0: aa86 1d34 ef81 9e34 634a e632 72c4 0934
000002f0: 99ce 5632 44ff 3c35 3967 be33 19dd 2632
00000300: 9963 0232 e0d8 9332 6a36 3e34 e6a2 6533
00000310: bf4b b031 0c3c a733 48ab 1133 05d4 5b34
00000320: 28ba 5436 26a8 ab37 f2bf 2738 7b8c f635
00000330: 296a bf34 832c e537 3010 1536 7db1 2333
00000340: 6f94 5f37 b19f 8d37 de62 cb35 0ec7 9b36
00000350: 28d4 5d35 57be c735 84ed c434 eedb f935
00000360: 4244 6337 98fd 9f35 2453 5638 b03a 8235
00000370: 25c2 1f36 a298 3c38 8b95 a837 4b7f 0236
00000380: d000 4037 4da5 fe36 92ef b436 7860 9b37
00000390: 41c2 a434 8904 2138 7103 0236 cb48 f935
000003a0: 6dbc 0b35 70ad a434 6625 1137 e9b8 f936
000003b0: 1b62 6a34 8417 c236 0bda ad35 db1e c736
000003c0: 36fb 8735 3497 fe34 eae2 1b36 c00b 5934
000003d0: 0b2a b033 3ced a235 3ea8 f535 11eb a232
000003e0: 1c6e 9335 e5a4 3535 c34e 6133 afc5 9e34
000003f0: 93f6 d934 5666 8b34 e9e8 1d33 1ceb 8835
