python/logs/tensorboard/amp_model/1_target_LSTM48_rnn_only/epoch=349-step=25200.ckpt (torch, 205467 bytes, 15 tensors)

preamp.model.rec.weight_ih_l0 f4 [192, 4]
000000 37 b9 b3 3e 3a 39 a0 bc 5b 06 14 3e 1d 0b c9 bd
       0.35102245 -0.019558538 0.1445555 -0.09816573
000010 06 6a 98 3d 34 d4 cb be 75 1a 04 be b3 be c7 be
       0.07442097 -0.39810336 -0.12900718 -0.3901268
000020 98 fd d0 be 23 e8 4c be 99 97 40 be 98 fd b9 bd
       -0.40818477 -0.20010428 -0.1880783 -0.09081572
000030 71 c5 12 bf b6 ef c2 3e ba 2d c8 3e a4 c4 c1 3e
       -0.5733252 0.3807351 0.39097387 0.37845337
000040 49 b6 2e 3f 3c 43 71 3e fb 5b 80 3e f0 77 bd 3e
       0.68246895 0.23560804 0.25070176 0.37005568
000050 bd 60 10 3f 1b 86 91 be 05 8b 87 be 01 fd 5f be
       0.5639761 -0.28422627 -0.2647325 -0.21873857
000060 d7 03 d0 be 32 24 f7 3d 8f 35 fa 3d 09 b8 43 3e
       -0.4062793 0.120674506 0.12217247 0.19113173
000070 60 ff 41 be 82 94 d8 bd da b9 84 3c fc 56 a6 3c
       -0.18945074 -0.105752006 0.016201902 0.02030515
000080 0f 1b 2b 3c 1b 4d 82 be 1e 53 a4 be 63 9c 95 be
       0.010443463 -0.25449452 -0.32094663 -0.29220876
000090 9a c2 9d bf 5d cb 10 3e 60 48 6c 3d 7c 17 10 3d
       -1.2325013 0.14140077 0.05768621 0.035178646
0000a0 10 40 fa be ba c7 3a 3c 36 25 5a 3d e9 fc 22 3c
       -0.48877 0.011400158 0.053258143 0.009947994
0000b0 ac 99 08 be 07 64 02 be 8e 81 83 be b7 24 0d be
       -0.13339871 -0.1273347 -0.2568478 -0.13783537
0000c0 95 69 6d bb 38 52 36 be f3 1f 5e be 06 24 7a be
       -0.0036226262 -0.17804801 -0.21691875 -0.24427804
0000d0 a3 70 cc be 3e 99 3a be dc d6 bd bd 72 f5 90 be
       -0.39929685 -0.1822252 -0.09269497 -0.2831226
0000e0 8a e5 39 bf 6d 28 f7 3e 4f 87 c9 3e bd f5 d6 3e
       -0.72615874 0.4827303 0.39361045 0.41984358
0000f0 81 30 4a 3f 64 7f 23 3e 11 0c 22 3e 17 0a d5 3d
       0.7898026 0.15966564 0.15824915 0.10402315
000100 a4 99 96 bd a2 f5 a1 3d 2a 22 eb bd e9 dc 5f bd
       -0.073535234 0.07908179 -0.11481126 -0.054654036
000110 a0 9c 34 bf 1c ed 0a be d1 b9 57 be c8 24 31 be
       -0.7055149 -0.13567013 -0.21066977 -0.17299187
000120 fe b9 8c be f0 46 af 3e f3 77 a9 3e f6 35 89 3e
       -0.2748565 0.3423381 0.33099326 0.2679898
000130 d4 84 df 3d f5 5d e6 bd 06 93 0d be c6 8d f6 3b
       0.10914007 -0.1124839 -0.13825616 0.007524225
000140 8e a9 85 be 80 ba f7 3e f8 e1 17 3f fa 3d dd 3e
       -0.26105922 0.48384476 0.59329176 0.43211347
000150 5e 6f 3a 3e 2f 31 13 bc 95 db d8 bd 82 13 0c be
       0.18206546 -0.008983894 -0.10588757 -0.13679317
000160 63 f5 e8 3d 9c 86 30 3d 3f cb 9c bd 6f 29 b1 bd
       0.11374929 0.043097124 -0.076559536 -0.08650481
000170 e6 49 9b 3e 3d e5 1f 3e 27 02 2c bc dd db 4f bd
       0.30329818 0.15614791 -0.01049856 -0.050746787
000180 2e 83 02 3f c3 94 7d be b5 c4 d7 be b6 67 d0 be
       0.50981414 -0.2476378 -0.42142263 -0.40704125
000190 3a 33 87 be c7 74 c9 be a6 99 76 be 18 2b 11 be
       -0.2640627 -0.39346907 -0.2408205 -0.14176595
0001a0 46 ee 51 3e 07 3f 74 be 26 cd 0e bd 57 03 08 be
       0.2050105 -0.23852168 -0.034863614 -0.13282524
0001b0 b3 53 1d be ec 13 33 3c 40 63 f2 3d e2 e4 b0 3c
       -0.1536396 0.010930043 0.11835337 0.021593515
0001c0 74 3f af 3e 1e 05 b4 be e0 81 8d be 6d 3c 51 be
       0.34228098 -0.35160154 -0.2763815 -0.20433207
0001d0 25 0c 40 bf 7c f2 89 bd 19 b8 d1 bd e4 73 50 be
       -0.7501853 -0.06735703 -0.10240192 -0.20356709
0001e0 ab 41 e0 3d e2 00 0d 3e 46 10 5d 3e 6b 21 db 3b
       0.10950025 0.13769868 0.21588239 0.0066873333
0001f0 10 79 ae 3e 10 9e 7d be f2 8a 33 bd 13 b6 a3 be
       0.34076738 -0.24767327 -0.04383368 -0.3197485
000200 0a 7f b6 be ce 7f bc 3e a4 dc f9 3d 29 1a a0 3e
       -0.35643798 0.36816257 0.12200287 0.3126996
000210 36 6a 75 3d e5 8b 35 be e9 49 7f be d7 ca 40 be
       0.059915744 -0.17729147 -0.24930538 -0.18827377
000220 8a 88 ce 3e 2d d6 12 be bd b0 88 be bf ac c8 bd
       0.40338546 -0.14339514 -0.2669734 -0.09798574
000230 fb 34 3e bf 36 f5 73 3e c7 62 60 3e 2e 3e 48 3e
       -0.7429959 0.2382401 0.2191268 0.1955497
000240 e0 a4 0e be 26 c7 c1 be 93 d9 9c be 3c 73 23 be
       -0.13930082 -0.3784725 -0.30634746 -0.15961927
000250 a9 04 59 bf d4 a3 f6 3d 08 ac 22 3e 42 e7 30 3e
       -0.84772736 0.120429665 0.15885937 0.17275718
000260 1d ed 43 3e 13 ca 5a bd 13 80 07 3e 80 d8 e1 bd
       0.1913342 -0.05341537 0.1323245 -0.11027622
000270 cb e4 ef 3e 82 71 1e 3f f4 d3 2f 3f 52 48 3e 3f
       0.46854243 0.6189195 0.6868279 0.743291
000280 65 49 56 be 78 80 08 be 3b 81 41 be 8d d4 96 3b
       -0.20926435 -0.13330257 -0.18896954 0.0046029747
000290 e8 c5 52 3d 1f e7 98 3d f4 45 bb 3c e0 83 3b 3c
       0.05145827 0.07465958 0.022860505 0.011445016
0002a0 e8 4c 99 bd e3 95 da bd 46 cd 63 be 3e b4 52 be
       -0.07485372 -0.1067312 -0.22246274 -0.2057657
0002b0 f3 8d 5a be 38 a1 f7 be 15 d6 06 bf ca 47 14 bf
       -0.21343212 -0.48365188 -0.52670413 -0.5792204
0002c0 86 85 5f 3f b6 bf bd bc 29 27 52 3d 66 39 36 3d
       0.87313116 -0.023162704 0.051306877 0.044488333
0002d0 d3 77 81 bf 30 94 1a bd 58 80 ae 3d 18 ff 01 3d
       -1.0114692 -0.03773898 0.085205734 0.031737417
0002e0 5a 30 08 3f 59 64 1e be 14 1c 75 bd 9a 34 92 be
       0.5319878 -0.15467967 -0.05984123 -0.28555757
0002f0 56 8f b5 be 1a c0 64 be 24 ad 7a be 22 25 14 be
       -0.3546092 -0.22338906 -0.2448011 -0.1446729
000300 f6 9a 61 3e 47 39 b6 3d 25 1c 8a 3d 53 76 4d bd
       0.22031769 0.088976435 0.067436494 -0.05016167
000310 59 53 0b 3f ec 8e e8 3e f0 b9 be 3e 3a 45 e3 3e
       0.54424053 0.4542154 0.37251234 0.44388753
000320 6f 0b dc bd a3 25 31 3e ea ed a1 3d fb 50 db 3d
       -0.10744368 0.17299514 0.07906707 0.10708805
000330 a3 1c 82 3e bb cc 2c 3e 27 34 df 3c ac 02 81 3d
       0.25412473 0.16874973 0.027246548 0.06299338
000340 8a 28 2e 3e ff f7 7b bd 57 fe eb bd e4 ef 95 bd
       0.17007652 -0.061515804 -0.11523121 -0.07321146
000350 f9 84 4c 3f 6b 14 82 3e c0 90 a5 3e fa ee 84 3e
       0.798904 0.25406203 0.32336998 0.25963575
000360 7f 2d 17 bf bf 14 85 3e 13 23 25 3e 91 3a 12 3d
       -0.59053797 0.2599239 0.16126661 0.035700385
000370 6e d8 e6 3d 20 56 db 3d 1f 3b ca 3d a8 93 c5 3d
       0.112717494 0.107097864 0.09874558 0.09647304
000380 4e f2 07 bf 3e 92 6b 3e 45 5a eb 3e 8f 24 7a 3e
       -0.531041 0.23005006 0.45967308 0.24428008
000390 60 02 c9 bf 3e 60 42 bc 2f fc e6 3d 4c 16 18 bd
       -1.570385 -0.011863766 0.11278569 -0.03713064
0003a0 14 fd 1d bf e2 d8 1e 3e 0e 6b 5c 3e 9a 6a bd 3e
       -0.6171429 0.15512422 0.21525213 0.36995393
0003b0 a3 d4 96 be 29 4c b4 3e 30 6b bb 3e 15 01 bb 3e
       -0.29459104 0.35214356 0.36605215 0.36524263
0003c0 fb b1 d6 be 93 b7 a1 bd d2 35 47 3e 5c 6d d7 3d
       -0.41932663 -0.07896342 0.19454125 0.105189055
0003d0 50 aa 30 bf a8 db 12 3e 54 16 79 3e 8b b3 27 3e
       -0.69009876 0.14341605 0.24324924 0.16377084
0003e0 95 b9 d9 be 88 ae 9e 3d 49 a5 af 3d e2 ec c4 3d
       -0.425244 0.07748133 0.085764475 0.09615494
0003f0 a6 43 1c bf 67 1e 74 bc 85 ad 25 be 5a cb 46 be
       -0.61040723 -0.014899827 -0.16179474 -0.1941351

preamp.model.rec.weight_hh_l0 f4 [192, 48]
000000 95 a1 9d 3c 73 d0 c4 3e ae 4f 5d be c5 35 d3 bd
       0.019242087 0.38440284 -0.21612427 -0.1031299
000010 18 39 7c 3d 96 ba a1 3d 33 c2 ee 3d dc 7b ec 3d
       0.061577886 0.078969166 0.11658134 0.11547062
000020 84 3e 04 3f ec 2a 3f 3e 63 f3 2a be cc e3 af 3d
       0.5165789 0.18668717 -0.16694407 0.08588371
000030 52 36 44 3e a2 e6 bf 3e 76 f0 62 be 6a 12 fd 3d
       0.19161347 0.37480646 -0.22162041 0.12357028
000040 0e df 32 3e 0b 9f 59 bd 61 74 3d 3e 2a cc 23 be
       0.17467901 -0.05313019 0.18501426 -0.15995851
000050 bf 53 80 be 2e 2c 83 3e 06 f5 72 be 25 18 ba bd
       -0.25063893 0.25619644 -0.23726282 -0.090866365
000060 9b e6 b0 be 56 08 d8 bc 8d 00 88 3e f0 50 95 3d
       -0.34550938 -0.026371162 0.2656292 0.07290828
000070 ed 4b 5e 3d e6 30 a9 3d 58 fc 9b 3d 2a e3 88 bb
       0.054271627 0.0826128 0.0761649 -0.0041774707
000080 ca 83 ed 3e c6 cb 67 be fb 4f 41 3e d4 a9 ce bd
       0.4638961 -0.22636327 0.18878166 -0.10090986
000090 17 f5 65 be 2f 09 07 be f7 fd c9 3d 7f 27 cb bd
       -0.22456776 -0.13187097 0.09862893 -0.09919643
0000a0 ea 64 21 3e a2 68 dd bc 37 3f 8a 3e 6c cd 89 be
       0.15761152 -0.027027432 0.27001354 -0.26914537
0000b0 0c d1 1d 3e 17 3f 29 3e 94 ab ce be 8f f3 dc bd
       0.15411776 0.16527973 -0.4036528 -0.107886426
0000c0 4a 64 97 3d 89 e0 ed 3d 4e 61 a8 3e 08 da 8a be
       0.073921755 0.11615092 0.32886738 -0.2711947
0000d0 8b 59 da 3b fd f4 3d be 54 66 6e be 4d 32 04 3d
       0.0066635064 -0.18550487 -0.23281223 0.032274533
0000e0 58 4e 59 bc ad be 66 be d4 8c f3 be 22 c4 e9 bd
       -0.0132633075 -0.22533675 -0.4756838 -0.114143625
0000f0 41 a9 89 be 65 5e ec bd c6 ad 2e 3d a9 18 42 3b
       -0.26886943 -0.11541442 0.042646192 0.002961675
000100 9a 81 23 3e b6 67 3e 3e e5 ae 97 be c7 67 2f 3e
       0.15967408 0.1859425 -0.2962562 0.17129432
000110 3e 30 d5 3d 60 82 f6 be 36 99 9a 3e 12 1a 65 be
       0.10409592 -0.48146343 0.30195016 -0.22373226
000120 bc b0 0d 3e 4e 64 0a bf fb 8c 02 3f 99 0c fb 3e
       0.1383695 -0.540593 0.5099637 0.4903305
000130 91 5d 32 bf d8 e4 16 be 85 7d be 3d 3c eb 98 bd
       -0.6967402 -0.14735734 0.09301285 -0.074667424
000140 f4 fe 5a bb 22 37 2c 3d 8e 9c 11 3e f6 51 59 3e
       -0.0033416124 0.042044766 0.14219877 0.21222672
000150 72 80 89 3e b7 e6 ee be cc 3d cd 3e 15 90 e6 3d
       0.26855808 -0.46660396 0.4008621 0.1125795
000160 7d 1b b6 3d 88 50 b4 3c dd 4d 1a be 02 9b 0c be
       0.08891962 0.022011057 -0.15068765 -0.13731006
000170 6a 43 19 3e 0b be d8 3e 9f 24 ac be d2 70 32 be
       0.14967123 0.4233249 -0.3362169 -0.1742585
000180 7c e2 11 3e 6a b7 37 be 1a e4 8b bd ec a5 81 bd
       0.14246553 -0.1794106 -0.06830616 -0.06330475
000190 a0 ea 9f be 75 ea 02 be 2e 45 80 3e 0e 92 bb 3e
       -0.31233692 -0.12784751 0.2505278 0.36634868
0001a0 1b 69 80 3c e8 97 83 bd 4d 8b fc 3d 7e 0f 9a 3d
       0.015675118 -0.06425458 0.12331257 0.07522486
0001b0 2d b8 6f 3e de 76 82 3d 53 3a 1a be 68 2c 38 3d
       0.23410101 0.06370328 -0.15061311 0.044964224
0001c0 52 3d 8d 3c 6f c7 9e 3d 5c a2 23 3b 0f b1 ce bd
       0.017241154 0.07752883 0.00249686 -0.10092365
0001d0 3b ee 3d be e7 23 61 3e 89 6a 49 be 4c 62 da 3d
       -0.18547909 0.21986352 -0.19669546 0.1066328
0001e0 fa f7 52 be 7b b4 10 be 01 4c 0a bd 86 43 f4 bd
       -0.20602408 -0.14131348 -0.03376389 -0.119269416
0001f0 8b ae 59 bd e4 94 9b 3d ac e3 1c 3d 7c 6e 62 3e
       -0.053144973 0.07596758 0.038303062 0.22112459
000200 3b ac a7 bd 6c 97 f7 3d 04 6b 3b 3d 99 e6 b3 be
       -0.08187147 0.12089428 0.045756355 -0.3513687
000210 1c c4 fb bb 78 f2 8c 3e cd be db ba a3 be b1 ba
       -0.00768329 0.2752874 -0.0016765237 -0.0013560842
000220 ed 41 a9 bd 48 9e 2a 3e 78 57 0a be 29 b4 7c be
       -0.082645275 0.16661942 -0.13509929 -0.246781
000230 8f 53 1a 3e 1a 0e 37 3e ff 79 c9 bd 0f db b9 bd
       0.15070938 0.17876473 -0.09837722 -0.09074985
000240 88 60 7b 3e 75 ba 3b bf 4e 4a 1d be 59 e4 30 bf
       0.24548542 -0.73331386 -0.15360376 -0.6909843
000250 40 38 86 bc 9d f8 22 3e 84 ec 36 3f 8d 2d 75 bf
       -0.016384244 0.15915151 0.71454644 -0.9577263
000260 de f0 b4 3d 0b 19 e7 3e f7 32 6e 3f ff 3f d4 bc
       0.08835004 0.45136294 0.93046516 -0.025909422
000270 c7 de 21 bf f8 ae 7f bd 72 bc 83 bf a3 85 ca 3e
       -0.63230556 -0.062422723 -1.0291884 0.39555082
000280 71 07 89 be e8 f3 d7 3c 4e 65 43 3f c2 51 26 3e
       -0.2676349 0.02636142 0.76326454 0.16242126
000290 39 8b a8 be 33 eb c7 3c 42 1c 78 3e 09 fc 89 3d
       -0.32918718 0.024404144 0.2422953 0.06737525
0002a0 3f 72 40 3b ac cd 6e 3f ca 10 bd 3c 42 b4 87 be
       0.002936497 0.9328258 0.023079295 -0.26504713
0002b0 02 23 fb bc 52 70 18 3f 9b 45 2e bf d7 0f c0 bd
       -0.030656341 0.5954639 -0.6807496 -0.09378021
0002c0 ba 2c f1 be 81 79 70 be 94 e6 d4 3d d9 c8 bd 3a
       -0.47104436 -0.2348385 0.10395542 0.0014479413
0002d0 06 48 b3 3e 33 32 34 bd a5 cf 3d 3f 2c 7e 7c bf
       0.35015887 -0.043993186 0.74144965 -0.98630023
0002e0 3b e4 27 3e ed 1a ac 3e 2f 7c ef bd 86 76 d0 bd
       0.16395657 0.33614293 -0.11693608 -0.101788566
0002f0 58 8f 16 3e 8f 78 9a bf ac 6a 13 bd 30 b5 85 be
       0.14703119 -1.2068042 -0.035990402 -0.26114798
000300 15 82 59 be d2 c7 58 be 82 8d 66 3e fe 3f 57 bf
       -0.21241029 -0.21169975 0.22514918 -0.8408202
000310 79 80 2f be 80 64 28 3f de 1a 9e 3e 58 7b e2 be
       -0.17138852 0.6577835 0.30879873 -0.4423473
000320 02 df 8a be 17 a5 91 3e df 3e 4d be 7c 1e 93 3e
       -0.27123266 0.28446266 -0.20043515 0.28734195
000330 da 31 10 3e d7 ea ac be fa 44 00 3f d3 a9 1b 3e
       0.14081517 -0.3377292 0.5010525 0.15201502
000340 ea 63 f7 3d a2 71 8e 3f 0c e8 26 3f c4 61 1a 3e
       0.12079604 1.1128428 0.65197825 0.15076357
000350 1c c7 c8 3e f5 bb 32 be 38 a0 97 bd 9b d4 9c 3e
       0.39214408 -0.17454512 -0.07403606 0.30630955
000360 81 e8 7b 3f a9 74 65 3e db ad 4a 3f 6d e6 20 3e
       0.9840165 0.22407784 0.7917153 0.157129
000370 ea 2f de be dc db c9 3e 13 31 29 3f 4d 59 9b be
       -0.4339593 0.39425552 0.66090506 -0.3034157
000380 89 28 d5 3e dd 7b 06 be 2a b2 84 be 3a 86 05 3e
       0.41632488 -0.13133188 -0.25917178 0.13039485
000390 24 0f 28 3f 9a 01 b3 be 53 6c 22 3e 57 8a b3 be
       0.656481 -0.3496216 0.15861635 -0.35066482
0003a0 b9 a4 f1 be 6c 7d e5 3d 62 74 37 bd 1e d6 ed be
       -0.47195986 0.11205563 -0.044788726 -0.4645242
0003b0 12 f9 0d 3f 69 ae 17 3d 2d 28 e1 be e2 d4 6a be
       0.55458176 0.037031565 -0.43975964 -0.22932771
0003c0 45 2e 95 bc 05 97 1c 3e 8b 6a 90 3e 9c b0 23 be
       -0.01821054 0.15291984 0.28206286 -0.1598534
0003d0 75 4d 23 be 69 3e 4a bd 9b f8 e8 be d9 ea a1 be
       -0.15947516 -0.049375925 -0.4550217 -0.31624487
0003e0 39 78 5c 3e c5 b3 a6 3d 8e 0b b2 be f5 5f 0c bd
       0.21530236 0.08139757 -0.3477444 -0.0342712
0003f0 2b bf 8f 3e 75 10 d1 be f7 f5 ab be 32 e9 e2 3e
       0.28075537 -0.40832868 -0.33586094 0.4431854

preamp.model.rec.bias_ih_l0 f4 [192]
000000 65 7a b6 bd 45 c6 6e be a4 54 24 be 15 f0 09 3f
       -0.08910064 -0.23317821 -0.16047913 0.5388196
000010 0f b0 dc 3e a0 e3 9b be 27 c5 9d 3d 3f 72 24 be
       0.43103072 -0.30447102 0.077036195 -0.16059206
000020 ff 55 3a be 9c ac b5 3d 9a 6f ed bd 54 66 36 be
       -0.18196867 0.08870813 -0.11593552 -0.17812473
000030 0f 6f 0f be 78 8e 90 be 7e 30 c9 3e 2a bb da 3d
       -0.14007209 -0.28233695 0.3929481 0.1068023
000040 69 09 d1 bc 69 4e a2 be 93 73 ab 3e 25 e7 02 3d
       -0.025517182 -0.31700447 0.33486614 0.031958718
000050 82 af e8 3e 47 c5 f2 bd 76 3b ad bd 9a 0e 46 3c
       0.45446402 -0.11854034 -0.08458607 0.012088442
000060 0b 91 be be a3 14 c1 be c3 7d 09 be b4 ec 0c 3d
       -0.37220034 -0.37711057 -0.1342688 0.034405425
000070 21 41 47 be 6f e8 d8 bd a6 99 b2 3a 92 68 14 be
       -0.19458438 -0.10591208 0.0013626113 -0.14493015
000080 dd 75 0c 3e 45 c0 05 be 41 7d f0 bd e4 f6 e6 3d
       0.13716836 -0.13061626 -0.1174264 0.112775594
000090 39 5a ce be 19 ab 12 3d f1 c2 3b bd de a3 23 3f
       -0.4030321 0.035807703 -0.045840207 0.63921916
0000a0 10 0b d1 bd 5a 4d b9 3d 20 69 91 bd 71 9f 03 bf
       -0.10207188 0.09047957 -0.07100129 -0.51415163
0000b0 4b c6 bb 3c 5d cc 0b bd 2b d0 82 be 53 d5 46 be
       0.022921702 -0.034130443 -0.25549445 -0.19417314
0000c0 d3 e5 c6 bd ab 11 da 3e 05 ad 28 3e 8c 6c 5d bc
       -0.09711804 0.42591605 0.16472252 -0.013514649
0000d0 41 f6 30 be c2 89 dc 3e 62 80 16 3d c8 98 83 bd
       -0.17281438 0.4307385 0.03674353 -0.06425625
0000e0 70 d9 76 3e 15 0d 4a bc e4 cf ca 3d de 5b c3 3e
       0.24106383 -0.012332221 0.09902933 0.38156027
0000f0 af 1c 01 3e e0 33 88 3e 05 de 70 3d f5 d4 33 3d
       0.12608598 0.26602077 0.058805484 0.043904264
000100 69 7a 5f 3d 41 31 04 3f 1d 82 38 3d 8f 0f c7 3d
       0.0545601 0.51637655 0.04504596 0.097197644
000110 21 ea 59 be cb 43 8f 3c 8b 89 f3 3d de 5d 50 3d
       -0.2128072 0.01748838 0.118914686 0.05087077
000120 a5 3f e4 3e 70 45 65 3e 7c e1 6b 3e de a5 2a 3d
       0.44579807 0.2238977 0.23035234 0.04166209
000130 81 0b a1 3c 33 bd 9b 3e 5b 76 6e 3e ac 28 91 3d
       0.019658806 0.30417785 0.23287337 0.07087836
000140 34 aa 8c be 13 51 5c 3e 5e 73 ce 3d 3c 1c ba bd
       -0.27473605 0.21515302 0.10080598 -0.090874165
000150 1d 36 70 3e 79 00 a0 bd 1f b1 a1 3c a7 4d a3 bd
       0.23458143 -0.0781259 0.019737778 -0.079737954
000160 40 73 5a 3e 44 65 0c 3d 68 9d 58 3e 4e 7f 36 3f
       0.21333027 0.034276262 0.21153796 0.71288
000170 5f b8 4d be df c6 97 3d d2 c7 be 3c a8 9c be 3e
       -0.20089863 0.074109785 0.023288641 0.37228894
000180 52 99 08 bd 5b dd 76 3d 6b 76 f5 bd 26 12 d4 bd
       -0.033349343 0.060269695 -0.11985477 -0.10355024
000190 f3 c2 79 bd 0b 8e 5f 3d 34 ce e1 3c 49 c8 0a be
       -0.060976934 0.054578822 0.027564146 -0.13552965
0001a0 29 df 31 3d 8a 19 1b 3e b1 c1 1a 3e 27 5a 65 3d
       0.043425713 0.15146461 0.1511295 0.05599418
0001b0 f7 3f 0e be 8f b7 c5 3d 83 91 e1 3d 65 ca 49 3d
       -0.13891588 0.09654152 0.11014082 0.049265284
0001c0 db aa 9f bc 5b dd 58 3d 4d 31 d5 3c a0 e9 df 3c
       -0.01949065 0.052945476 0.026024485 0.02733308
0001d0 91 a3 5a 3c 34 a8 78 3b 03 32 c0 bd 44 2a 4a 3d
       0.013344661 0.0037942054 -0.09384539 0.049356714
0001e0 a1 5e a5 bc 88 e9 1f 3d db 3c 01 3e 86 5c e4 bd
       -0.020186724 0.039041072 0.12620871 -0.1115046
0001f0 33 6f df bd 77 24 cf 3c db 51 6e 3d 25 6f 0d 3d
       -0.109098814 0.025285942 0.058183532 0.034529824
000200 37 07 fe 3c f8 2a ff bc 9a 72 5c 3d 1a b6 0f be
       0.0310093 -0.031148419 0.05382023 -0.1403431
000210 58 0b 99 3d b6 fb fb 3d 79 f2 21 bd 23 2e 9c 3d
       0.07472867 0.123038694 -0.03953788 0.076259874
000220 6a ee b5 3c ee 2c 96 3d f3 0f 33 3d 77 a2 0a bc
       0.022208411 0.073327884 0.043716382 -0.008461586
000230 df 60 9a 3c 89 63 e7 3c 65 89 e2 bb b7 13 8a bd
       0.01884502 0.028245704 -0.0069133514 -0.067420416
000240 c9 c6 73 3e 45 cd 4a 3e 35 90 15 3d 89 dd 96 3e
       0.238063 0.19804867 0.03651448 0.29465893
000250 19 c8 f3 3e 94 eb 2e bd c4 30 a4 3d 39 48 12 be
       0.476136 -0.042705134 0.08017114 -0.14285363
000260 23 14 5f 3c 0b a9 b0 bd 43 b6 bd 3d c1 0e a6 bc
       0.013615641 -0.086259924 0.09263279 -0.020270707
000270 c5 a8 09 3d 29 71 f8 3c 92 74 18 3f 00 65 86 3e
       0.033608217 0.030327396 0.5955287 0.26248932
000280 64 ab 38 3d 03 80 ac bb 4a 4f 86 3e 08 ab 3f 3d
       0.045085326 -0.0052642836 0.26232368 0.046793967
000290 7a 18 ce 3e 83 6a d0 bd e9 8d a8 bd 46 a8 ed 3c
       0.4025305 -0.101765655 -0.08230192 0.029010903
0002a0 a5 1b 2c be 17 8c 3a 3e 93 cc 3f 3d d1 eb cc 3d
       -0.1680742 0.18217503 0.046825957 0.10005916
0002b0 cc 82 eb bc a9 39 8c 3c 15 79 59 3e f1 a4 81 bd
       -0.028748892 0.017117338 0.21237595 -0.06330288
0002c0 6f 23 be 3e d9 0a c3 bd 6c 78 5e be 7c f2 7f 3e
       0.3713641 -0.095235534 -0.21725625 0.24994844
0002d0 07 69 d1 bd 36 1d 3a 3e a4 31 52 3e 24 9c 11 3f
       -0.102251105 0.18175206 0.20526749 0.56878877
0002e0 0e 43 ee bd 0d d0 3f bd 42 f1 f9 bc ca 67 23 be
       -0.116338834 -0.046829272 -0.030510549 -0.15957561
0002f0 f1 3c 25 3e a9 92 20 3e e5 c3 88 bd eb ec 38 3d
       0.16136529 0.15680946 -0.06677989 0.045147818

preamp.model.rec.bias_hh_l0 f4 [192]
000000 6e 87 c3 3d d5 3e 22 be 5b ae f8 bb 10 88 c7 3e
       0.095473155 -0.15844281 -0.007589144 0.38970995
000010 ea 9d 5a 3e 9c 13 6c be 2b de 47 3d 03 bc 5a be
       0.21349302 -0.23054355 0.04879586 -0.21360783
000020 fe 69 3e be f6 63 06 3e e7 31 d3 bd 08 a1 9c bd
       -0.1859512 0.1312407 -0.103122525 -0.07647902
000030 18 77 98 be 64 89 d8 bd b6 2e 05 3f 47 24 4f 3e
       -0.2977836 -0.1057308 0.520244 0.20228682
000040 ab 22 a5 bc a9 d7 8e be c4 c6 ae 3e 42 3e 1e 3c
       -0.020158133 -0.2789891 0.3413602 0.009658398
000050 5f 3d d6 3e 53 28 4c be 10 0e 08 be 09 e2 45 bd
       0.41843697 -0.19937257 -0.13286614 -0.048311267
000060 1e df 82 be ce 34 4c be 3e a5 8f bc 28 2e 42 bd
       -0.2556085 -0.19942018 -0.017534848 -0.0474073
000070 ab 17 e3 bd d2 f2 86 bb 5b 97 11 3c dc b1 35 be
       -0.11088499 -0.004118302 0.008886184 -0.17743629
000080 86 07 72 3e 1e 75 0a be d4 25 db bd 64 31 68 3e
       0.23635682 -0.13521239 -0.107005745 0.22675091
000090 3d d2 55 be 76 f2 9f 3d 95 07 0d 3e d5 7a 1e 3f
       -0.20880981 0.07809918 0.13772424 0.61906177
0000a0 69 2c 45 be cc 7a f6 3d e9 b7 31 be 7c 5c 28 bf
       -0.19255222 0.120351404 -0.17355312 -0.6576612
0000b0 05 6c c5 3b 0a e4 1d 3d 79 d3 6d be 8c d1 80 be
       0.00602484 0.038547553 -0.23225202 -0.25159872
0000c0 1a 6d db 3d 06 99 9a 3e 4a 1c 14 3d 6d 08 38 3d
       0.10714169 0.30194873 0.03615979 0.04492991
0000d0 83 0a 48 be ff b4 ee 3e e6 96 2e bc 3c 21 24 3e
       -0.1953526 0.46622464 -0.010656094 0.16028303
0000e0 24 36 b6 3e 86 f6 1e 3d f7 b9 a1 3e a5 3b 94 3e
       0.3558818 0.03880932 0.31587192 0.28951755
0000f0 a4 a4 8a bb 58 47 bb 3e 91 14 65 3e 13 65 ed bd
       -0.0042310525 0.36577868 0.22371127 -0.11591544
000100 62 b7 70 3b 9d 94 ef 3e 87 60 05 3d 5d 37 a0 3e
       0.0036730398 0.4679307 0.03256276 0.3129224
000110 3d 3c 16 be 4c 26 05 3e a5 f6 5d 3b 1d 52 06 3e
       -0.14671417 0.1300289 0.0033868935 0.13117261
000120 a9 ae e5 3e 38 a5 e2 3e 67 8c b2 3e fd 70 1a bc
       0.44859818 0.44266677 0.34872743 -0.009426353
000130 18 97 16 3d 20 23 9f 3e 9f c3 53 3e 3f 42 94 3e
       0.036765188 0.31081486 0.20680092 0.28956792
000140 a0 6d ba be 84 fc 17 3e c0 a0 eb 3c e5 55 7e bd
       -0.36411762 0.14842421 0.028763175 -0.062093634
000150 c1 bb 6b 3e e8 d2 99 3d d5 60 45 3e a4 4e cc bd
       0.23020841 0.0751093 0.1927522 -0.09975937
000160 cd 72 25 3e 29 d0 85 bd d4 9c 4e 3e 61 97 41 3f
       0.16157074 -0.06533844 0.20177013 0.7562161
000170 f8 14 8f be d7 3d 3f 3e 7a 75 b4 bc 0f 66 0c 3e
       -0.27945685 0.18675934 -0.022028673 0.13710807
000180 d0 a7 2c 3e b6 c4 b6 3d 2f b2 c3 3c 01 61 63 bd
       0.1686089 0.089242384 0.023888675 -0.055512432
000190 c5 a0 02 be 3a a4 f4 3d 06 b9 26 3e a0 2e c5 3d
       -0.12756641 0.11945386 0.16281518 0.09628034
0001a0 a3 73 f4 bd b5 d0 2e 3d b8 33 be 3c b0 c0 5f 3d
       -0.119361185 0.042679507 0.02321802 0.05462712
0001b0 47 27 06 3e 44 b2 6b 3a bb 9f b3 bd 29 a5 8a 3d
       0.1310092 0.0008991102 -0.087707005 0.06769783
0001c0 27 93 05 3e c7 43 7c 3c bb e0 3c 3e 64 e7 03 3d
       0.13044415 0.015397019 0.18445103 0.032203093
0001d0 f2 22 2d bd c0 c5 d7 3d 44 58 79 bd 06 b2 2d 3e
       -0.042269655 0.10535765 -0.060875192 0.16962442
0001e0 aa d9 c9 3d 27 22 8b 3c e8 6e 05 be d9 e5 f2 3c
       0.09855969 0.016984059 -0.13030589 0.029650616
0001f0 8f f2 e7 bd 62 a8 76 3d 10 13 44 bd 1b 0e ca bd
       -0.11325561 0.060219176 -0.047869742 -0.09865972
000200 df 22 fa 3c ec d0 d2 bc 83 e1 6b 3d 19 05 23 be
       0.030534206 -0.025734387 0.05758811 -0.15919913
000210 9b cf 0e 3d 98 9e 9d 3d fd 65 10 3e 21 37 84 3d
       0.034865957 0.07696265 0.14101405 0.064558275
000220 7c 26 9f bb c4 17 ba bd 0c 67 b3 3b af f5 8d 3c
       -0.0048568826 -0.09086564 0.0054749306 0.017329065
000230 9e ed 13 be 1a f7 3a be ad 7f 90 3a af 83 ed bd
       -0.14446113 -0.18258324 0.0011024378 -0.11597382
000240 0d 08 6d 3e 23 cc 0d 3c 82 60 a0 bc ee 01 34 3e
       0.23147602 0.008654627 -0.019577269 0.17578861
000250 cb 04 84 3e cc 32 ff 3d ef 0b 23 bd a1 2b 0f bd
       0.25784907 0.124608606 -0.039806303 -0.034953717
000260 a2 4e 4f 3e f4 ae 2d 3d 38 f9 21 3e 7e 62 8c bd
       0.2024484 0.042403176 0.15817726 -0.068547234
000270 c7 76 9a bd 79 7f 02 bd 37 6b 2f 3f ca a4 00 3e
       -0.07542186 -0.03185985 0.6852297 0.12562862
000280 31 f6 e5 3d 14 30 7d 3e 76 b8 42 3e 6e 76 3d 3e
       0.11228598 0.24725372 0.19015679 0.18502209
000290 79 47 2c 3f 0f f9 b8 3d dd ae 1e 3d e0 8e d4 3d
       0.6729656 0.09031879 0.03874098 0.10378814
0002a0 76 07 e6 bd 6b 9c 16 3e 23 4b 15 3d 87 b5 ff 3d
       -0.11231892 0.14708106 0.03644861 0.124857955
0002b0 79 cf 0c be 65 26 c1 bd 37 9d 96 3e 1d 70 a9 3d
       -0.1375102 -0.09431151 0.2941682 0.08273337
0002c0 2d e7 87 3e 12 5e 10 bd 15 14 47 be d9 d5 80 3e
       0.2654356 -0.035245962 -0.19441254 0.25163153
0002d0 77 d0 25 3d 84 9a 85 3e 48 c9 86 3e 5f 29 22 3f
       0.04048201 0.2609445 0.2632544 0.6334438
0002e0 df 91 d8 bd 94 e3 2f 3e 39 6c 83 bd c1 75 b2 bc
       -0.10574698 0.17176658 -0.06417126 -0.021784665
0002f0 06 48 12 bd 64 c3 8f 3d 34 ce 15 bd ab f6 9a bc
       -0.03571322 0.0701969 -0.036573604 -0.018916449

preamp.model.lin.weight f4 [1, 48]
000000 a9 9c 8c 3d de 10 cd bd 2f 93 2a bd 3c 43 c3 bd
       0.06865818 -0.10012983 -0.04164427 -0.09534308
000010 8a 2f 32 3e 3b 51 3b 3e 4a ac 72 3e 44 9a 2d 3e
       0.17400947 0.18292706 0.23698536 0.16953379
000020 f4 cb 9a 3e df 3f d0 3d d6 63 79 be 9d 34 59 bd
       0.3023373 0.101684324 -0.2435449 -0.05302869
000030 ea f1 38 bd 0a 76 d2 3c 7c 33 d6 bd 7c ea 65 3f
       -0.045152582 0.025691051 -0.104590386 0.8981092
000040 d1 64 90 3d ff f1 39 be f3 5f 30 3e 73 53 b8 be
       0.07050479 -0.1815872 0.17224102 -0.36001167
000050 f5 8d 62 bc 79 98 5a be f3 0d 25 3e 95 85 fa bc
       -0.0138277905 -0.21347226 0.16118602 -0.030581275
000060 94 e4 27 3e de b9 45 3e 32 a4 8b be e4 55 67 3c
       0.1639579 0.19309184 -0.2727371 0.014119599
000070 12 c7 e7 bd ad ae c9 3d 7f aa c1 3c 2e f2 d4 3c
       -0.113172665 0.0984777 0.02364087 0.025994387
000080 05 f6 88 3e 9f 14 6c be 25 3a ae be 58 23 fb bd
       0.26750198 -0.23054741 -0.34028736 -0.12262601
000090 0d 6e 7e be 81 90 9f 3e 62 dd 44 3e ef 44 5a bc
       -0.24846669 0.31164935 0.19225076 -0.013322099
0000a0 9c e1 53 be 57 29 83 3e b8 f6 28 bb e9 9f 68 be
       -0.20691532 0.25617477 -0.0025781821 -0.22717251
0000b0 f9 28 1c bf 3e 04 57 be f2 cc cb bc 0e 55 2a bd
       -0.6100002 -0.20997712 -0.024877999 -0.04158502

exp_avg f4 [192, 4]
000000 4d 09 5a 38 6e fb 06 ba 6e fb 06 ba 6e fb 06 ba
       5.1983912e-05 -0.000514916 -0.000514916 -0.000514916
000010 ad a0 88 b8 11 5b ea b9 11 5b ea b9 11 5b ea b9
       -6.5149135e-05 -0.00044699808 -0.00044699808 -0.00044699808
000020 a4 e9 1e b9 d7 0e 5b ba d7 0e 5b ba d7 0e 5b ba
       -0.00015155092 -0.00083563983 -0.00083563983 -0.00083563983
000030 df df f7 35 ce 60 50 37 ce 60 50 37 ce 60 50 37
       1.8468089e-06 1.2420305e-05 1.2420305e-05 1.2420305e-05
000040 f1 a6 81 b8 6c fb 89 b7 6c fb 89 b7 6c fb 89 b7
       -6.1822946e-05 -1.644875e-05 -1.644875e-05 -1.644875e-05
000050 60 38 f3 38 49 10 aa b8 49 10 aa b8 49 10 aa b8
       0.000115976436 -8.109265e-05 -8.109265e-05 -8.109265e-05
000060 6b 82 84 38 23 a2 5a b9 23 a2 5a b9 23 a2 5a b9
       6.318543e-05 -0.00020850501 -0.00020850501 -0.00020850501
000070 40 a5 7a b7 72 8f 7c b9 72 8f 7c b9 72 8f 7c b9
       -1.49396365e-05 -0.0002408603 -0.0002408603 -0.0002408603
000080 58 a1 cf 39 d5 cc 3e ba d5 cc 3e ba d5 cc 3e ba
       0.00039602327 -0.0007278447 -0.0007278447 -0.0007278447
000090 1f 0c 35 37 2c 60 71 b9 2c 60 71 b9 2c 60 71 b9
       1.0791263e-05 -0.00023019378 -0.00023019378 -0.00023019378
0000a0 4c a5 69 38 2b 35 44 ba 2b 35 44 ba 2b 35 44 ba
       5.5705474e-05 -0.0007484729 -0.0007484729 -0.0007484729
0000b0 e6 e3 a4 39 f0 d4 9f ba f0 d4 9f ba f0 d4 9f ba
       0.00031450315 -0.0012194198 -0.0012194198 -0.0012194198
0000c0 ee 5a 3a 39 2d c6 a8 ba 2d c6 a8 ba 2d c6 a8 ba
       0.00017772216 -0.0012876444 -0.0012876444 -0.0012876444
0000d0 4b 65 36 b9 33 db c7 b9 33 db c7 b9 33 db c7 b9
       -0.00017394607 -0.00038119554 -0.00038119554 -0.00038119554
0000e0 76 7a 7d 37 0b c8 dc 37 0b c8 dc 37 0b c8 dc 37
       1.5108488e-05 2.6319196e-05 2.6319196e-05 2.6319196e-05
0000f0 ec d0 5b 37 59 fe 49 b9 59 fe 49 b9 59 fe 49 b9
       1.3102061e-05 -0.00019263606 -0.00019263606 -0.00019263606
000100 91 69 78 38 a1 b7 b3 b8 a1 b7 b3 b8 a1 b7 b3 b8
       5.9226124e-05 -8.569589e-05 -8.569589e-05 -8.569589e-05
000110 5d c9 90 b9 a8 1e 06 ba a8 1e 06 ba a8 1e 06 ba
       -0.00027615848 -0.00051162625 -0.00051162625 -0.00051162625
000120 34 16 1b b7 22 2e 87 38 22 2e 87 38 22 2e 87 38
       -9.2438895e-06 6.4458945e-05 6.4458945e-05 6.4458945e-05
000130 fe ce c0 39 eb 00 4d ba eb 00 4d ba eb 00 4d ba
       0.00036775315 -0.0007820266 -0.0007820266 -0.0007820266
000140 96 2a 9b b6 19 33 4c b9 19 33 4c b9 19 33 4c b9
       -4.6243176e-06 -0.00019473991 -0.00019473991 -0.00019473991
000150 2b cf 54 b8 d6 51 92 b9 d6 51 92 b9 d6 51 92 b9
       -5.073768e-05 -0.00027908263 -0.00027908263 -0.00027908263
000160 98 04 01 39 bc 8d 3f 39 bc 8d 3f 39 bc 8d 3f 39
       0.0001230411 0.0001826798 0.0001826798 0.0001826798
000170 25 88 32 b7 7a 0e 9c b8 7a 0e 9c b8 7a 0e 9c b8
       -1.0641325e-05 -7.441356e-05 -7.441356e-05 -7.441356e-05
000180 a4 e0 76 b8 59 88 9f b8 59 88 9f b8 59 88 9f b8
       -5.8860183e-05 -7.6071075e-05 -7.6071075e-05 -7.6071075e-05
000190 f2 84 5a 3a e7 0d b9 bb e7 0d b9 bb e7 0d b9 bb
       0.00083358504 -0.0056474092 -0.0056474092 -0.0056474092
0001a0 d8 38 47 39 58 6a 16 39 58 6a 16 39 58 6a 16 39
       0.00018999295 0.00014344731 0.00014344731 0.00014344731
0001b0 70 17 ba b8 55 3a 4f b8 55 3a 4f b8 55 3a 4f b8
       -8.873537e-05 -4.940697e-05 -4.940697e-05 -4.940697e-05
0001c0 fb 28 81 39 1f 80 e0 39 1f 80 e0 39 1f 80 e0 39
       0.0002463533 0.00042820067 0.00042820067 0.00042820067
0001d0 d7 87 01 b8 9c d4 6e b9 9c d4 6e b9 9c d4 6e b9
       -3.0882507e-05 -0.00022776652 -0.00022776652 -0.00022776652
0001e0 ae ec aa 39 2e 70 9c ba 2e 70 9c ba 2e 70 9c ba
       0.00032601267 -0.0011935288 -0.0011935288 -0.0011935288
0001f0 17 ff fd 38 c3 5b 12 b9 c3 5b 12 b9 c3 5b 12 b9
       0.00012111494 -0.00013957829 -0.00013957829 -0.00013957829
000200 7d 3d 0d b8 76 90 b4 37 76 90 b4 37 76 90 b4 37
       -3.3674285e-05 2.1524942e-05 2.1524942e-05 2.1524942e-05
000210 a0 13 7c b7 d4 75 25 36 d4 75 25 36 d4 75 25 36
       -1.502494e-05 2.46555e-06 2.46555e-06 2.46555e-06
000220 84 3d cd 38 5e 6d 51 b9 5e 6d 51 b9 5e 6d 51 b9
       9.78662e-05 -0.00019972536 -0.00019972536 -0.00019972536
000230 9d 39 68 38 b4 c1 bf 38 b4 c1 bf 38 b4 c1 bf 38
       5.5366767e-05 9.14367e-05 9.14367e-05 9.14367e-05
000240 24 7a aa 39 99 35 36 bb 99 35 36 bb 99 35 36 bb
       0.0003251593 -0.0027802943 -0.0027802943 -0.0027802943
000250 20 15 93 b7 73 a1 a9 39 73 a1 a9 39 73 a1 a9 39
       -1.7533603e-05 0.0003235448 0.0003235448 0.0003235448
000260 fa a5 c4 b8 d5 e6 d4 38 d5 e6 d4 38 d5 e6 d4 38
       -9.376924e-05 0.000101519436 0.000101519436 0.000101519436
000270 a4 cf 17 b8 4d 8a 54 38 4d 8a 54 38 4d 8a 54 38
       -3.6194586e-05 5.067354e-05 5.067354e-05 5.067354e-05
000280 30 ef 87 38 50 42 04 39 50 42 04 39 50 42 04 39
       6.481854e-05 0.00012613204 0.00012613204 0.00012613204
000290 8c 98 d4 b8 b3 a3 2a ba b3 a3 2a ba b3 a3 2a ba
       -0.00010137362 -0.00065093784 -0.00065093784 -0.00065093784
0002a0 8f 64 c3 38 a0 32 43 39 a0 32 43 39 a0 32 43 39
       9.317055e-05 0.00018615508 0.00018615508 0.00018615508
0002b0 8d 7e ee 37 f5 5e 81 39 f5 5e 81 39 f5 5e 81 39
       2.843074e-05 0.00024675546 0.00024675546 0.00024675546
0002c0 f3 66 81 37 f4 df 9a 38 f4 df 9a 38 f4 df 9a 38
       1.5425938e-05 7.385007e-05 7.385007e-05 7.385007e-05
0002d0 06 ec 1a 39 33 44 97 38 33 44 97 38 33 44 97 38
       0.0001477451 7.212944e-05 7.212944e-05 7.212944e-05
0002e0 81 6e 2d b6 4f 70 97 37 4f 70 97 37 4f 70 97 37
       -2.584333e-06 1.80529e-05 1.80529e-05 1.80529e-05
0002f0 59 de 42 b8 11 fa 2e ba 11 fa 2e ba 11 fa 2e ba
       -4.646028e-05 -0.0006674836 -0.0006674836 -0.0006674836
000300 d4 e7 f5 38 2c fa 1e ba 2c fa 1e ba 2c fa 1e ba
       0.00011725692 -0.00060645 -0.00060645 -0.00060645
000310 d3 9b f9 b8 e8 7f 2d ba e8 7f 2d ba e8 7f 2d ba
       -0.0001190227 -0.0006618486 -0.0006618486 -0.0006618486
000320 2a ee 11 b9 c9 6f 9c ba c9 6f 9c ba c9 6f 9c ba
       -0.00013917 -0.001193517 -0.001193517 -0.001193517
000330 15 75 10 b8 6e d5 ca 38 6e d5 ca 38 6e d5 ca 38
       -3.4441317e-05 9.671865e-05 9.671865e-05 9.671865e-05
000340 c4 eb 07 b8 f5 f4 d3 38 f5 f4 d3 38 f5 f4 d3 38
       -3.2406082e-05 0.00010106891 0.00010106891 0.00010106891
000350 f1 5b 11 38 e2 f6 49 b9 e2 f6 49 b9 e2 f6 49 b9
       3.465632e-05 -0.00019260825 -0.00019260825 -0.00019260825
000360 dc e3 78 38 42 fc 87 b9 42 fc 87 b9 42 fc 87 b9
       5.934002e-05 -0.00025937153 -0.00025937153 -0.00025937153
000370 95 d0 8b b7 fb 18 40 b9 fb 18 40 b9 fb 18 40 b9
       -1.666722e-05 -0.00018319853 -0.00018319853 -0.00018319853
000380 59 03 a0 39 f1 e5 6b ba f1 e5 6b ba f1 e5 6b ba
       0.00030520072 -0.00089988025 -0.00089988025 -0.00089988025
000390 e2 35 48 37 a5 f3 b0 b9 a5 f3 b0 b9 a5 f3 b0 b9
       1.19334745e-05 -0.00033750865 -0.00033750865 -0.00033750865
0003a0 f5 4c a5 38 d1 01 77 ba d1 01 77 ba d1 01 77 ba
       7.8821475e-05 -0.0009422573 -0.0009422573 -0.0009422573
0003b0 3e 8f 33 39 4e ad 1d bb 4e ad 1d bb 4e ad 1d bb
       0.00017124132 -0.0024059596 -0.0024059596 -0.0024059596
0003c0 60 89 4d 39 5e 7c b3 ba 5e 7c b3 ba 5e 7c b3 ba
       0.000196015 -0.001369368 -0.001369368 -0.001369368
0003d0 e3 45 43 b9 1b 9f d1 b9 1b 9f d1 b9 1b 9f d1 b9
       -0.00018622684 -0.0003998213 -0.0003998213 -0.0003998213
0003e0 34 4a b4 38 2f 09 ad b9 2f 09 ad b9 2f 09 ad b9
       8.59689e-05 -0.00033003974 -0.00033003974 -0.00033003974
0003f0 c5 c5 7d b8 e5 82 17 ba e5 82 17 ba e5 82 17 ba
       -6.0504088e-05 -0.00057796977 -0.00057796977 -0.00057796977

exp_avg_sq f4 [192, 4]
000000 cb fc 44 33 0f 48 68 36 0f 48 68 36 0f 48 68 36
       4.586472e-08 3.4612638e-06 3.4612638e-06 3.4612638e-06
000010 bc 14 0e 35 52 82 89 37 52 82 89 37 52 82 89 37
       5.2929295e-07 1.6392358e-05 1.6392358e-05 1.6392358e-05
000020 07 7e c2 34 af e8 39 38 af e8 39 38 af e8 39 38
       3.6227013e-07 4.432414e-05 4.432414e-05 4.432414e-05
000030 58 45 81 30 a3 2f 08 34 a3 2f 08 34 a3 2f 08 34
       9.405694e-10 1.2683317e-07 1.2683317e-07 1.2683317e-07
000040 b6 85 e5 32 2c e4 4f 34 2c e4 4f 34 2c e4 4f 34
       2.6719913e-08 1.9361386e-07 1.9361386e-07 1.9361386e-07
000050 fb 25 04 34 e9 3b a9 36 e9 3b a9 36 e9 3b a9 36
       1.2307275e-07 5.043567e-06 5.043567e-06 5.043567e-06
000060 89 26 27 34 ea 0d fe 36 ea 0d fe 36 ea 0d fe 36
       1.5567106e-07 7.5714097e-06 7.5714097e-06 7.5714097e-06
000070 63 b3 67 33 78 90 6b 35 78 90 6b 35 78 90 6b 35
       5.394703e-08 8.775455e-07 8.775455e-07 8.775455e-07
000080 a7 80 6e 35 17 5e bb 37 17 5e bb 37 17 5e bb 37
       8.8849123e-07 2.2335951e-05 2.2335951e-05 2.2335951e-05
000090 84 10 19 32 50 6b a2 36 50 6b a2 36 50 6b a2 36
       8.909527e-09 4.840469e-06 4.840469e-06 4.840469e-06
0000a0 b6 bf 0e 35 e7 3f 66 37 e7 3f 66 37 e7 3f 66 37
       5.31781e-07 1.3723947e-05 1.3723947e-05 1.3723947e-05
0000b0 de 13 cb 35 03 32 39 39 03 32 39 39 03 32 39 39
       1.5130461e-06 0.00017661606 0.00017661606 0.00017661606
0000c0 17 ca e5 34 99 c7 6e 38 99 c7 6e 38 99 c7 6e 38
       4.2801614e-07 5.692951e-05 5.692951e-05 5.692951e-05
0000d0 54 07 d9 34 ec 88 8a 37 ec 88 8a 37 ec 88 8a 37
       4.0424732e-07 1.6514641e-05 1.6514641e-05 1.6514641e-05
0000e0 bf 8b 7f 32 60 c7 68 34 60 c7 68 34 60 c7 68 34
       1.4874728e-08 2.1679216e-07 2.1679216e-07 2.1679216e-07
0000f0 dc 7e c1 31 ef 6c 1f 36 ef 6c 1f 36 ef 6c 1f 36
       5.6314615e-09 2.3756254e-06 2.3756254e-06 2.3756254e-06
000100 18 2a 1e 34 bc ac 8d 35 bc ac 8d 35 bc ac 8d 35
       1.473021e-07 1.0555591e-06 1.0555591e-06 1.0555591e-06
000110 8c 34 a7 36 ae c3 09 39 ae c3 09 39 ae c3 09 39
       4.983105e-06 0.00013138234 0.00013138234 0.00013138234
000120 c8 79 15 34 df 41 cc 36 df 41 cc 36 df 41 cc 36
       1.392101e-07 6.087342e-06 6.087342e-06 6.087342e-06
000130 40 39 6f 35 1a a4 a9 38 1a a4 a9 38 1a a4 a9 38
       8.911775e-07 8.089114e-05 8.089114e-05 8.089114e-05
000140 dc a8 8e 31 20 b1 65 34 20 b1 65 34 20 b1 65 34
       4.151941e-09 2.1391725e-07 2.1391725e-07 2.1391725e-07
000150 86 ca 65 35 5a 94 10 37 5a 94 10 37 5a 94 10 37
       8.560386e-07 8.61761e-06 8.61761e-06 8.61761e-06
000160 29 5f 15 34 f1 d0 98 36 f1 d0 98 36 f1 d0 98 36
       1.3911325e-07 4.554277e-06 4.554277e-06 4.554277e-06
000170 37 4f 33 34 7e ae 2a 37 7e ae 2a 37 7e ae 2a 37
       1.6699492e-07 1.0173417e-05 1.0173417e-05 1.0173417e-05
000180 49 bd d4 34 f6 f7 e3 37 f6 f7 e3 37 f6 f7 e3 37
       3.96258e-07 2.7175975e-05 2.7175975e-05 2.7175975e-05
000190 a0 9a d1 36 71 7c 96 3a 71 7c 96 3a 71 7c 96 3a
       6.246686e-06 0.0011481178 0.0011481178 0.0011481178
0001a0 53 1d 30 35 ab 15 eb 36 ab 15 eb 36 ab 15 eb 36
       6.560778e-07 7.0060682e-06 7.0060682e-06 7.0060682e-06
0001b0 9d 6d c2 33 bc 1a 98 34 bc 1a 98 34 bc 1a 98 34
       9.0537675e-08 2.8331658e-07 2.8331658e-07 2.8331658e-07
0001c0 a3 83 81 35 32 db cc 36 32 db cc 36 32 db cc 36
       9.64956e-07 6.1051915e-06 6.1051915e-06 6.1051915e-06
0001d0 8d 8e f8 33 60 62 77 37 60 62 77 37 60 62 77 37
       1.157433e-07 1.4745252e-05 1.4745252e-05 1.4745252e-05
0001e0 82 a0 5f 35 55 5b 73 39 55 5b 73 39 55 5b 73 39
       8.3307543e-07 0.0002320831 0.0002320831 0.0002320831
0001f0 b6 3b 6f 35 66 97 aa 37 66 97 aa 37 66 97 aa 37
       8.912133e-07 2.033608e-05 2.033608e-05 2.033608e-05
000200 65 60 d3 32 b4 c0 cf 33 b4 c0 cf 33 b4 c0 cf 33
       2.4607468e-08 9.674241e-08 9.674241e-08 9.674241e-08
000210 f4 8d 47 33 32 36 0e 36 32 36 0e 36 32 36 0e 36
       4.6462404e-08 2.1191195e-06 2.1191195e-06 2.1191195e-06
000220 2b c5 14 34 bb f3 3f 36 bb f3 3f 36 bb f3 3f 36
       1.3855303e-07 2.8603088e-06 2.8603088e-06 2.8603088e-06
000230 27 14 9a 33 9e 79 3e 37 9e 79 3e 37 9e 79 3e 37
       7.1748495e-08 1.1353199e-05 1.1353199e-05 1.1353199e-05
000240 f4 f3 ad 36 dd d3 5d 3a dd d3 5d 3a dd d3 5d 3a
       5.1842017e-06 0.0008462051 0.0008462051 0.0008462051
000250 b6 3b 1e 34 76 85 39 38 76 85 39 38 76 85 39 38
       1.473662e-07 4.4231732e-05 4.4231732e-05 4.4231732e-05
000260 c6 ec 16 34 52 fe 3d 35 52 fe 3d 35 52 fe 3d 35
       1.4055976e-07 7.077807e-07 7.077807e-07 7.077807e-07
000270 de 70 93 33 bd c5 88 34 bd c5 88 34 bd c5 88 34
       6.865751e-08 2.5475848e-07 2.5475848e-07 2.5475848e-07
000280 71 53 93 33 0d 56 2c 35 0d 56 2c 35 0d 56 2c 35
       6.860399e-08 6.4200214e-07 6.4200214e-07 6.4200214e-07
000290 a4 19 91 34 d0 15 dc 37 d0 15 dc 37 d0 15 dc 37
       2.702701e-07 2.6236201e-05 2.6236201e-05 2.6236201e-05
0002a0 ea 89 06 34 2f c5 aa 36 2f c5 aa 36 2f c5 aa 36
       1.2529895e-07 5.08935e-06 5.08935e-06 5.08935e-06
0002b0 91 97 23 36 7f 28 19 38 7f 28 19 38 7f 28 19 38
       2.4377116e-06 3.6515758e-05 3.6515758e-05 3.6515758e-05
0002c0 f3 32 2a 32 a0 5a ce 34 a0 5a ce 34 a0 5a ce 34
       9.906887e-09 3.8436428e-07 3.8436428e-07 3.8436428e-07
0002d0 0b a6 2e 34 46 09 09 37 46 09 09 37 46 09 09 37
       1.6265419e-07 8.1679955e-06 8.1679955e-06 8.1679955e-06
0002e0 41 81 94 33 12 1b 96 34 12 1b 96 34 12 1b 96 34
       6.915298e-08 2.7959373e-07 2.7959373e-07 2.7959373e-07
0002f0 b4 64 83 33 52 09 97 38 52 09 97 38 52 09 97 38
       6.118481e-08 7.201977e-05 7.201977e-05 7.201977e-05
000300 0f 61 2b 34 48 ad aa 36 48 ad aa 36 48 ad aa 36
       1.5960926e-07 5.0865674e-06 5.0865674e-06 5.0865674e-06
000310 aa 72 98 35 c3 88 d0 37 c3 88 d0 37 c3 88 d0 37
       1.1358254e-06 2.4859217e-05 2.4859217e-05 2.4859217e-05
000320 0e 5e bb 34 47 19 d6 38 47 19 d6 38 47 19 d6 38
       3.4899898e-07 0.000102090235 0.000102090235 0.000102090235
000330 79 18 c1 32 4d 99 94 36 4d 99 94 36 4d 99 94 36
       2.2479286e-08 4.4285903e-06 4.4285903e-06 4.4285903e-06
000340 17 e6 ac 32 43 18 79 35 43 18 79 35 43 18 79 35
       2.0128068e-08 9.2795034e-07 9.2795034e-07 9.2795034e-07
000350 01 d9 e0 33 c4 e2 aa 36 c4 e2 aa 36 c4 e2 aa 36
       1.04702856e-07 5.092794e-06 5.092794e-06 5.092794e-06
000360 5d 50 76 34 36 70 37 37 36 70 37 37 36 70 37 37
       2.2939771e-07 1.0933776e-05 1.0933776e-05 1.0933776e-05
000370 0b 14 29 33 cd 35 11 35 cd 35 11 35 cd 35 11 35
       3.9366608e-08 5.4095e-07 5.4095e-07 5.4095e-07
000380 c8 28 ef 34 b5 b2 9d 37 b5 b2 9d 37 b5 b2 9d 37
       4.454689e-07 1.8799075e-05 1.8799075e-05 1.8799075e-05
000390 48 e2 99 32 d7 ab 50 37 d7 ab 50 37 d7 ab 50 37
       1.7914445e-08 1.2437776e-05 1.2437776e-05 1.2437776e-05
0003a0 3a 07 39 35 11 ae 90 37 11 ae 90 37 11 ae 90 37
       6.8928387e-07 1.7247194e-05 1.7247194e-05 1.7247194e-05
0003b0 d9 00 12 35 db 94 d6 39 db 94 d6 39 db 94 d6 39
       5.439047e-07 0.00040928167 0.00040928167 0.00040928167
0003c0 a1 7f f9 34 a8 fd 7a 38 a8 fd 7a 38 a8 fd 7a 38
       4.6472726e-07 5.984088e-05 5.984088e-05 5.984088e-05
0003d0 95 81 ed 34 e8 6b 84 37 e8 6b 84 37 e8 6b 84 37
       4.4238973e-07 1.5785874e-05 1.5785874e-05 1.5785874e-05
0003e0 2b ea 85 33 29 57 82 36 29 57 82 36 29 57 82 36
       6.23589e-08 3.8844487e-06 3.8844487e-06 3.8844487e-06
0003f0 ae 81 04 34 ee 57 44 37 ee 57 44 37 ee 57 44 37
       1.2340635e-07 1.1702983e-05 1.1702983e-05 1.1702983e-05

exp_avg f4 [192, 48]
000000 f8 c5 8d 39 df 3e e4 39 df f6 a5 39 1a 52 42 b9
       0.00027041114 0.0004353439 0.00031655186 -0.00018531867
000010 68 0f 93 38 09 85 61 b9 63 a8 a1 b9 b2 28 a8 37
       7.012376e-05 -0.00021507232 -0.0003083377 2.004611e-05
000020 68 73 2a b9 ac 4f a8 b9 ac 37 7c b9 f9 46 1f ba
       -0.00016255456 -0.00032102817 -0.00024053332 -0.00060759444
000030 df 20 5e b9 26 5b e5 37 81 b3 83 b9 53 06 4d 39
       -0.00021183815 2.7341372e-05 -0.00025120008 0.0001955268
000040 7a 44 e9 b8 63 e0 75 39 29 d1 05 ba 83 8f 99 b9
       -0.000111230605 0.00023448611 -0.00051047147 -0.0002928936
000050 d1 80 37 ba 65 78 b5 b7 7f b0 d3 b8 e1 45 19 ba
       -0.0007000091 -2.1632944e-05 -0.00010094139 -0.00058468996
000060 2f b0 39 b9 50 65 e6 39 75 77 a4 b8 f3 36 00 38
       -0.00017708608 0.00043944502 -7.84238e-05 3.0568754e-05
000070 ab 7c ee 38 28 3d 57 b9 96 64 f2 b9 1f b7 c1 b8
       0.000113719456 -0.0002052678 -0.0004623278 -9.237066e-05
000080 ad 46 b3 b7 c1 62 59 38 df 53 88 b8 93 e7 d8 39
       -2.1371374e-05 5.1828803e-05 -6.5006076e-05 0.00041371267
000090 59 e8 a5 39 e1 e6 60 b9 36 df fe b8 76 d3 a6 38
       0.00031644365 -0.00021448314 -0.0001215324 7.9548845e-05
0000a0 a4 74 b8 b8 95 72 4a 39 f6 28 55 38 25 6a 10 b8
       -8.79553e-05 0.00019306906 5.0821305e-05 -3.443113e-05
0000b0 28 05 eb 38 98 12 68 b7 68 53 5f b7 55 2e 01 3a
       0.00011206634 -1.3832607e-05 -1.3311255e-05 0.00049278635
0000c0 26 b5 fc 38 c7 9f b7 39 1d 87 30 39 68 b4 26 39
       0.00012050038 0.00035023523 0.00016835002 0.000158982
0000d0 b0 9f 92 38 74 e1 f6 b8 b0 16 80 b9 8a 44 e1 38
       6.9915666e-05 -0.00011772188 -0.00024430966 0.000107416025
0000e0 a3 b5 b0 37 10 3d 86 b9 1a b3 2c b9 1e 81 d6 b9
       2.1065416e-05 -0.00025603967 -0.00016469919 -0.0004091346
0000f0 22 4f c6 b7 82 b5 f5 37 c0 5e a8 b9 b4 3a 2a 3a
       -2.3640288e-05 2.9290797e-05 -0.0003211405 0.0006493733
000100 fa 1e 5d b9 20 10 cb b7 a6 af 9c b9 a5 42 0b b9
       -0.00021087742 -2.4206995e-05 -0.00029885507 -0.000132809
000110 fd 4f de b9 85 d0 0d b9 d2 37 1b b8 25 fe d3 b9
       -0.00042402736 -0.00013524487 -3.7006866e-05 -0.0004043441
000120 52 40 f9 b8 85 a1 87 39 63 6a 99 b7 e8 bd 43 38
       -0.00011885226 0.00025869548 -1.8288561e-05 4.6668487e-05
000130 ac b6 28 b8 ef be 1d b9 2d 4c 90 b9 33 6a 47 38
       -4.0224448e-05 -0.00015043815 -0.00027522576 4.7544203e-05
000140 b6 2e 82 b8 c5 ec cc b5 4a 78 03 b9 53 ab ac 39
       -6.207584e-05 -1.5268093e-06 -0.00012537945 0.00032934043
000150 81 e5 34 39 85 03 47 b9 38 d3 bb 37 80 80 6e b8
       0.00017251635 -0.0001897943 2.2390494e-05 -5.6863297e-05
000160 96 34 56 b8 c6 f5 18 39 c0 91 3c b7 3c fc 11 b8
       -5.107055e-05 0.00014587407 -1.1239608e-05 -3.4805606e-05
000170 c6 74 dd 39 84 a6 c8 b8 12 20 3a 37 c4 55 65 39
       0.00042239408 -9.567759e-05 1.1093931e-05 0.00021871092
000180 e8 48 10 39 d7 ee 17 3a c0 32 f0 39 7b 0d 0b ba
       0.0001376007 0.0005795783 0.0004581418 -0.0005304438
000190 40 35 8c b8 32 63 b5 b9 47 4a f5 b9 48 38 2e 38
       -6.685639e-05 -0.00034596917 -0.00046785382 4.153725e-05
0001a0 0f f4 aa 38 e7 3b a7 b9 3c de f8 b9 e1 8d 02 ba
       8.151691e-05 -0.00031897353 -0.00047467824 -0.0004980248
0001b0 ce c9 e4 b8 c9 ec 27 39 3d dd 8f b9 90 a1 16 3a
       -0.00010909476 0.0001601457 -0.0002743992 0.00057461206
0001c0 88 fd 4e b9 c3 66 9f 38 68 fd 01 ba 82 cf 17 b7
       -0.00019740139 7.600852e-05 -0.000495872 -9.0486155e-06
0001d0 c3 57 ab b9 bb 9b 8e b9 97 68 fe b7 d5 92 53 ba
       -0.0003268105 -0.0002720038 -3.0327863e-05 -0.0008070891
0001e0 4c 44 b5 b8 f3 6f f5 38 4d 74 7e 39 3e 79 34 39
       -8.643474e-05 0.000117033625 0.00024266653 0.00017211304
0001f0 a4 5c df b8 c4 8f 6c b8 c9 1b 1a b9 84 92 54 b8
       -0.00010650724 -5.6400677e-05 -0.00014696935 -5.0681192e-05
000200 1c 19 5a 38 55 25 5a b8 17 7e 24 b9 09 9f 27 3a
       5.1998635e-05 -5.201002e-05 -0.00015687231 0.00063942425
000210 a7 b4 21 39 0d 90 0e ba ad cb 0c b9 7e 15 58 39
       0.00015421455 -0.00054383354 -0.00013427316 0.00020607372
000220 f6 00 66 b8 87 75 e7 39 56 37 0a b9 50 ee ac b8
       -5.4837168e-05 0.00044147318 -0.0001318132 -8.245988e-05
000230 cc 65 ee 39 95 73 c9 38 47 3f e6 b7 df 34 bd 39
       0.00045470742 9.605956e-05 -2.7447602e-05 0.0003608828
000240 98 43 06 b7 30 64 f4 b6 b7 c6 0f 35 cf 21 bf 36
       -8.00276e-06 -7.28343e-06 5.356082e-07 5.6961794e-06
000250 76 e2 53 35 7f 6d b7 36 0c c0 df 36 dc 8e 3b b7
       7.893317e-07 5.466572e-06 6.668275e-06 -1.1179331e-05
000260 1a c5 15 37 73 7c c4 35 f3 4a 5e 36 9a 45 df 36
       8.926983e-06 1.4639357e-06 3.3124204e-06 6.6540206e-06
000270 9d ec f0 b6 f7 4f 92 34 6f c1 9a 37 76 72 32 b7
       -7.180103e-06 2.72528e-07 1.8448305e-05 -1.0636277e-05
000280 b5 b5 a8 36 17 8a 65 b7 9b f5 b3 36 4f 51 db 35
       5.0279436e-06 -1.3681615e-05 5.363208e-06 1.6340435e-06
000290 9d e1 bd 37 e9 4a a7 36 b3 21 e6 35 e5 30 84 37
       2.2635615e-05 4.9857085e-06 1.7146143e-06 1.5758395e-05
0002a0 80 59 69 36 e8 04 ea b6 69 80 a6 b6 63 a3 40 b5
       3.4771801e-06 -6.9743146e-06 -4.9621344e-06 -7.176333e-07
0002b0 3f 5b 96 36 18 f2 7a 36 bb 8b 17 b6 e5 6b c9 b6
       4.480971e-06 3.739382e-06 -2.2582087e-06 -6.0028274e-06
0002c0 25 e8 fc 36 00 fd ca 35 cd 6a 88 35 31 6d c3 b6
       7.5372104e-06 1.5123805e-06 1.0163873e-06 -5.8241644e-06
0002d0 78 f5 33 36 62 d3 8c 36 08 f2 d3 b4 57 95 da 36
       2.681596e-06 4.1969333e-06 -3.9477914e-07 6.5142917e-06
0002e0 80 fe e0 36 e7 a0 90 b5 3b d9 b8 36 d6 01 c4 36
       6.705348e-06 -1.0775665e-06 5.5089163e-06 5.841469e-06
0002f0 94 9c 70 b7 37 4e 6a 36 20 f0 fc b3 00 f1 a7 b6
       -1.4341571e-05 3.4914244e-06 -1.1778343e-07 -5.005044e-06
000300 92 33 0b b8 42 20 9d b7 fc bf 81 b7 fe 4a a1 b7
       -3.318821e-05 -1.873088e-05 -1.5467398e-05 -1.9227617e-05
000310 5f 74 28 b8 69 98 bd 37 d4 fe be 33 23 39 fc 36
       -4.01627e-05 2.2601527e-05 8.8939174e-08 7.516837e-06
000320 b7 7d 8b 38 e3 ca 1f 38 e1 b4 dc b7 37 fe c6 38
       6.651453e-05 3.8097507e-05 -2.6310272e-05 9.488727e-05
000330 6f 69 2b 37 60 7c b1 37 b7 42 0a b8 a1 91 da 36
       1.0216942e-05 2.115796e-05 -3.2963897e-05 6.5138597e-06
000340 53 a7 c6 b7 0a 1d 05 b8 2c 06 78 38 8f 4b d7 38
       -2.3681356e-05 -3.1736716e-05 5.9133556e-05 0.00010266073
000350 71 06 97 b6 ae f4 65 b8 b9 87 0d 38 0c d8 72 b7
       -4.5009006e-06 -5.482573e-05 3.374342e-05 -1.4474626e-05
000360 93 e3 85 38 c8 6e aa b8 43 37 ae 38 9a fa 8c 37
       6.384323e-05 -8.126866e-05 8.30726e-05 1.6805996e-05
000370 0e d0 74 b8 5a c9 2b 38 fa 89 e2 38 d5 ca 4c 38
       -5.83679e-05 4.09571e-05 0.0001080222 4.8826292e-05
000380 dc d5 a3 37 ef e2 1b b8 dd 13 b5 b6 94 59 cf 37
       1.95307e-05 -3.7166228e-05 -5.3965327e-06 2.4718036e-05
000390 6d ef 38 b8 cf 3e 9d b7 0a 92 0c b8 c7 bb ae 37
       -4.4092e-05 -1.8745106e-05 -3.351461e-05 2.0829857e-05
0003a0 a3 6e 02 b8 12 8a b8 37 34 12 ad b8 c6 1a 3f b7
       -3.1097454e-05 2.1998803e-05 -8.2526734e-05 -1.1390721e-05
0003b0 37 1d 82 b6 a5 a7 52 38 cd 9d bb 37 41 5e 6b b8
       -3.877703e-06 5.0224033e-05 2.2365619e-05 -5.6116147e-05
0003c0 60 c0 e5 38 96 ed 9d b6 4c 79 84 b8 17 23 82 39
       0.000109554036 -4.7066233e-06 -6.316844e-05 0.00024821676
0003d0 33 e6 d9 38 3c 0b 8d 37 b0 5a 8f b8 d7 5b da 38
       0.00010390244 1.6813741e-05 -6.835663e-05 0.000104121566
0003e0 63 09 51 b9 41 85 35 b9 a0 bb c4 38 38 1e a0 b9
       -0.0001993529 -0.00017311146 9.380956e-05 -0.00030540093
0003f0 fe b0 ed 38 a1 84 bd b8 a1 86 f0 b8 23 e2 af 39
       0.00011334008 -9.036926e-05 -0.000114691684 0.00033547086
