python/logs/tensorboard/amp_model/1_target_LSTM40_pwr_GRU8/epoch=255-step=18432.ckpt (torch, 162463 bytes, 30 tensors)

preamp.model.rec.weight_ih_l0 f4 [160, 1]
00000000: dc77 b3be 9efa a5be 29b4 b1bf f1d4 c33d
00000010: a1a8 8bbf 02de 95bf cc56 87bf 25a1 f03f
00000020: f8bf 9b3e e1a1 c73e 82a3 1340 fb04 e7be
00000030: 3287 48bf 2d6a 0a3e 4e98 523e e0f6 b43e
00000040: 6a1a 093e f2ec 8a3e 3c6e c43c a9f6 c3bd
00000050: 82fe 63bf bfe4 303f 2556 6fbd 269c 083f
00000060: 4ef3 fbbe 05f6 3d3e b929 a13f 43a5 9abe
00000070: 196c 66bf 7eec 9e3e 8c6b 443f b37e 093e
00000080: 6d7d 233d 8ea8 9ebe 326e 0140 bb33 81be
00000090: 94bb 563e b6e6 803f 7cc2 f4be 6ef3 923f
000000a0: 0a99 b4be 605c 5f3f 0355 d6bf 6cbb 6d3e
000000b0: 341a 63bf 5881 a6bf 861f e4bf 8800 0340
000000c0: 14b7 0c3f 7d0f 103f 2b21 1940 5859 3bbf
000000d0: af64 77bf 931d 473e 0a22 c03e 9c39 b93e
000000e0: 7057 f63e 05b9 b13c 3e89 08bd b809 2e3f
000000f0: 5ef1 f83d 5520 b83e d474 bb3d ff20 8b3f
00000100: 9243 1bbf 1a28 573e 6c62 e63f 188f 403d
00000110: 39a0 98be e083 433e 64a6 7e3f 7991 abbe
00000120: f73b b9be ef25 c9bd 22cd 0040 d608 c1be
00000130: 616d 97be 7610 e93f cceb 38be df29 9d3f
00000140: 6d33 473d 5e40 29c0 c373 0c3f f961 02bf
00000150: 64a3 5e3e e5ac 753e 4366 45bf 6400 343e
00000160: 4c4e 5fbd b0c4 c9be 67d7 113f 9734 fe3f
00000170: 3599 40be 6114 c5bd ef2c 65be d70c 363f
00000180: 6647 433e 94a5 47bf 46bd 163f fa2f 1f3f
00000190: 2527 8abe 9b86 6a3e 63e4 ae3d 099b ebbd
000001a0: 83a1 eabe 3416 c73e f14e fd3f f8a0 183f
000001b0: 8a43 30bf a537 75bd 573c c83e c96d e5bd
000001c0: 6d3a 8dbe d3f2 b0bd e173 833f f817 9c3f
000001d0: 9f9f ba3e 8f19 2240 adcc cfbd ea19 9abf
000001e0: 990a 06bf 4a65 f1be 67c7 0dc0 eeaf 0fbd
000001f0: 583f 6dbf 3c2d 8dbf ea2a b4bf f1fd 5840
00000200: b822 c7be 9ede a53e 57c2 3540 d24b f0be
00000210: 46fe 34bf 18a7 483e 4b8b 5ebf 1e9e 6abf
00000220: cdab 29be 23ad 4dbf 6384 94be 6059 213c
00000230: 85b5 d4be 1792 c43e e7e0 e6bd 4494 8a3f
00000240: 2f0c 15bf 9d2b 803f 2160 873f 3827 473f
00000250: 5cb1 4e3c 11dd 2f3e 2fd5 b63f 5011 243f
00000260: 1a20 4ebf cf73 00c0 d06e 1940 2f07 81bf
00000270: 7dff 0b3f fe2d 6d3f 1cd1 53bf 4114 3f3f
-0.35052383 -0.32417768 -1.3883106 0.095621 -1.0910836 -1.1708376 -1.0573363 1.8799177
0.30419898 0.3899069 2.3068547 -0.45120987 -0.7833129 0.13517065 0.20565912 0.353446
0.13388982 0.271339 0.023978345 -0.09568531 -0.89060223 0.6909904 -0.058431763 0.53363264
-0.49209064 0.1855088 1.2590858 -0.3020421 -0.90008694 0.31039804 0.76726604 0.13427238
0.039914537 -0.30987972 2.0223508 -0.2523478 0.20969993 1.0070407 -0.4780463 1.1480539
-0.3527301 0.8725033 -1.6744694 0.23216027 -0.8871186 -1.3008223 -1.782212 2.0469074
0.54966855 0.56273633 2.3926494 -0.731832 -0.96638006 0.19444875 0.3752597 0.36176765
0.48113585 0.02169467 -0.03333401 0.6798358 0.12155412 0.35962167 0.091531426 1.0869445
-0.6064998 0.21011391 1.7998786 0.047011465 -0.2980974 0.19093275 0.9947264 -0.33509424
-0.36178562 -0.098216884 2.0125203 -0.37702054 -0.29575637 1.8208148 -0.180587 1.2278403
0.048633028 -2.6445537 0.5486414 -0.50930744 0.21742016 0.23991735 -0.77109164 0.17578274
-0.05451803 -0.39407873 0.569693 1.9859799 -0.18808444 -0.096230276 -0.22380422 0.7111334
0.19070205 -0.7798703 0.5888256 0.6218258 -0.2698299 0.2290291 0.08539655 -0.1150418
-0.4582635 0.38884127 1.9789716 0.5962062 -0.68853056 -0.05986752 0.39108536 -0.112025805
-0.27583638 -0.08640065 1.0269738 1.2194815 0.36449906 2.53281 -0.10146461 -1.2039158
-0.5235992 -0.4714759 -2.2152956 -0.03507989 -0.9267478 -1.102943 -1.4075596 3.3904994
-0.38893676 0.32396406 2.8399866 -0.46932846 -0.7070049 0.19594991 -0.86931294 -0.9164752
-0.16569443 -0.8034231 -0.29007253 0.009847969 -0.41544738 0.38392708 -0.112733655 1.0826497
-0.58221716 1.001331 1.0576211 0.7779422 0.012615528 0.17174174 1.4283808 0.64088917
-0.80517733 -2.0070684 2.3973885 -1.0080317 0.5468672 0.92648304 -0.8274095 0.7464028

preamp.model.rec.weight_hh_l0 f4 [160, 40]
00000000: 7482 e7bc 14b2 e4bd 7333 0cbc cc87 d13e
00000010: be7b 6d3d d61a 1ebc 7e48 4d3d 99a6 0abe
00000020: 2da5 0a3e 40bd b6bd 78e7 463e 8d85 e73d
00000030: 6768 7c3c a6b4 263e b22b 9abc 7ae6 4dbc
00000040: c3c8 20bc 6447 eebd da9f b1bd 8961 a33e
00000050: ff2c 38be d3c0 163e 6574 41be e759 ee3d
00000060: 28d1 3dbd 6cff 56be 6158 173f 0f87 74bd
00000070: eacc 29be 78c0 d03d 2a6d 933c c8af db3c
00000080: 2de4 34b9 cef2 083e e8be 92be a6cf 133e
00000090: 669f 973e 9430 1b3d 0a7e f9bd 7c4a 64be
000000a0: 16bf 17bf c067 f93d abb9 97be f256 b43e
000000b0: d867 62be 6db2 75be 33dd 9d3d 56ff c43e
000000c0: 1ab4 5f3d 84d0 34be a83d f43e 40f9 b2bd
000000d0: 92b6 e9bb 5e9d 4b3e a351 bcbe 622a 713e
000000e0: 8867 b43d 1b3e 93be 216c 1ebe a994 453d
000000f0: 632f 8cbe 0f0d 72be 8416 a03e eea3 d73e
00000100: 62f0 d03e c841 f0be 0e07 0f3e ec03 2cbe
00000110: 6f5f 053c d902 073e e495 07bf 9d12 eb3e
00000120: 8e99 9ebe 6a99 27be a59d 233f a3eb 0dbf
00000130: 4415 d7bd efb2 95bd 09f7 fdbd 5a36 adbe
00000140: 5671 da3d a1ed 73bd bd07 a03d ab1f 2fbe
00000150: 797a 493d a1ae d9bd 67e7 193e 83d4 a43d
00000160: 19bf aabd cd72 46bd f572 3abe 633d cc3a
00000170: bb0e a93d b605 5bbd beb4 873d 3edf 1ebd
00000180: dd54 ab3d 242b fcbd d4dd f5bd 0de0 8dbd
00000190: c74b 54be 45f6 253d 2685 433e 89ce 1dbe
000001a0: 394d 3d3e 6d98 dfbc ea42 9e3d e7d7 09bc
000001b0: d796 02be b457 eebd 94d0 9b3e 419d 093e
000001c0: ec4b 4cbd ca14 1bbe 24e4 b8bd d27d 46be
000001d0: bc00 573c 4efd 49bd 7dfc 88bd a0d2 62bd
000001e0: c264 4ebc 4e9f 16be 0f94 82be 4397 27bd
000001f0: 082d 2bbe 63ef 0a3e 54a3 883e 63a7 733e
00000200: 1ba6 1e3e 6d15 fc3d 1392 a93d 989b 36be
00000210: be64 593b daf6 aa3e 8010 d7bd fc29 b13e
00000220: 38ba ee3d 2f45 6bbd fc90 01be 80ef a0bd
00000230: bb86 dcbe 361d 193e eaf1 a7bc 361a 473e
00000240: 5e24 82bb 4c94 43be 1fa2 bb3e 4dba 34be
00000250: 4a97 ef3c b5c9 a53c 2a5a 98bd 1328 8bbb
00000260: d56b 0dbc b6e3 50be 388b 293e 1936 8dbe
00000270: d099 a73b 0ab6 00bd d240 01bb 25d1 28be
00000280: 9517 d0be 3739 913e 1107 c3bd f5be c43d
00000290: c083 32bd 5294 ecbd 3067 07be 9292 363e
000002a0: 1edf ba3e d44f 31be fa50 40be d635 f43d
000002b0: 24cf 54be 5d34 cebe 4588 9abe 0bec a63d
000002c0: 8ae5 b23e 8207 84be 7afb 90be a6d4 6d3e
000002d0: 80e2 b7bd b1f7 293e 524e a23e b3ef b13e
000002e0: 3717 be3e 4fca 21be 4c3e 5b3a 63c9 a8be
000002f0: 79ab 4f3e 09cd 323e 92e6 3a3e f3e2 df3e
00000300: 2bcd 6bbe d60b 0fbe 4408 043f 7e7a dfbe
00000310: 576b bbbe e276 413e 9b89 15be 7684 28be
00000320: 1c67 013e 4760 263d 131a 77bd 0f0e 83be
00000330: db96 60bc e232 e6bb 5a2f f8bd 0345 cc3d
00000340: 0d21 22be 32c0 aa3d 9eba 00bf 1cfa 44bd
00000350: 554f d93d de36 6bbd 8f12 ac3d 7d1c 67be
00000360: 0b57 e23c 77ae 41bb 1665 983d e837 7d3d
00000370: 6666 9dbe d67b 0ebe 1070 25be 78a4 b1bd
00000380: 6206 d83d c67e d63d e678 8dbe 45b4 eabd
00000390: e130 363e cb4e febc 5142 343d 3c77 85bd
000003a0: f784 193d 7a55 92bd ece4 6abe 196d 6dbb
000003b0: f32f 3f3b 0297 9ebd effe 87bd 020b 2f3e
000003c0: 8130 a7bd 440e 1f3e d2cf fabc 3758 42bd
000003d0: bbee 33bd 4d9d 0cbe ef5f 1abd 6297 803e
000003e0: 7d27 973e 0f00 19bd 2ddd b93b 6ab8 94be
000003f0: 2aac 84bd ec7e 21be 7fbe 9ebd 35bb 4f3e
-0.028260447 -0.11166778 -0.008557188 0.40923917 0.057979338 -0.009649953 0.050117962 -0.13540114
0.13539572 -0.08922815 0.19424236 0.1130477 0.015405751 0.1627985 -0.018819664 -0.012567157
-0.00981349 -0.116347104 -0.086730674 0.3191035 -0.17985915 0.14721994 -0.18892057 0.11638241
-0.046342045 -0.20995873 0.5911923 -0.059699114 -0.16582075 0.101929605 0.01799639 0.026817217
-0.0001725114 0.13373873 -0.28661275 0.1443468 0.296138 0.037888125 -0.12182243 -0.22294039
-0.5927595 0.12177992 -0.2963384 0.35222584 -0.22109926 -0.23993845 0.07708206 0.38476056
0.054615118 -0.17657667 0.4770329 -0.08738947 -0.00713236 0.1988425 -0.36781034 0.23551324
0.088088095 -0.2875832 -0.15470935 0.048237476 -0.27379903 -0.23637794 0.31267178 0.42117256
0.40808398 -0.46925187 0.13967535 -0.16798371 0.008140429 0.1318468 -0.5296309 0.45912638
-0.30976528 -0.16367117 0.6391242 -0.5543768 -0.10502103 -0.073095195 -0.12400634 -0.3383053
0.10666148 -0.059552792 0.07813976 -0.17101924 0.049189065 -0.10629011 0.15029679 0.08048346
-0.0833723 -0.048449326 -0.18207915 0.001558226 0.08254763 -0.053472243 0.06626271 -0.03878712
0.08365796 -0.12312916 -0.12005201 -0.069275 -0.20732032 0.040518064 0.19093761 -0.15410818
0.1848649 -0.027294362 0.077276066 -0.008413292 -0.12752853 -0.11637822 0.3043257 0.13438894
-0.049877092 -0.15144649 -0.09027889 -0.19383934 0.013122734 -0.049313836 -0.06688783 -0.05537665
-0.012597265 -0.14709207 -0.25503585 -0.04091574 -0.16716397 0.13567881 0.2668711 0.23794322
0.15493052 0.12308774 0.082798146 -0.17832792 0.003317162 0.33391458 -0.10501194 0.34602344
0.11656612 -0.057439025 -0.12652963 -0.07858181 -0.4307154 0.1495255 -0.020501096 0.19443592
-0.0039716205 -0.1909954 0.36647126 -0.17649193 0.029246945 0.020237783 -0.074390724 -0.0042467206
-0.008631666 -0.20399365 0.16557014 -0.27580336 0.0051147714 -0.031423606 -0.0019722474 -0.16486032
-0.40642992 0.28363964 -0.09522832 0.09606735 -0.043582678 -0.11551727 -0.13222957 0.1782935
0.3649835 -0.17315608 -0.1878089 0.11924331 -0.20782143 -0.40274325 -0.3018209 0.081504904
0.3494075 -0.25786978 -0.2831686 0.2322565 -0.08978748 0.16598393 0.3170038 0.34753188
0.37127087 -0.15799831 0.000836347 -0.32966146 0.20280255 0.17461027 0.18252018 0.43727836
-0.23027484 -0.13969359 0.5157511 -0.43648142 -0.3660533 0.18893006 -0.14603274 -0.1645678
0.1263699 0.04061916 -0.0603276 -0.25596663 -0.013707842 -0.0070251087 -0.121184066 0.099741004
-0.1583292 0.083374396 -0.50284755 -0.048090085 0.106108345 -0.057425372 0.08401977 -0.22569461
0.027629396 -0.0029553452 0.074411556 0.061820894 -0.30742186 -0.13914427 -0.1615603 -0.08673948
0.105480924 0.10473399 -0.276313 -0.11460165 0.17792083 -0.03104343 0.044008557 -0.06516883
0.03748032 -0.071452096 -0.2293889 -0.0036228357 0.0029172867 -0.07743646 -0.066404216 0.17094043
-0.08163548 0.15532786 -0.030616675 -0.04744741 -0.043928843 -0.1373188 -0.037689146 0.25115496
0.29522315 -0.03735357 0.005672118 -0.29046947 -0.0647815 -0.15771073 -0.07751178 0.20286258

preamp.model.rec.bias_ih_l0 f4 [160]
00000000: 49b6 1d3d 71af bb3e d830 5e3e 0c51 adbc
00000010: f111 c93e ab3a c8bd 5308 9a3d c6d7 5a3e
00000020: 0dec 8d3d 568f 1e3b 64c3 933d 6eb8 de3d
00000030: 9b77 433d 882b aabe 8f34 ac3c bb7d 0a3e
00000040: 9583 a53a 735d a9bb f3a9 cd3c 0561 863e
00000050: e289 e6be fb0d df3d de54 68be 635a 823c
00000060: b98e 0b3e 26c3 143e 57ea 1e3e b6e3 8d3b
00000070: 0dbb ef3e f848 203e 084c 53be 8fe2 fe3d
00000080: a317 283e 3a80 323b 34c9 053e f2a9 e53d
00000090: cc41 3f3e a500 9a3e ed9e de3c 0691 8b3d
000000a0: 04f6 313e 1b2b 5ebe 69c2 e4bd a570 76bd
000000b0: a6e4 56be 7056 bc3c bd56 21bd 8e1e abbd
000000c0: d1b0 513c c0ea c93e e8c1 8b3d 91a2 c4bd
000000d0: 325c 4abd bfce e33e cf94 6c3e 4c5d 61bc
000000e0: 1b0b 493e 50dc a9bd ab7c c4bb a9d1 93bd
000000f0: f268 fb3e 54c4 e2bb c20d 86bc 029d 143e
00000100: 6dee 6d3e 8904 c93b 1592 e73d 3394 6b3e
00000110: da14 203e 46b5 7cbb 3609 be3e e770 fd3d
00000120: eb7f 633e ae32 923d 393a 153b 6095 30bd
00000130: 2402 f2bd 3521 0a3d b17c 053d 56fa fb3b
00000140: 78a1 f1bd 2118 d4bc d807 a4be 3768 c53d
00000150: 7885 6bbe 9128 63be 61bf bdbd e44d 313e
00000160: 1b2c be3d d33a 68be 543f 0b3e a097 57bc
00000170: b907 1d3e ddd8 86bd daee 9cbd f56f 02be
00000180: c171 383e 5382 663d eaa3 0bbe e339 103e
00000190: 79bf e0bd 3087 7b3e 5af9 933d 7de7 893e
000001a0: 8ced 703d 82ac ebbd 2759 94bd fc8c 51be
000001b0: 2003 03be c9c4 1b3e 4d5d 01be 046e 553e
000001c0: 65c0 65be 1204 e83d 1fa0 583d 510e 2d3d
000001d0: dfa4 a0bc dfd3 cf3d 28c2 0fbe 761d 953d
000001e0: 889e a13a a6a0 803e f1d3 053d 5b62 9d3a
000001f0: 929d 9f3e 1af4 813d 5888 713e dfa0 473e
00000200: 8470 a73d 612b 1c3e cd83 8e3e 28b0 d7bd
00000210: 4120 653e e7b1 293e b31b 17bd 536a 523e
00000220: 0a4a d83c 7e61 b5bc 4cf6 6d3d 21b0 0c3f
00000230: 8863 f53e 3bb9 b6bc 9891 cd3c 77c6 b63d
00000240: 8255 7b3e fd0c 003e c0fc 4e3e 63cf 3f3e
00000250: 159b ed3d cfbc 4b3e 6543 103e fe62 1f3e
00000260: 357d 07bd 32bf 2ebe a733 0d3e cd35 b63d
00000270: 0c2c 843e acb6 193e 783d 0a3e 41bd 98bd
0.03850392 0.3665729 0.2169832 -0.02115681 0.392715 -0.09776815 0.07521119 0.21371374
0.06929789 0.0024194322 0.07215002 0.10875021 0.047721487 -0.33236337 0.021021156 0.13524525
0.0012627715 -0.0051686107 0.025105452 0.26245895 -0.4502707 0.108913384 -0.22688624 0.01591224
0.13628663 0.14527568 0.15519081 0.004330124 0.46822396 0.15652835 -0.20634472 0.12445556
0.16415267 0.0027237074 0.13065034 0.11214055 0.18677443 0.30078617 0.027175391 0.068147704
0.17379004 -0.21696131 -0.11169893 -0.06016602 -0.2098566 0.022990435 -0.03938936 -0.08355437
0.012798504 0.39436913 0.06824094 -0.096013196 -0.04940433 0.44493672 0.23103641 -0.013755154
0.19633143 -0.082939744 -0.005996307 -0.07217724 0.49103504 -0.006920377 -0.016363982 0.14513019
0.23235483 0.006134574 0.1130716 0.23005752 0.15632954 -0.0038560196 0.37116402 0.1237505
0.22216766 0.07138573 0.00227703 -0.043111205 -0.118168145 0.033723075 0.032589618 0.0076897545
-0.11798376 -0.025890412 -0.32037234 0.09639018 -0.23000133 -0.22183444 -0.09265018 0.17314869
0.09285756 -0.2267869 0.13598377 -0.013158709 0.15334977 -0.06584332 -0.07662745 -0.1273802
0.18012144 0.05627663 -0.13636747 0.14084582 -0.109740205 0.24563289 0.072252944 0.26934424
0.058820292 -0.11507513 -0.07243567 -0.20463938 -0.12794161 0.15211786 -0.12633248 0.20842749
-0.22436674 0.11328901 0.05288708 0.04224998 -0.019609867 0.10147833 -0.14038908 0.0728101
0.0012330571 0.25122565 0.032672826 0.0012007462 0.31174904 0.06345387 0.23587167 0.19494961
0.081757575 0.15250923 0.2783493 -0.10531646 0.22375585 0.1657177 -0.03689165 0.20548372
0.026402492 -0.022141214 0.058096215 0.5495625 0.479275 -0.022305122 0.025093839 0.08924573
0.24544337 0.12504955 0.20213604 0.18731456 0.11601845 0.19896244 0.14088209 0.15565106
-0.03307839 -0.17065123 0.13789235 0.088969804 0.25814855 0.1501109 0.13500011 -0.07457972

preamp.model.rec.bias_hh_l0 f4 [160]
00000000: b5b8 16bd 660d c43d 2cef 39bd 722a 673e
00000010: 81a0 803e 6102 c83d 7b59 853e 0923 5bbd
00000020: 4553 903e 802d 4bbe 99e3 213e b42b 243e
00000030: 01ad bbbd 178c a3be 8cdf b63d be4f 273e
00000040: 6840 283d 77c9 573e a68f 1bbe b7c6 c03e
00000050: 37d3 04bf ee24 fe3d 02d6 a43c 269c f53d
00000060: 798b ed3d 1806 ac3e 6459 313e 25f2 083e
00000070: 219e 5f3e 053b eb3d 6b7e 4cbe f6c8 143d
00000080: 8535 d13d 5ce8 0b3d d94a cfbc 9bff 663e
00000090: 8c28 eb3d 86fb b03d e7ef e83d 195c 003e
000000a0: f8c6 0f3e a657 0ebc 051f 3ebd 0a1b 7e3c
000000b0: d5de 25be dc2c 093e d135 24bd 7956 253d
000000c0: 861d 44bd 9f67 9d3e 9951 7c3e 6070 d03c
000000d0: a7b1 043d 9597 e73e 5682 dd3d e6b3 603c
000000e0: adde f43d c24e 253d 8f12 313e 1a4c 31bd
000000f0: d009 c63e cc79 a53c 93ea 213d f981 fe3d
00000100: dbb6 343d d80a 623e 0291 51bd 88e7 193e
00000110: d47f e13d cd9e 7fbd 241a c53e 01eb 863e
00000120: cff7 703d 3a30 0e3d 77c8 a23c 9f23 8d3d
00000130: b509 21be 311c 07be 7e6b 5fbc 53ce a23c
00000140: 3e8f 66be 6f5f 4cbe 1b34 a4be 1914 043d
00000150: d487 01be 5b36 06be dbdd 29be 6b46 85bc
00000160: a4da 293e 9db5 44bb 4479 363e 1b18 d13d
00000170: 7fdb db3d 83d4 57bd 0f1d 29be f684 7b3d
00000180: dd5f aa3d 714e 20be 92fb a53d ecc2 713e
00000190: 1cf7 543d 0cbe 153e 7507 153b 0ff2 093e
000001a0: 77d5 3c3e 25e9 5cbe e6b0 f63d 6c71 81bd
000001b0: cb76 bdbd 9e1e 0b3e 9631 c13d 87e2 343d
000001c0: 66ef 69be 1568 113e 5ab5 c13d 2f6a d93d
000001d0: 59a4 64bd bc8b cdbc 9ff0 85bd fd5e cbbd
000001e0: 86a6 11bd e293 c23e e63e a6bb 75d8 a93d
000001f0: 35be 053e 4768 a8bd 12ab 0c3d ac36 2a3e
00000200: 5ac2 02bc 16fb 743e 101c a33e ffa8 0abe
00000210: 234a 6f3e 557c 913e 7f72 503e feac 113e
00000220: 4018 793e ad3e 293e b084 c5bc 2016 ab3e
00000230: fdba 443e 0ef0 e0bc 60be 143e becf 143e
00000240: e837 afbb 1903 653d 09b0 913e 0848 1d3e
00000250: 9dd8 9dbd 408f b9bc 868f 763e 5506 993d
00000260: 4d5f 493c 1bea 03bc 8ad7 653e 1db8 65bd
00000270: 0402 193e b17f ab3e 0ab5 0e3d d524 b93d
-0.036797244 0.09572868 -0.045394108 0.22574785 0.25122455 0.09766079 0.2604483 -0.05350021
0.2818853 -0.19841576 0.15809478 0.16032296 -0.09163857 -0.31942818 0.08929357 0.16339013
0.041077048 0.21072946 -0.15191516 0.37651607 -0.5188479 0.124093875 0.020121578 0.119926736
0.11598868 0.335984 0.17319256 0.13373621 0.21837665 0.114858665 -0.199701 0.036324464
0.10215286 0.034157142 -0.025304245 0.22558443 0.11482343 0.08641724 0.11373883 0.12535132
0.14040744 -0.008687889 -0.0464163 0.015509376 -0.16198285 0.13396019 -0.040090386 0.04036567
-0.04787972 0.3074312 0.24640502 0.02544421 0.032395985 0.45232835 0.10815875 0.013714766
0.119565345 0.040358312 0.17292236 -0.043285467 0.3867936 0.020199679 0.039530348 0.12427134
0.044119697 0.22074449 -0.05116368 0.15029728 0.110107094 -0.062407304 0.38496506 0.2635117
0.05883008 0.03471396 0.01987098 0.0689156 -0.15726359 -0.13194348 -0.013636468 0.019873774
-0.2251558 -0.1995828 -0.32071003 0.03224573 -0.1264947 -0.13106672 -0.16588537 -0.01626893
0.16587311 -0.0030015477 0.17819697 0.10209676 0.10735225 -0.0526929 -0.16514991 0.0614061
0.08319066 -0.15654923 0.08104624 0.23609513 0.051993474 0.14623278 0.002274004 0.13471244
0.18440805 -0.21573313 0.120454594 -0.06320462 -0.092511736 0.13585898 0.09433286 0.044161346
-0.2284523 0.1419986 0.09458418 0.10615956 -0.055820797 -0.025091045 -0.065400355 -0.09930227
-0.0355592 0.3800345 -0.005073416 0.08293239 0.1306084 -0.08223014 0.034342833 0.16622418
-0.007980907 0.23923907 0.31857347 -0.1354103 0.23368125 0.2841517 0.20356177 0.14226148
0.24325657 0.16527815 -0.024111122 0.33415318 0.19211955 -0.027458217 0.14525747 0.14532372
-0.0053472407 0.055911157 0.28454617 0.15359509 -0.07707331 -0.022651315 0.24078187 0.07471911
0.012290788 -0.008051421 0.22445503 -0.056083787 0.14942175 0.33495858 0.03484062 0.09040228

preamp.model.lin.weight f4 [1, 40]
00000000: cb4d 243e dc52 2e3e 2e6c a2be a3e5 c03c
00000010: 2cd2 56bd 05c3 54be 4e9f e73c 6153 4337
00000020: a72d 5abe 4070 88be 67cb b43d 1a58 843e
00000030: 7c2b a53e e32e d5bd f076 a2bd d77d a1bd
00000040: dd56 8ebd 2f2d 103d 516e 91bc dfb8 e5bc
00000050: 68aa 613b bd71 93bd 89d6 ebbd e300 c3bc
00000060: 6952 ed3c 6df0 583d 355f 86be b655 203c
00000070: c1c6 80bf a204 073d 88cb 9abd f6d3 9a3d
00000080: a0da a7bc 60a2 c6bc 7e66 953e 6d30 02bf
00000090: 15b2 8abd ea43 80bd c082 a03d 8b73 123f
0.160453 0.17023796 -0.3172316 0.023547 -0.05244653 -0.20777519 0.028274205 1.1642319e-05
-0.21306477 -0.2664814 0.088278584 0.25848466 0.32259738 -0.104093336 -0.07932842 -0.0788533
-0.069501616 0.03519934 -0.017752798 -0.028042255 0.0034433845 -0.07199428 -0.11515529 -0.023804134
0.02896996 0.052963663 -0.26244512 0.00978606 -1.0060655 0.032963403 -0.07558352 0.075599596
-0.02048999 -0.024247348 0.29179758 -0.5085514 -0.06772248 -0.062629536 0.078374386 0.57207555

poweramp.model.rec.weight_ih_l0 f4 [24, 1]
00000000: d795 3bbe 8a0f c03f a039 0abf e67b b8bf
00000010: 7c9e c0be 1cc5 323f a84b 283f 971f a73e
00000020: 858e aa3f 0a55 bfbf 48a2 613f 93de ffbf
00000030: 2120 5bbf 1915 32c0 38cf e2bf 6302 71c0
00000040: 4d8d 97bf 0d35 d03f d260 973f e307 ab3f
00000050: 6ad1 a0bf 7772 a9bf 343e a4bf 13b6 243f
-0.18318878 1.5004742 -0.5399418 -1.4412811 -0.37620914 0.69832015 0.6574044 0.3264129
1.3324744 -1.4947827 0.88138247 -1.9989799 -0.855959 -2.7825377 -1.7719488 -3.7657707
-1.1839997 1.626619 1.1826422 1.3361782 -1.2563908 -1.3238057 -1.2831483 0.64340323

poweramp.model.rec.weight_hh_l0 f4 [24, 8]
00000000: 7696 5dbe e195 88bd 3e13 07be 0cf3 b1be
00000010: 35a5 9f3d 6b36 5a3e 5986 1ebd 74ee b03d
00000020: ab54 78be 55b7 e73e cd90 8cbe be44 f7bd
00000030: 17ef e83d ad4c b03d 866a b7be 16d3 d13d
00000040: aad9 81be 0ee2 22bf 42b3 983e 228b b5be
00000050: a563 e73e 818e 1c39 27e7 63be 86a4 693d
00000060: 2274 47be 2f39 ab3d 7edb 15be 307a 13bf
00000070: 2165 f83e d089 e33e 2294 94bd 90d9 1bbe
00000080: eca0 91be 70c3 333f 4b96 453f 782c d73e
00000090: c9c0 67be 87b8 a0be 58a9 1abe 0caa 35bd
000000a0: 6780 c23e 4fc2 88bf 5354 5dbf f785 083f
000000b0: 63a9 a8bd f5de 42be 8a94 24be cd85 0bbc
000000c0: 524e a73d 2b59 11be 785f 0cbe 903e 373d
000000d0: d760 8f3e d31c 28be 61a9 3d3e cdb5 103f
000000e0: 94b6 863e afd8 3b3d c417 0ebe 4de4 0abc
000000f0: 8471 e5be 95c8 32be f67d 06bf 0aa9 5b3f
00000100: a6fa 643f d911 9d3f 314d 9bbf 433f a8bf
00000110: 5767 23bf 7bb6 183f dffe 79bf e4fc 653f
00000120: bb1b 3bbf 8609 20c0 3f7e 6f40 6e3d 40bf
00000130: add5 0b40 1eaf 923f 3c7e f43f ac04 2dc0
00000140: 1c93 2c3f 10eb 4c3f 2d7d 683e 0086 00c0
00000150: dd7b d9be 4342 db3f f25a 14bf 3aa1 853f
00000160: a7ec 21bf 3edf 42c0 4c43 bc3f 4e5b 15bf
00000170: bad8 1340 17da 8c3f b6f5 3d40 8b72 b8bf
00000180: ea72 e4bf 47f0 06c0 55b2 c83e f33f e13f
00000190: 650f 973f 3afb abbf a884 e63f 8b6a b7bf
000001a0: ada6 e7bf a0e7 18bf a0a7 b63f cd18 adbe
000001b0: 82d5 613f 5b05 dc3d f484 0f40 1260 f9bf
000001c0: 74ad 06c0 7d04 53c0 c772 d13f 914f 613f
000001d0: 86a8 e83f a57e 8dbe 692c 0c40 ba02 e3bf
000001e0: 5d31 b7be d40a f4bf 10b8 5140 7133 d0bf
000001f0: 9116 6140 54db e03f f4d1 5940 6200 8ebf
00000200: 5ad8 51be 77e3 94bd 08d9 99be d5d2 94bd
00000210: 7893 223e 74fa c93e 7d7e 003e 24f4 c3bb
00000220: c9ab 0fbd 3f57 bc3d f69b 97be 321f 80be
00000230: 9843 39bc e5c3 023e 5495 8cbd e5b1 0c3f
00000240: 1ffe 81be f59f 023f 2166 973d f185 ad3e
00000250: 6a1b 83be 274b 10be 7eab 31bd eb92 523d
00000260: ab2e 3f3d 10fc a2be 472a 27bf eb56 673e
00000270: 8b82 ef3e 6eee 4dbe 3f3d e13e 6041 f03d
00000280: d5ce e9be 3b35 6b3d 9318 e53e d89a bdbe
00000290: 3b29 98bd 742f a6be 3907 073e f3d5 a53d
000002a0: 6552 72bd e104 453d 1aac f33e 4814 23bc
000002b0: 40f2 b3bc 7a60 563e 8a93 dd3e d773 24be
000002c0: 40aa e0be ccd0 6cbd 23a2 da3e 22f5 7bbe
000002d0: f0e7 5cbe fe21 b7be 9066 3cbe 8214 123d
000002e0: c6ed 883e 4753 f1be 7fde 06bf b31d a93e
000002f0: ddd4 e4bc ba11 f2bd a61a 343e c484 e53e
-0.21639428 -0.06669212 -0.13190934 -0.34755743 0.077951826 0.21309821 -0.038702343 0.08639231
-0.24251048 0.4525706 -0.27454224 -0.120736584 0.11373728 0.08608375 -0.35823458 0.102453396
-0.25361377 -0.6362618 0.29824263 -0.35457712 0.4519321 0.00014930406 -0.22256146 0.057041667
-0.19477895 0.08360516 -0.14634511 -0.5760832 0.48514655 0.4444108 -0.072548166 -0.15219712
-0.28443086 0.7022009 0.77182454 0.42026114 -0.22632135 -0.31390783 -0.15103662 -0.044351622
0.37988588 -1.0684298 -0.86456794 0.53329414 -0.08235433 -0.19030364 -0.16072288 -0.008515787
0.08169235 -0.14194171 -0.13708293 0.0447374 0.2800357 -0.16417246 0.18521644 0.56527406
0.2631117 0.045860942 -0.13876253 -0.008477283 -0.44813168 -0.17459328 -0.5253595 0.8580481
0.8944496 1.2271072 -1.2132932 -1.3144306 -0.6382956 0.59653443 -0.9765453 0.89839005
-0.7308919 -2.5005813 3.7420805 -0.75093734 2.1849167 1.1459692 1.9101024 -2.7034101
0.6741197 0.80046177 0.22704001 -2.0081787 -0.42477313 1.7129596 -0.5795127 1.0439827
-0.6325173 -3.0448756 1.4708037 -0.58342445 2.310103 1.1004056 2.968122 -1.4409956
-1.7847569 -2.1084154 0.39198557 1.7597641 1.1801573 -1.3436043 1.8009233 -1.4329389
-1.809774 -0.5972843 1.4269905 -0.33807984 0.8821641 0.10743209 2.2424898 -1.9482443
-2.1043367 -3.297149 1.6363152 0.88012034 1.8176429 -0.27635685 2.1902106 -1.7735207
-0.3577985 -1.9065804 3.2768593 -1.6265699 3.5170023 1.7566934 3.4034395 -1.1093867
-0.20492688 -0.07269948 -0.30048394 -0.072667755 0.15876567 0.39448893 0.12548251 -0.0059800316
-0.035075936 0.09196328 -0.29611176 -0.250238 -0.0113076195 0.1277004 -0.068644196 0.54958946
-0.25389192 0.51025325 0.073925264 0.33891252 -0.25606853 -0.14091168 -0.04337644 0.051409643
0.046675365 -0.31832933 -0.65298885 0.2259175 0.46779284 -0.20110485 0.4399204 0.11731219
-0.45665613 0.05742381 0.4474531 -0.370322 -0.07429739 -0.3245808 0.13186349 0.08097448
-0.05916061 0.048100356 0.4759224 -0.009953566 -0.0219661 0.2093524 0.43276626 -0.16059814
-0.4387989 -0.05781631 0.42701825 -0.2460523 -0.21572852 -0.3576812 -0.183985 0.03566409
0.26743907 -0.47133848 -0.5268325 0.3303047 -0.027933532 -0.11819787 0.1758829 0.44827855

poweramp.model.rec.bias_ih_l0 f4 [24]
00000000: 3112 d63e 4483 30be 2b57 c73d ab11 0dbe
00000010: bcbe 58bd 6feb 0f3e 20fb 8d3e 250b 8f3d
00000020: cc34 a43f 86e5 11bf b45a b83f 37f5 56bf
00000030: 9f40 b1bf 6212 76bf 6978 c3bf 3dbd ec3d
00000040: 6654 d53e 3b88 dc3d f759 35bd 3585 d3bd
00000050: be04 42bd 4a54 7d3e 58c6 ab3b c439 963e
0.41810754 -0.17237574 0.09733423 -0.13776271 -0.052916273 0.14054655 0.27730656 0.069845475
1.2828612 -0.5699085 1.440268 -0.8396792 -1.3847846 -0.961218 -1.5271121 0.11559532
0.41665953 0.107681714 -0.04427525 -0.103281416 -0.047367804 0.24739185 0.0052421503 0.29340947

poweramp.model.rec.bias_hh_l0 f4 [24]
00000000: 45e6 51be 2169 583e 5519 c13d 5961 e13e
00000010: 0ec3 3fbe f437 8cbd d79a 02be 49aa babc
00000020: 5519 ac3f 0fd8 8abd 4d87 ac3f 6d11 5dbf
00000030: 7d93 e4bf 3316 23bf d24d efbf 390a a93e
00000040: f33b a53e 8762 3c3d 836c 3ebe 6b06 2ebe
00000050: 3193 943e cd29 9cbd d92a e4bd b2b5 81be
-0.20497997 0.21133853 0.0942866 0.44019583 -0.18726751 -0.0684661 -0.12754379 -0.022786276
1.3445231 -0.06779491 1.347879 -0.86354715 -1.785751 -0.6370575 -1.8695624 0.33015612
0.322723 0.0459924 -0.18596081 -0.16994636 0.29018548 -0.0762516 -0.11140985 -0.25333935

poweramp.model.lin.weight f4 [1, 8]
00000000: c609 3abe 10ab 98be 15e2 883e 4e82 dabe
00000010: ef0a ff3e 2ae1 9b3e 6842 243f bfa8 c2be
-0.18167791 -0.2981801 0.26734987 -0.4267754 0.4981303 0.30445224 0.6416383 -0.38019368

exp_avg f4 [160, 1]
00000000: 03b2 5ab7 1131 2ab5 3794 34b8 a892 6337
00000010: f13e 70b6 1dd4 8db8 3ca1 bcb6 51e5 96b7
00000020: 9038 5336 0064 4b37 fe7f d238 bf49 5c37
00000030: 1b18 87b6 8f52 7a39 f8e5 6cb6 3f97 2e36
00000040: 8fa7 dcb6 6cbd 57b6 43a3 8d38 02bf a1b5
00000050: 3adc 9538 d18a fb36 9631 2838 7191 d0b7
00000060: a16f 5eb8 2942 6e38 189e 70b4 119b 18b9
00000070: 114c 81b6 0f3d 62b7 ac4b 163a ca77 fdb6
00000080: 1ee5 96b6 ca73 b3b5 9f41 e4b7 5ee3 c0b5
00000090: ae26 4536 18d1 a836 1132 eeb5 8c67 3bb6
000000a0: 086f 3ab7 2911 2635 91dd 1db8 0ca3 db37
000000b0: 3644 0db7 e59d 2cb8 f202 41b7 87f7 9ab7
000000c0: cebd 73b7 1f01 85b5 3f0f 8339 bc7a 9738
000000d0: c152 2c37 46da ad37 305f c2b6 6119 a637
000000e0: 57a7 36b7 88e7 6cb7 3bf4 6838 d787 e4b7
000000f0: 307b bbb7 b043 c536 8398 c637 dbb9 3cb8
00000100: 51da 69b8 1dd1 d038 7d0a b337 a6fe b0b8
00000110: 5356 3cb8 b2b7 7cb7 8ed5 eb39 5947 2ab8
00000120: 6d6e 21b7 6173 4f37 55ed 11b8 2406 adb7
00000130: e38c 8236 3555 8a37 0089 b6b6 e65a 94b4
00000140: 6dad 3f38 98bb 23b9 3af6 c435 fdbf 02b9
00000150: 695f cab7 9455 7537 af4b 4339 a6dc 43b9
00000160: 02b5 c5b7 ed80 8639 5aca 90ba 4904 2eba
00000170: 6a9f 8138 8378 3438 28dc b6b7 e883 f638
00000180: 19f3 6cb6 6089 14b6 8bab 5e38 e413 8db9
00000190: f118 ae39 b14f e5b7 a0c5 c038 703b 77ba
000001a0: 5a6b 80b9 5749 083a efe0 b639 0741 8f38
000001b0: 7d58 2839 8e92 55b8 07bf 603a 8986 b737
000001c0: 98c7 1c35 ab25 e838 1023 e438 671d e8b8
000001d0: dffc 05b8 d7c7 0638 e065 ee37 0c7b 37b9
000001e0: 2548 8fb7 6c6f 79b7 e433 d8b8 0d0b 3237
000001f0: b600 c5b6 5675 8bb8 d3ae 18b7 d416 c4b5
00000200: a98b 9fb8 d872 aa35 2542 e437 1542 b738
00000210: a7db 60b6 7b42 8738 0912 5038 1a0a 0138
00000220: 8927 0ab8 ce7a 32b8 6fb8 5d38 99a6 46b5
00000230: 6624 3336 05ac d836 9bcc dc36 b9d6 c4b5
00000240: 6341 90b8 7f1e f038 8828 6135 304e aeb7
00000250: 4f24 2f38 2fe7 0cb8 88b4 b738 8a83 1ab8
00000260: fe9d 23b9 4497 e336 9955 86b7 d6ac 6db8
00000270: 92c7 dab5 221a e836 25a5 d9b6 9811 b2b8
-1.3035259e-05 -6.3401336e-07 -4.305338e-05 1.35644e-05 -3.5799424e-06 -6.762913e-05 -5.6216068e-06 -1.7988177e-05
3.1474374e-06 1.2123026e-05 0.00010037421 1.3130192e-05 -4.0261198e-06 0.00023872613 -3.53006e-06 2.6016057e-06
-6.5760173e-06 -3.2147755e-06 6.753814e-05 -1.2051025e-06 7.145894e-05 7.4965433e-06 4.01005e-05 -2.4863259e-05
-5.3032887e-05 5.680524e-05 -2.2409256e-07 -0.00014553616 -3.853355e-06 -1.3484866e-05 0.0005733322 -7.553933e-06
-4.497021e-06 -1.3370238e-06 -2.7210275e-05 -1.4371287e-06 2.9377802e-06 5.031132e-06 -1.7746953e-06 -2.7925444e-06
-1.1112315e-05 6.186479e-07 -3.7638067e-05 2.6182759e-05 -8.4201365e-06 -4.1155046e-05 -1.1504382e-05 -1.8473494e-05
-1.4528121e-05 -9.909598e-07 0.00024997626 7.223102e-05 1.0271267e-05 2.0724849e-05 -5.792732e-06 1.980056e-05
-1.0887007e-05 -1.4120604e-05 5.5540568e-05 -2.7242973e-05 -2.23495e-05 5.8789374e-06 2.3674458e-05 -4.4995784e-05
-5.5754852e-05 9.957163e-05 2.1343347e-05 -8.439766e-05 -4.490309e-05 -1.506314e-05 0.00044981804 -4.0597606e-05
-9.622058e-06 1.2365025e-05 -3.4791727e-05 -2.0626067e-05 3.8907033e-06 1.649056e-05 -5.4399716e-06 -2.7633286e-07
4.5699464e-05 -0.00015614775 1.4674799e-06 -0.00012469287 -2.4124705e-05 1.4623063e-05 0.00018624844 -0.00018678847
-2.3568518e-05 0.0002565453 -0.0011046634 -0.0006638212 6.1808925e-05 4.302758e-05 -2.1798609e-05 0.000117547635
-3.5308242e-06 -2.2133681e-06 5.3088686e-05 -0.00026908435 0.0003320645 -2.7336037e-05 9.192084e-05 -0.0009431159
-0.00024494046 0.0005198917 0.00034881334 6.830884e-05 0.00016054693 -5.0919647e-05 0.0008573387 2.1877948e-05
5.8404976e-07 0.00011069638 0.00010878418 -0.00011068099 -3.1945176e-05 3.2134205e-05 2.841925e-05 -0.00017498079
-1.7080523e-05 -1.4867499e-05 -0.00010309348 1.06122e-05 -5.8711403e-06 -6.649892e-05 -9.10061e-06 -1.4609782e-06
-7.6077245e-05 1.2699411e-06 2.7210519e-05 8.738429e-05 -3.3506456e-06 6.4496846e-05 4.960786e-05 3.0765405e-05
-3.2938584e-05 -4.2552878e-05 5.2862273e-05 -7.400318e-07 2.6694265e-06 6.4573273e-06 6.58033e-06 -1.466563e-06
-6.878634e-05 0.00011449772 8.387801e-07 -2.0778825e-05 4.1757066e-05 -3.3593908e-05 8.7597466e-05 -3.6838966e-05
-0.00015603748 6.782737e-06 -1.6013904e-05 -5.666617e-05 -1.6300348e-06 6.917181e-06 -6.4863293e-06 -8.4909785e-05

exp_avg_sq f4 [160, 1]
00000000: 2870 9c32 1148 e630 b8da aa32 7e14 8f32
00000010: f6c6 c32e d401 8533 f6e2 ec2f 11fe c532
00000020: 610a a431 088a 0e33 8829 1a33 6028 9431
00000030: c2a8 9331 e969 9636 bb2b 1430 01d1 9f31
00000040: 0b78 5431 7869 942f 166b 7c33 f2fb c52d
00000050: 8a8f 0a35 fc78 6831 ffb3 f833 4300 4434
00000060: 4dab 0b33 961e e532 20b3 b230 e89a 0c35
00000070: d08a 552e 70e0 8c31 e2b5 e836 9eb7 9d30
00000080: 45d8 b82f 317d 1231 9be8 5c31 3a8d 492f
00000090: d345 2e2f 2a09 f130 3528 2230 ce60 6230
000000a0: d99e ff32 2b04 1132 dd28 ae32 26c3 4433
000000b0: 1caa 2031 196a b332 2dbd 8b31 81e9 d632
000000c0: da71 b932 b617 6533 9ecb 9434 7d4b b633
000000d0: c201 db31 c83a 5e35 535d 1631 20cb 9933
000000e0: 59ea b931 c5dc 8731 485a a133 b33d 0432
000000f0: ec30 a033 2834 c430 57f2 ee33 73dc 6b34
00000100: f598 5633 20e6 9733 4a40 3832 4eb8 9634
00000110: f59d 8133 e7f1 ee31 0517 0237 7e98 e831
00000120: 4dc6 0b31 1d33 2c32 d13c da31 2bb6 ac31
00000130: b410 0031 effd 2332 a656 e731 1e35 b431
00000140: dc3d 2e33 048f b935 b543 cb2d 9cf1 2b35
00000150: 9a20 9c34 4c5e 1c31 78ff 0b35 ef22 8835
00000160: 3b2a f832 9d80 d036 795c 8137 4725 8237
00000170: 30f1 5634 f108 9936 c46d 8532 7ddd 6935
00000180: 674c 8731 a666 9b32 c423 3c35 6991 0636
00000190: 439d 6736 460e 6c33 ffe1 b434 4846 1537
000001a0: 22ba 2535 3f65 9836 ba2a 3537 580e 9233
000001b0: 349d ef35 869d 3e33 ac35 8e38 6db5 1a34
000001c0: 825c a42f 93c8 cf34 7871 e834 28ee d133
000001d0: c0e3 8435 79e9 9735 61bf 5433 bcf8 a433
000001e0: d295 8133 92f0 3232 1396 3434 8dbd b232
000001f0: db89 912f e4f5 9b33 92a8 9230 02e3 cc31
00000200: a3eb 9e33 e904 9c31 da65 8931 3961 bf32
00000210: 5678 9330 e1c3 0034 1daa 0334 526a e533
00000220: 6a76 5433 cafa c332 930d ba32 ffa5 0c2d
00000230: 39ba 132e 92e9 d830 addd b033 b7d6 2633
00000240: fab6 3d34 7a15 9533 b41f 202f 7a70 4434
00000250: e6a4 8b32 0ce7 1333 cad3 bb33 2642 1432
00000260: 7076 7034 55e9 2832 8d9a 8f30 0350 f732
00000270: eb74 a030 dcbc 2c31 81c2 a732 d754 0832
1.8211793e-08 1.6755185e-09 1.9890066e-08 1.665671e-08 8.902916e-11 6.193628e-08 4.3089415e-10 2.3049354e-08
4.774208e-09 3.318749e-08 3.589369e-08 4.311957e-09 4.2974486e-09 4.482678e-06 5.390423e-10 4.65127e-09
3.0918297e-09 2.6995983e-10 5.8770716e-08 2.2508193e-11 5.1617883e-07 3.3829215e-09 1.1581141e-07 1.8254018e-07
3.2519257e-08 2.6673018e-08 1.3002115e-09 5.237948e-07 4.8553883e-11 4.100052e-09 6.9353127e-06 1.1475441e-09
3.3623074e-10 2.131696e-09 3.2146434e-09 1.8331017e-10 1.5850014e-10 1.7537662e-09 5.8992394e-10 8.235589e-10
2.9758143e-08 8.4410585e-09 2.0274848e-08 4.5812293e-08 2.337976e-09 2.088659e-08 4.0669392e-09 2.5019064e-08
2.1588608e-08 5.3339782e-08 2.77153e-07 8.488767e-08 6.3739387e-09 8.278698e-07 2.1880922e-09 7.161566e-08
5.410851e-09 3.9541157e-09 7.513569e-08 7.69744e-09 7.4594794e-08 1.4275701e-09 1.112682e-07 2.196628e-07
4.996487e-08 7.073345e-08 1.0724827e-08 2.8073777e-07 6.035763e-08 6.9542128e-09 7.7539635e-06 6.769425e-09
2.0339883e-09 1.00233395e-08 6.351549e-09 5.026569e-09 1.8635946e-09 9.5455865e-09 6.7328356e-09 5.244728e-09
4.0568793e-08 1.3825197e-06 2.3108496e-11 6.405405e-07 2.9080985e-07 2.275459e-09 5.215329e-07 1.0142957e-06
2.8890204e-08 6.2138556e-06 1.542106e-05 1.5514566e-05 2.0018047e-07 4.5607962e-06 1.5533153e-08 8.712157e-07
3.937703e-09 1.8091054e-08 7.0087503e-07 2.0052196e-06 3.451322e-06 5.4961014e-08 3.3692046e-07 8.897456e-06
6.173815e-07 4.5417396e-06 1.0798389e-05 6.801264e-08 1.785264e-06 4.438109e-08 6.781085e-05 1.440837e-07
2.9897157e-10 3.8702692e-07 4.3295927e-07 9.775641e-08 9.90105e-07 1.1318326e-06 4.9534155e-08 7.6820896e-08
6.034283e-08 1.0415663e-08 1.6818403e-07 2.0808125e-08 2.6473299e-10 7.262477e-08 1.0670809e-09 5.962989e-09
7.4003104e-08 4.5407558e-09 3.998804e-09 2.2279538e-08 1.0729859e-09 1.1992189e-07 1.2262213e-07 1.0682983e-07
4.9467793e-08 2.2815033e-08 2.1659423e-08 7.994937e-12 3.358933e-11 1.5782453e-09 8.235961e-08 3.884517e-08
1.7668563e-07 6.94226e-08 1.4563178e-10 1.8294841e-07 1.6256717e-08 3.443624e-08 8.74639e-08 8.629774e-09
2.2394829e-07 9.831941e-09 1.0448545e-09 2.879097e-08 1.1674762e-09 2.5136648e-09 1.9529809e-08 7.935532e-09

exp_avg f4 [160, 40]
00000000: e0ab dcb7 9aa4 d9b6 4775 8ab7 574d 0238
00000010: 3df4 3638 44b2 49b6 9de8 3139 d969 8f37
00000020: 473b e237 4c33 93b8 051c 9338 8ef4 85b7
00000030: 7111 4f37 8c73 74b8 caef 6db8 6d3c 2d38
00000040: 29cf 9037 bd9a 4bb8 8491 7cb8 889d 8fb7
00000050: 1d4d 8fb7 497d e736 37ca 3bb7 1d04 1538
00000060: c421 5f38 d2c4 99b7 8014 29b7 5f07 c8b7
00000070: ef80 dab9 a9ba 0938 bb85 b936 d7b0 7938
00000080: 72ee 2cb8 dc56 1eb8 d349 bb38 31de 14b8
00000090: f8a4 1ab7 b831 5eb8 f122 c9b7 51b9 e3b9
000000a0: 7762 2fb7 f233 a3b7 55b4 b1b7 7286 ce37
000000b0: 5320 8bb7 8b93 45b7 618b 3236 384b 0338
000000c0: d274 bd37 8fc0 a632 d85d 2838 4676 2937
000000d0: 19e3 c2b5 182f 30b8 9681 1ab8 45fa 5e37
000000e0: 9e0b 0d38 b0b5 02b8 b95d ba37 0118 2637
000000f0: e27a 24b6 4a9c 0c37 65bb fab6 9a9c 2c38
00000100: cf72 8237 400a 03b8 b8e3 3537 0ab3 0ab8
00000110: 8edd 19b8 6d63 0238 39f8 8c37 59de 5237
00000120: a286 ebb7 64f9 24b7 7425 92b7 1359 b837
00000130: ebc0 0037 c524 8437 ca8d bcb7 3b65 8fb7
00000140: fbd0 8cb7 4605 9eb7 f2f2 07b8 a49e 8c38
00000150: 910b 2c36 ba0b 68b7 3235 2939 5cc8 92b6
00000160: e89b 1438 830e b838 9d5b d738 b3c5 3d37
00000170: 396f 0e37 fca7 a4b7 98b3 88b8 b94b 4037
00000180: 2c42 9c37 65a2 55b8 9c77 7037 7558 9bb7
00000190: 6299 8737 8e07 da37 3c49 d437 fefc 7a38
000001a0: 67c1 6b38 0f55 89b8 84ad 9c37 cc68 45b8
000001b0: eb4e e9b9 8907 3638 08cf 1eb8 483a 5d38
000001c0: d8dc 2fb8 794a dcb7 f25a 8137 23c0 5138
000001d0: 3674 f537 36b6 aeb8 7dde 1fb8 e284 dfb9
000001e0: 7d6f 28b9 1a82 6cb8 4a5d f2b8 6372 7038
000001f0: 3938 deb8 99b3 9bb8 79ac 9238 0456 e838
00000200: 17ca 5e39 b3e6 b9b8 9a7f 6538 76db 2735
00000210: eeb0 9636 831d 8fb9 d142 73b9 98c0 0d39
00000220: f9f3 5e39 87cf 4fb9 6ab2 1fb9 1cf6 d938
00000230: dada 5db8 5185 0c38 4c35 f038 8e3c 1639
00000240: 0589 1239 f0d7 96b8 881a 2537 8e9c 0eb9
00000250: 588c 89b9 56c3 2b39 6c37 2b39 3c3a 9b39
00000260: dda2 48b9 9d99 b4b8 16cb 9738 5c9d 5238
00000270: bc71 e9b7 32b1 0738 77af 26b9 df42 86b9
00000280: 45ec 4435 8f97 aab6 c614 dfb6 55a9 cc36
00000290: 7afe ebb6 0986 88b6 8b44 b5b5 2ca6 7d36
000002a0: 7060 cf36 09d8 a736 95d1 3237 b61b d5b5
000002b0: 3faf e335 c6db d0b6 40da 11b7 3ee7 7f36
000002c0: 5bcd e836 cf1e 88b6 094f bc34 b9a8 c235
000002d0: 2d84 7436 63ad 9236 3e6e 0537 3e23 2537
000002e0: 5f26 db36 850b 23b7 328b 5eb4 4222 00b7
000002f0: 70ea 24b6 c711 0337 3dc2 9bb6 be35 c636
00000300: 251d d9b6 28ad 27b5 9914 07b5 f4ed e2b5
00000310: 8c5d 9c36 7497 b036 9ed7 e7b6 1b91 bcb5
00000320: cbbf e7b7 4306 71b8 d343 a5b8 c171 8f38
00000330: fdec 97b8 905e 03b8 25a9 4739 28dc 3038
00000340: a0ab f738 15b2 3139 ba88 7539 c7dd 1838
00000350: eeb7 43b6 c516 9ab8 42de 09b9 89b1 8a38
00000360: 0244 ae38 e92a ccb8 2f60 8437 38d2 a5b8
00000370: 4d8b f837 d4b4 5b38 24c1 fb38 d788 0b39
00000380: 6181 da38 5f3f 1bb9 524f 0238 3b93 d2b8
00000390: 1625 e8b9 14d8 bc38 ee57 24b8 bad9 0339
000003a0: c756 acb8 0bb3 60b8 c600 2a38 28a5 ccb8
000003b0: a3f9 a638 8dbd 15b8 8e77 d4b8 dda2 0aba
000003c0: ee03 91b7 3caf 5eb4 5382 80b5 5eed ce37
000003d0: e89e 7a37 e66e f1b4 f2e0 93b3 4bd4 f7b6
000003e0: 6920 a1b6 7034 4836 d198 8936 f5ef bcb7
000003f0: 1af2 c6b5 0a4c 73b6 3c08 cab6 48c8 1436
-2.630608e-05 -6.486266e-06 -1.6505493e-05 3.1066444e-05 4.3619646e-05 -3.0055098e-06 0.0001696669 1.7096218e-05
2.6968903e-05 -7.019061e-05 7.014725e-05 -1.5968715e-05 1.2342222e-05 -5.8281745e-05 -5.6728524e-05 4.130269e-05
1.7262604e-05 -4.8543083e-05 -6.0217004e-05 -1.7120285e-05 -1.7082837e-05 6.8989216e-06 -1.119315e-05 3.55282e-05
5.319879e-05 -1.8330673e-05 -1.0077958e-05 -2.384529e-05 -0.00041676263 3.2837186e-05 5.528998e-06 5.953092e-05
-4.1230065e-05 -3.775103e-05 8.930606e-05 -3.549288e-05 -9.217525e-06 -5.297523e-05 -2.3977338e-05 -0.00043434885
-1.04537385e-05 -1.9455303e-05 -2.1184018e-05 2.461972e-05 -1.6585143e-05 -1.17764675e-05 2.6605196e-06 3.1302887e-05
2.2584954e-05 1.9412509e-08 4.014172e-05 1.0100723e-05 -1.452022e-06 -4.200553e-05 -3.6837147e-05 1.3290502e-05
3.362784e-05 -3.1163625e-05 2.221657e-05 9.89996e-06 -2.4509432e-06 8.381039e-06 -7.472396e-06 4.1153842e-05
1.555067e-05 -3.124238e-05 1.0841461e-05 -3.3068507e-05 -3.668438e-05 3.1087013e-05 1.6804888e-05 1.2568745e-05
-2.8076876e-05 -9.8332275e-06 -1.7421997e-05 2.1975988e-05 7.674312e-06 1.5752748e-05 -2.2477372e-05 -1.7094068e-05
-1.6786615e-05 -1.8837523e-05 -3.241277e-05 6.705269e-05 2.563673e-06 -1.3831008e-05 0.00016136913 -4.374464e-06
3.543115e-05 8.776507e-05 0.00010269063 1.1311308e-05 8.489756e-06 -1.9628547e-05 -6.518437e-05 1.1461722e-05
1.8627463e-05 -5.09344e-05 1.43329635e-05 -1.851863e-05 1.6164679e-05 2.5991143e-05 2.5306472e-05 5.9840262e-05
5.6208486e-05 -6.5485125e-05 1.8677449e-05 -4.706606e-05 -0.00044500022 4.33992e-05 -3.786295e-05 5.2744785e-05
-4.1928928e-05 -2.6260723e-05 1.5420348e-05 5.0008424e-05 2.926039e-05 -8.330906e-05 -3.8115762e-05 -0.0004263288
-0.00016063261 -5.638795e-05 -0.00011556836 5.732699e-05 -0.00010596257 -7.4244286e-05 6.993948e-05 0.00011078644
0.00021246854 -8.8644585e-05 5.4716693e-05 6.2531706e-07 4.4909457e-06 -0.00027297073 -0.00023199177 0.00013518555
0.00021262457 -0.00019818368 -0.00015229886 0.00010393208 -5.2894327e-05 3.350276e-05 0.00011454019 0.00014327673
0.00013974689 -7.192779e-05 9.840944e-06 -0.00013600496 -0.0002623524 0.00016380599 0.00016328477 0.00029607292
-0.00019134158 -8.6116816e-05 7.238069e-05 5.0214454e-05 -2.7828726e-05 3.2351534e-05 -0.0001589636 -0.00025608295
7.335951e-07 -5.0840385e-06 -6.6483362e-06 6.0993866e-06 -7.0331707e-06 -4.0687196e-06 -1.35055e-06 3.7796663e-06
6.1803075e-06 5.0021376e-06 1.0658424e-05 -1.5877802e-06 1.6963821e-06 -6.224468e-06 -8.693489e-06 3.8132562e-06
6.9380453e-06 -4.0567024e-06 3.5075234e-07 1.4503231e-06 3.643577e-06 4.371324e-06 7.9530855e-06 9.842972e-06
6.5311756e-06 -9.718239e-06 -2.0726e-07 -7.637371e-06 -2.4574365e-06 7.812348e-06 -4.6419723e-06 5.9071162e-06
-6.470497e-06 -6.2464323e-07 -5.032139e-07 -1.6907566e-06 4.6600526e-06 5.26284e-06 -6.9094376e-06 -1.4049323e-06
-2.7626656e-05 -5.746471e-05 -7.880446e-05 6.83996e-05 -7.2443836e-05 -3.1320902e-05 0.0001904113 4.2166706e-05
0.000118098455 0.00016946376 0.00023415955 3.644617e-05 -2.9164325e-06 -7.3475334e-05 -0.00013148136 6.613421e-05
8.309634e-05 -9.735471e-05 1.5780415e-05 -7.9069694e-05 2.962877e-05 5.2382078e-05 0.00012004588 0.0001330705
0.00010419149 -0.0001480556 3.1068288e-05 -0.00010041004 -0.0004427812 9.004786e-05 -3.9182538e-05 0.00012574243
-8.217763e-05 -5.357251e-05 4.053188e-05 -9.758241e-05 7.961995e-05 -3.57009e-05 -0.000101312165 -0.0005288551
-1.7287177e-05 -2.0739111e-07 -9.574673e-07 2.4667646e-05 1.4938159e-05 -4.4970437e-07 -6.886138e-08 -7.385888e-06
-4.801947e-06 2.9832845e-06 4.1007083e-06 -2.2523085e-05 -1.482261e-06 -3.6254082e-06 -6.0210277e-06 2.2170298e-06

exp_avg_sq f4 [160, 40]
00000000: 6494 cf34 cd64 8733 cc0a 7a34 476a 8c33
00000010: 21fd 0535 19f4 b033 94b1 2034 2d60 be34
00000020: 44e8 8a35 802d bb34 d6c7 b934 66dc dd33
00000030: 3a7d 9631 9f58 b135 209a 7435 7114 0635
00000040: 1f15 6235 7196 1835 1934 0a35 c0c9 ce33
00000050: 72c7 4633 da78 cc32 cc75 ed34 39ab 0235
00000060: 6052 a934 cad6 9e34 41cc 7733 6ee2 b034
00000070: 8a9a e035 75d4 f134 15a7 e334 6c89 d535
00000080: 4b0d 1635 d6ad 1634 911d 9734 b38e f734
00000090: 8a6c a033 fae4 3234 8b14 0435 e25f b935
000000a0: f94f 3132 966c 4231 543c 0932 4236 6a31
000000b0: c0f4 9732 0c7e 8c31 43da 1232 8b59 0f32
000000c0: 13d0 8432 cb04 0632 4d2d 0b32 b9c0 2632
000000d0: 05e5 6b2f 3ac9 4433 ccf3 df32 8804 0232
000000e0: 2da7 e932 7562 c032 e155 7832 00ff a332
000000f0: 325f 6630 1de4 c72f fea9 4732 7b21 4e32
00000100: 457b d331 9e5c b731 6c21 7231 90ac 2732
00000110: 43a8 c633 1fe7 4832 83cd cd32 300e 0033
00000120: a345 a332 acf7 f430 4b64 ae31 24b0 1f33
00000130: 6486 1732 5615 fd31 64f0 5f32 21aa 4d33
00000140: 4a01 f434 bdc7 8c33 5afd a834 7eb4 4c34
00000150: 0e0c f034 cf86 2234 3d71 de34 8318 9434
00000160: c6ac 2035 810b 9934 1290 2134 e9d2 9234
00000170: b36a 8831 afea e735 9c5c 9335 1686 da34
00000180: 795f 9b35 8c05 5b35 5a2d 0e35 6918 2835
00000190: 4d23 1c33 618d 0f33 887e 6335 eab8 1135
000001a0: 9ba2 d834 cebd 8834 d53b 1334 996e c234
000001b0: 4789 8036 0455 2835 ee66 3835 fd73 ec35
000001c0: 8e11 4735 b9a2 1334 2d80 5834 2224 8135
000001d0: 7379 b434 f66a 4534 782e ed34 0f58 0c36
000001e0: 162a 8f34 2ab8 b732 bacc 1f34 3d23 4634
000001f0: 0de0 4934 bc08 8233 ceab 7933 c8d9 0d34
00000200: c397 be34 752f 5833 b6f5 5334 f95d 9133
00000210: 9154 3931 864e 3135 8595 0f35 b57c 6634
00000220: 1f3e 0835 cacc b634 bccc a534 a530 5d34
00000230: 0c40 c532 405f dd32 bd33 c634 2a63 aa34
00000240: 1bdc 8334 4ac9 7034 f90d 4733 ff77 5734
00000250: 11fb e334 4533 b534 b13f 2d34 031e 8b35
00000260: 90b4 b334 baea d733 2f1d 0b34 519d f333
00000270: 41cd c433 a41e 2033 6e28 6534 ae85 6034
00000280: d1bb f930 2c07 0f30 a668 dd30 f7d4 a32f
00000290: d04b 5431 8872 4030 bbf5 1730 671e f830
000002a0: 02ef 8e31 d0b3 4430 ae64 7f30 5495 1930
000002b0: fefb 492e 9a97 1032 7926 b831 6192 1431
000002c0: 0390 bf31 f0ae 8231 521c f030 be75 ca30
000002d0: f6b1 0d2f 335c 1a2f 0784 4a31 e540 4331
000002e0: 924b df30 e183 a630 4dd3 aa2f 032e 0c31
000002f0: a5f1 a331 e5fe 3b31 36f8 6431 33fe fa31
00000300: 64fd 7131 d032 1530 7219 1430 bcdf f330
00000310: 5e05 3b30 de56 a830 12b7 3c31 cd65 fd30
00000320: a68c 2835 8496 f433 7538 d034 6a59 9934
00000330: c7be 2035 d964 4234 0051 4535 2164 e434
00000340: 4c69 8e35 8eeb 5735 ed0a 5b34 36be 0035
00000350: 71da 1d32 8a89 2036 73da c335 8681 2035
00000360: 7439 c335 f8ee 9735 3dcd 5435 a5db 6c35
00000370: 5607 a333 162d f232 8b40 6435 fbb8 2135
00000380: 3065 f934 6a17 6c34 5a71 7a34 bf9e f234
00000390: fad8 0e37 789e 4135 a89b 9c35 b9d4 1336
000003a0: 6d3d 8835 8025 4034 88d2 c034 1ab4 2636
000003b0: ac7b 0335 f2fe 9a34 53bb 3735 6c96 9c36
000003c0: 9338 cc32 cbe7 7431 9cb2 7e32 fac7 1d32
000003d0: 4347 bc32 64b5 d531 2f44 4733 4634 8d32
000003e0: 2f68 2d33 95bb 1332 2edb 5032 1e4b 2033
000003f0: 7548 0030 6392 ac33 cf7e 6d33 15e8 d332
3.8664723e-07 6.304763e-08 2.3286992e-07 6.53859e-08 4.991471e-07 8.24004e-08 1.4965764e-07 3.5460235e-07
1.0349399e-06 3.486457e-07 3.4604335e-07 1.0331205e-07 4.379811e-09 1.321332e-06 9.1121365e-07 4.9948636e-07
8.4222296e-07 5.6843334e-07 5.148482e-07 9.6293206e-08 4.6281862e-08 2.3803683e-08 4.4230399e-07 4.8677936e-07
3.153864e-07 2.9586073e-07 5.7694937e-08 3.2947304e-07 1.6734277e-06 4.504433e-07 4.2403613e-07 1.5909732e-06
5.58987e-07 1.403308e-07 2.8147454e-07 4.6111163e-07 7.470324e-08 1.6660843e-07 4.9203726e-07 1.381148e-06
1.032094e-08 2.829244e-09 7.988167e-09 3.4082324e-09 1.7690013e-08 4.088866e-09 8.5479455e-09 8.344055e-09
1.5461444e-08 7.800916e-09 8.101165e-09 9.706292e-09 2.145449e-10 4.581782e-08 2.6071483e-08 7.568026e-09
2.7200793e-08 2.2396515e-08 1.44550265e-08 1.9091658e-08 8.3808793e-10 3.6359973e-10 1.1621976e-08 1.1998391e-08
6.1549223e-09 5.3365303e-09 3.5234633e-09 9.7599155e-09 9.2507e-08 1.1694083e-08 2.3958597e-08 2.9815226e-08
1.9007365e-08 1.7823729e-09 5.0754685e-09 3.718027e-08 8.819914e-09 7.3656947e-09 1.3034967e-08 4.7885013e-08
4.544948e-07 6.55559e-08 3.1476776e-07 1.9064643e-07 4.4712255e-07 1.5136469e-07 4.1433114e-07 2.7584983e-07
5.9856063e-07 2.850684e-07 1.5046706e-07 2.7348077e-07 3.9702512e-09 1.7279143e-06 1.0979306e-06 4.0703225e-07
1.1576186e-06 8.159193e-07 5.296512e-07 6.26204e-07 3.6353686e-08 3.3423365e-08 8.4748217e-07 5.4285795e-07
4.0351446e-07 2.5470075e-07 1.3712209e-07 3.6215786e-07 3.8306785e-06 6.270859e-07 6.8695124e-07 1.7617127e-06
7.415882e-07 1.374964e-07 2.0163198e-07 9.621765e-07 3.361598e-07 1.8385967e-07 4.41785e-07 2.0912883e-06
2.6666447e-07 2.1387752e-08 1.4882508e-07 1.8453007e-07 1.8801093e-07 6.0551855e-08 5.8131086e-08 1.3210877e-07
3.550068e-07 5.033458e-08 1.9740295e-07 6.769182e-08 2.6969114e-09 6.6051905e-07 5.348923e-07 2.1465787e-07
5.0754346e-07 3.4049145e-07 3.088261e-07 2.0599926e-07 2.2962944e-08 2.57711e-08 3.6918019e-07 3.173712e-07
2.45608e-07 2.242497e-07 4.6346006e-08 2.006709e-07 4.246472e-07 3.375118e-07 1.6135051e-07 1.0365042e-06
3.3472725e-07 1.0054414e-07 1.2956001e-07 1.1344185e-07 9.164297e-08 3.728077e-08 2.1341995e-07 2.0910258e-07
1.8170515e-09 5.203329e-10 1.6109609e-09 2.9800848e-10 3.0893155e-09 7.001195e-10 5.5282684e-10 1.8053016e-09
4.159916e-09 7.1559914e-10 9.2911534e-10 5.5873284e-10 4.5925923e-11 8.416373e-09 5.3594786e-09 2.1620041e-09
5.575204e-09 3.803386e-09 1.7470347e-09 1.4730899e-09 1.28871e-10 1.4038974e-10 2.9469918e-09 2.8413123e-09
1.6246864e-09 1.2115572e-09 3.1072958e-10 2.0398836e-09 4.771396e-09 2.7356972e-09 3.3319458e-09 7.3048567e-09
3.5214152e-09 5.4278093e-10 5.3878246e-10 1.7744166e-09 6.803783e-10 1.2248298e-09 2.7461664e-09 1.8437106e-09
6.278955e-07 1.1389514e-07 3.8784097e-07 2.8563528e-07 5.988226e-07 1.8104346e-07 7.350609e-07 4.2541163e-07
1.061047e-06 8.043652e-07 2.0399939e-07 4.796051e-07 9.188271e-09 2.3921916e-06 1.4592209e-06 5.9793126e-07
1.4545353e-06 1.1319926e-06 7.9274815e-07 8.8236476e-07 7.5916134e-08 2.819301e-08 8.503054e-07 6.0246356e-07
4.6453488e-07 2.1987731e-07 2.3324301e-07 4.5191516e-07 8.514378e-06 7.2128705e-07 1.1668208e-06 2.2028528e-06
1.0150667e-06 1.7895036e-07 3.5915969e-07 2.484076e-06 4.898127e-07 2.8870232e-07 6.8445405e-07 4.6666737e-06
2.3774453e-08 3.5638432e-09 1.4825357e-08 9.184072e-09 2.1918487e-08 6.2197376e-09 4.639531e-08 1.6438332e-08
4.0374456e-08 8.599177e-09 1.2157029e-08 3.732122e-08 4.6669096e-10 8.036002e-08 5.5296194e-08 2.4669172e-08
