python/logs/tensorboard/amp_model/3_targets_LSTM48_rnn_only/epoch=297-step=64368.ckpt (torch, 195983 bytes, 15 tensors)

preamp.model.rec.weight_ih_l0 f4 [192, 4]
0	0x3f80e469	1.0069705
1	0xbde0df43	-0.10980084
2	0xbea4bc39	-0.32174852
3	0xbe402a1b	-0.18766062
4	0x3ffee773	1.9914383
5	0x3e9fe95c	0.31232727
6	0x3ec4cb69	0.3843644
7	0x3ebb69d4	0.36604178
8	0x3f194400	0.59869385
9	0x3d9e2892	0.07722582
10	0x3e9dd4a9	0.3082631
11	0x3de54a6b	0.11195835
12	0x3cd3e2c3	0.025864964
13	0xbe59a07b	-0.21252625
14	0xbe233c04	-0.15940863
15	0xbeae66a1	-0.34062675
16	0xbd92456b	-0.07142147
17	0x3e6cf161	0.23138954
18	0x3e2666d3	0.16250162
19	0x3e8d99d8	0.27656436
20	0x3e1ae647	0.15126906
21	0xbe3d0d68	-0.18462145
22	0xbe8fdd1a	-0.28098375
23	0xbe3beed4	-0.18352824
24	0x3f35ae50	0.70969105
25	0x3d540704	0.051764503
26	0x3e57706a	0.21038976
27	0x3e1ccb53	0.15311937
28	0x3e393625	0.18087061
29	0x3d590a20	0.05298817
30	0xbe290b6a	-0.1650826
31	0x3d87a0a1	0.066224344
32	0x3d8b5fc5	0.06805376
33	0xbd186098	-0.037201494
34	0xbe3b4bda	-0.18290654
35	0xbd53edaa	-0.051740326
36	0xbf483deb	-0.7821948
37	0x3f1da935	0.61586314
38	0x3f36f0ba	0.7146107
39	0x3f0bf1a3	0.54665583
40	0xbdc48a16	-0.0959665
41	0xbe8b05c7	-0.27152845
42	0xbe705a51	-0.23471953
43	0xbbbcc7ff	-0.005761146
44	0xbe2868e4	-0.16446263
45	0xbb38a198	-0.002817249
46	0xbc804058	-0.015655681
47	0x3da9138d	0.08255682
48	0x3ec4f4d1	0.3846803
49	0x3d3afcc6	0.04565122
50	0x3e3009ad	0.17191191
51	0x3e3cafb7	0.18426405
52	0xbf66fc45	-0.9022868
53	0xbcf871ea	-0.030327756
54	0x3d1d76b3	0.03844328
55	0xbd0c153e	-0.034199946
56	0xbe189fc7	-0.149047
57	0xbd60bf29	-0.054869805
58	0xbc310cff	-0.010806321
59	0x3d1decb6	0.038555823
60	0x3dab2736	0.08357088
61	0xbe415f4a	-0.18884006
62	0xbe6bf8e0	-0.23044157
63	0xbe2a9c18	-0.16661108
64	0xbe62ca05	-0.22147377
65	0xbe4ea278	-0.20179164
66	0xbe513f40	-0.20434284
67	0xbe800955	-0.2500712
68	0xbe174bc4	-0.14774996
69	0xbe321422	-0.17390493
70	0xbe526cbc	-0.20549291
71	0xbbb8bcaf	-0.005637727
72	0x3d34fd4b	0.04418687
73	0xbe218e89	-0.15777029
74	0x3c3b83ec	0.011445027
75	0xbb692d2d	-0.0035579905
76	0x3f2856c7	0.6575741
77	0xbeee3470	-0.46524382
78	0xbe8fc6c6	-0.2808134
79	0xbf061462	-0.5237485
80	0x3e404610	0.18776727
81	0xbe9e899b	-0.3096436
82	0xbeac1b1d	-0.33614436
83	0xbe70ff4d	-0.2353489
84	0x3e61baa1	0.2204385
85	0xbcc34365	-0.023835847
86	0xbd67eb34	-0.05662079
87	0xbe03f6b8	-0.12887084
88	0x3f95af10	1.169405
89	0x3f03e7fc	0.51525855
90	0x3f354b5c	0.70818114
91	0x3f380cc7	0.71894497
92	0xbf61fd86	-0.8827747
93	0xbe15872f	-0.1460235
94	0xbe073fe7	-0.1320797
95	0xbe277d29	-0.16356339
96	0x3e338516	0.17531237
97	0xbe2844f1	-0.16432549
98	0xbe3a5f09	-0.18200316
99	0xbcc70179	-0.024292694
100	0x402858a2	2.6304097
101	0x3e7ad9f2	0.24497202
102	0x3defbb50	0.11705649
103	0x3e6cbe3c	0.23119444
104	0xbf8a1286	-1.0786903
105	0xbe6e11db	-0.23248999
106	0xbddad2cd	-0.10684738
107	0xbe8a95ba	-0.27067357
108	0xbf3becfa	-0.7340847
109	0xbdb83df1	-0.089961894
110	0xbdf80ee1	-0.12112213
111	0xbd15aacf	-0.03653985
112	0x3da5ea08	0.081012785
113	0xbe86acdb	-0.26303753
114	0xbe2a4aca	-0.16630092
115	0xbe4bd218	-0.19904363
116	0x3e0776aa	0.1322886
117	0x3e1f571f	0.15560578
118	0x3d3cf33d	0.046130408
119	0x3e94f41b	0.29092488
120	0x3e42bd21	0.1901746
121	0x3e8a3415	0.2699286
122	0x3dc24322	0.09485461
123	0x3e829bfd	0.25509635
124	0x3e167f11	0.1469691
125	0x3d712a76	0.058878385
126	0x3d0ae67d	0.033911217
127	0xbcc99ac4	-0.02460993
128	0xbefb7d81	-0.4911919
129	0xbdbb0792	-0.09132303
130	0xbe770f38	-0.24126899
131	0xbe619b4d	-0.22031899
132	0x3f29fe07	0.6640324
133	0xbd8bca0f	-0.06825649
134	0x3d15d407	0.03657916
135	0x3d5660ba	0.05233834
136	0x3f04bdc2	0.5185205
137	0xbe2e8bd3	-0.17045526
138	0xbdfb6029	-0.122742005
139	0xbe3a020b	-0.18164842
140	0xbe9025cc	-0.28153837
141	0xbdd8e702	-0.10590936
142	0xbe3796b3	-0.17928581
143	0xbe1b3b42	-0.15159324
144	0xbe650a0f	-0.22367118
145	0xbe1bbbce	-0.1520836
146	0xbe0246d4	-0.12722331
147	0xbe3d88bb	-0.1850919
148	0x3deca47e	0.11554812
149	0xbe9cb92e	-0.3061003
150	0xbe444058	-0.1916517
151	0xbe0bc3a9	-0.13648857
152	0xbe8ca55b	-0.27469906
153	0x3ea2d8fe	0.31806177
154	0x3ee2aeef	0.4427409
155	0x3ea8dd3f	0.32981297
156	0x3e2a38ab	0.1662318
157	0xbe1ba93b	-0.15201275
158	0xbe074068	-0.13208163
159	0xbde6a0dc	-0.1126115
160	0xbe8c5a9b	-0.27412876
161	0xbde8d419	-0.113685794
162	0xbe969568	-0.29410863
163	0xbeaa4e2b	-0.33262762
164	0x3efa77f2	0.48919636
165	0xbe815bda	-0.2526539
166	0xbeb9acc9	-0.36264637
167	0xbe608207	-0.21924601
168	0x3f5e10a5	0.8674415
169	0x3f056649	0.521092
170	0x3f00509e	0.5012301
171	0x3efefb72	0.49801213
172	0xbda72605	-0.081615485
173	0xbe514fa8	-0.20440543
174	0xbea6e1be	-0.32594103
175	0xbdca7d7e	-0.09887217
176	0xbefc3631	-0.49260095
177	0xbc08fb17	-0.008360646
178	0x3dfdafbe	0.12387036
179	0x3e4e0571	0.20119263
180	0x3f5bc71d	0.858507
181	0x3c33ebe5	0.010981535
182	0x3c687e14	0.014190216
183	0x3e2e3d09	0.1701547
184	0x3f7292d1	0.94755274
185	0xbef73619	-0.4828346
186	0xbedb782a	-0.42865115
187	0xbea86383	-0.3288842
188	0x3f6d6ca0	0.92743874
189	0x3d2db13f	0.042405363
190	0x3d313b7e	0.043269627
191	0x3cc428b2	0.023945186
192	0x3fa7ce5f	1.3109854
193	0x3d6316af	0.055441555
194	0xbe0a83ea	-0.13526884
195	0xbda71687	-0.081585936
196	0x3f88e79a	1.0695679
197	0xbde072cf	-0.10959398
198	0xbdc074a9	-0.09397251
199	0xbe81a9e0	-0.25324917
200	0x3f5085e2	0.8145429
201	0xbdc5e618	-0.096630275
202	0xbccf79eb	-0.02532669
203	0x3d573c90	0.05254799
204	0xbe733884	-0.23752028
205	0x3e5fb297	0.2184547
206	0x3e32b64b	0.17452352
207	0x3e9b7283	0.30360803
208	0x3f0111df	0.50417894
209	0x3cb40134	0.02197323
210	0x3dda264b	0.10651835
211	0x3c645218	0.013935588
212	0x3e541872	0.2071245
213	0x3da89cb4	0.08233014
214	0x3e417f61	0.18896247
215	0x3d749d2a	0.059720196
216	0xbe4f06a1	-0.20217372
217	0x3dc782ca	0.09741743
218	0x3e2ae550	0.16689038
219	0xbd4357d4	-0.04769118
220	0x3e65ee82	0.22454265
221	0xbd770655	-0.060308773
222	0xbcb917e8	-0.022594407
223	0x3deb25fd	0.11481855
224	0x3ec0e0ee	0.37671608
225	0x3e9da8ec	0.3079294
226	0x3d896fbd	0.067107655
227	0x3ea8902d	0.32922497
228	0xbf8a0107	-1.0781564
229	0x3e150966	0.14554366
230	0x3e3a8f86	0.18218812
231	0x3d9fd6f1	0.07804669
232	0xbe570219	-0.20996894
233	0x3e24c4a2	0.16090634
234	0x3e07208e	0.13196012
235	0x3d1551f7	0.03645512
236	0xbf18fba4	-0.59758973
237	0x3dc74301	0.09729577
238	0xb93708f1	-0.00017455571
239	0x3e4174ee	0.18892261
240	0x3f0216bc	0.5081594
241	0xbe9d6460	-0.30740643
242	0xbe1c8e90	-0.15288758
243	0xbe6aca30	-0.22928691
244	0xbfa87dab	-1.3163351
245	0x3bdbca3b	0.0067074574
246	0x3e28ca47	0.16483413
247	0x3d94641e	0.07245658
248	0xbd74c2e3	-0.05975617
249	0x3e2bab45	0.16764553
250	0x3e9c7e79	0.3056524
251	0x3e2f6ab3	0.17130546
252	0xbebf728a	-0.37392074
253	0x3e47cd5f	0.19511937
254	0x3e092cbe	0.13395974
255	0xbcbd43d8	-0.02310364

preamp.model.rec.weight_hh_l0 f4 [192, 48]
0	0x3eb703ef	0.3574519
1	0x3e628276	0.2212008
2	0xbdaa8a76	-0.083271906
3	0x3e2bf4ec	0.16792649
4	0xbdbc7ae8	-0.0920313
5	0xbe850777	-0.25982258
6	0xbe532cd5	-0.20622571
7	0x3e0fa814	0.1402896
8	0x3b2a96f5	0.0026029919
9	0x3ea2e8bf	0.31818196
10	0x3e240517	0.16017567
11	0xbec77c31	-0.38961938
12	0x3d3dd35d	0.04634415
13	0x3e880d69	0.2657273
14	0xbe731b31	-0.23740841
15	0x3d927cfa	0.07152744
16	0x3ec0c752	0.3765207
17	0x3e3d67ce	0.1849663
18	0x3d5477b5	0.051871974
19	0x3eb1deea	0.34740382
20	0x3ef9b533	0.48771057
21	0x3e32afed	0.17449923
22	0x3e6653aa	0.22492853
23	0x3e0ac225	0.13550623
24	0xbdbe4d0d	-0.0929204
25	0xbf276b1f	-0.6539783
26	0xbda85bb6	-0.082206175
27	0xbec0a56d	-0.3762621
28	0xbe80e363	-0.25173482
29	0x3ee1b3c9	0.44082478
30	0x3ea4c2f1	0.32179978
31	0xbe70694b	-0.23477666
32	0x3ce25362	0.02762765
33	0xbd258c72	-0.040417142
34	0x3da41554	0.080118805
35	0x3e46b04e	0.19403192
36	0xbe7a37f6	-0.2443541
37	0xbef3e7b7	-0.47637722
38	0x3ddfd433	0.10929146
39	0x3d1a748e	0.03770881
40	0x3e098216	0.1342853
41	0x3ddd964c	0.108196825
42	0xbe9c366f	-0.3051028
43	0x3e61e4e1	0.22059967
44	0x3dfbecfe	0.12301062
45	0xbea36326	-0.31911582
46	0xbad63704	-0.00163433
47	0x3e20bfdd	0.1569819
48	0x3e82c10c	0.25537908
49	0x3cd50014	0.026001014
50	0xbb4c0908	-0.0031133313
51	0xbeae5ca2	-0.34055048
52	0x3d51c8e8	0.05121699
53	0x3e72fe1c	0.23729748
54	0x3dac66a2	0.08418013
55	0xbe1529f7	-0.1456679
56	0xbef8c988	-0.48591256
57	0xbf1d0952	-0.61342347
58	0xbe3e0354	-0.18555957
59	0x3e133c56	0.14378485
60	0x3dace1d7	0.08441513
61	0x3d82f1ba	0.06393762
62	0x3e8f26d0	0.279593
63	0xbeed908a	-0.46399337
64	0xbe8da830	-0.2766738
65	0x3ea16bf3	0.3152767
66	0xbee4c5bd	-0.44682112
67	0xbcf98713	-0.030459916
68	0xbf4beba6	-0.79656446
69	0xbe05e429	-0.13075317
70	0x3ce87f22	0.028380934
71	0xbe8e8efd	-0.27843466
72	0x3ee95521	0.4557276
73	0x3f8ae649	1.0851527
74	0xbf307752	-0.6893207
75	0x3e624b08	0.22098935
76	0x3b8fa988	0.0043842234
77	0x3f0a94a9	0.5413309
78	0x3cd1111e	0.025520857
79	0x3e88b0ae	0.26697296
80	0x3bf6a047	0.0075264308
81	0x3e1b6bd0	0.15177846
82	0x3dc5cbb5	0.09657995
83	0xbe5bf388	-0.21479619
84	0x3e03005d	0.12793107
85	0x3e163ec7	0.14672385
86	0xbec2b4b1	-0.38028482
87	0xbee41ff5	-0.4455563
88	0xbe358a7d	-0.1772861
89	0x3e1494a0	0.14509821
90	0x3e01131b	0.12604944
91	0xbed15e08	-0.40892053
92	0xbdb2b3a5	-0.08725671
93	0xbdb58df1	-0.08864964
94	0xbe08c505	-0.13356407
95	0x3dab404c	0.08361873
96	0x3f08042f	0.53131384
97	0xbdfef44c	-0.1244894
98	0xbe9d31c0	-0.3070202
99	0xbae6d4a8	-0.0017610984
100	0x3e65d841	0.22445776
101	0x3e8d001a	0.2753914
102	0xbcadaf80	-0.021201849
103	0xbe3201d7	-0.17383514
104	0xbdb16cd2	-0.08663334
105	0xbdf0f505	-0.11765484
106	0xbe5c074e	-0.21487162
107	0xbeb0345f	-0.34414956
108	0xbdf5bc16	-0.11998765
109	0x3dd99c85	0.10625557
110	0x3e8858f3	0.26630363
111	0xbe9cc754	-0.30620825
112	0xbd76eff5	-0.060287435
113	0xbeb801a4	-0.35938752
114	0x39791279	0.00023753372
115	0x3e65220b	0.22376268
116	0xbc49cd4c	-0.012317013
117	0xbdaba38c	-0.083808035
118	0x3da03366	0.078223035
119	0x3d10cd99	0.035352323
120	0x3e23d6ee	0.15999958
121	0x3e95b7d4	0.29241812
122	0xbec544f4	-0.3852917
123	0x3d555606	0.05208399
124	0xbe709e97	-0.23497997
125	0x3d99d47b	0.075112306
126	0x3c933423	0.017969197
127	0x3de5c7d9	0.112197585
128	0x3e4644b8	0.19362152
129	0xbd012417	-0.03152856
130	0x3ea5316e	0.32264274
131	0x3b90f98c	0.0044242796
132	0x3deb41a5	0.1148713
133	0xbdcc9426	-0.099891946
134	0x3ec9179d	0.39275828
135	0x3dfe60d8	0.12420815
136	0x3d567797	0.052360144
137	0x3ddde110	0.10833943
138	0x3e32fbd7	0.17478882
139	0xbec77c75	-0.3896214
140	0xbeab2524	-0.33426774
141	0xbe864ad6	-0.2622897
142	0x3e9f66d1	0.3113313
143	0xbc9386c0	-0.01800859
144	0xbeab6505	-0.3347551
145	0xbee25802	-0.4420777
146	0x3d9ca24c	0.07648143
147	0xbe10ec9f	-0.14152764
148	0xbc4cd9b1	-0.012503074
149	0xbe9fea66	-0.3123352
150	0xbeb43d31	-0.35202935
151	0x3d9d2e2d	0.07674823
152	0x3de34052	0.110962525
153	0xbb9431fa	-0.0045225592
154	0x3ee07ab8	0.43843627
155	0x3d7f4115	0.062317926
156	0xbc8ee0e8	-0.017441228
157	0xbe1813f1	-0.14851357
158	0xbe40a7ab	-0.1881396
159	0x3d9f44b7	0.07776778
160	0xbd485631	-0.048910324
161	0x3e98b315	0.2982413
162	0x3e31b8ed	0.173557
163	0x3db2a22c	0.08722338
164	0x3df718d2	0.12065281
165	0xbbc7b268	-0.0060942657
166	0xbf0342c2	-0.5127374
167	0xbd5b0fc2	-0.053481825
168	0xbe646210	-0.22303033
169	0x3ae31ba9	0.0017326969
170	0xbe6aea8e	-0.22941038
171	0xbe8e04b1	-0.27737954
172	0x3b8a454d	0.004219687
173	0x3ebfbbb4	0.37447894
174	0xbe08153f	-0.13289355
175	0x3cc388d6	0.02386896
176	0xbd07441a	-0.03302393
177	0xbe9639fa	-0.29341108
178	0x3c09f2a5	0.008419667
179	0xbe256e4d	-0.16155358
180	0x3e8b6de0	0.27232265
181	0xbc867e6b	-0.016417703
182	0xbf03d6b4	-0.51499486
183	0xbe92fe29	-0.28709534
184	0x3f097606	0.53695714
185	0x3e3229cd	0.17398758
186	0xbe348ebc	-0.17632574
187	0x3ea4dd73	0.32200202
188	0x3e24b05f	0.16082905
189	0x3c867d03	0.016417032
190	0xbea5fb13	-0.32418117
191	0x3e606c31	0.21916272
192	0xbf151657	-0.5823721
193	0xbf42e858	-0.7613578
194	0x3e490afc	0.19633096
195	0xbdb212cb	-0.08694991
196	0xbdc756a1	-0.0973332
197	0x3e5fa776	0.21841225
198	0xbe4a521d	-0.19757886
199	0x3cd2382c	0.02566155
200	0xbe0ee0e7	-0.13952981
201	0xbf728d3a	-0.94746745
202	0xbdaa7154	-0.08322397
203	0x3e559987	0.20859347
204	0x3e83093a	0.25592977
205	0xbed00188	-0.40626168
206	0x3df6384a	0.12022455
207	0xbdf54959	-0.119768806
208	0x3e876f85	0.2645227
209	0x3e80cb41	0.2515507
210	0xb91f8a9f	-0.00015215062
211	0x3d980a34	0.07423821
212	0x3d07b2e9	0.033129606
213	0xbe34c733	-0.17654113
214	0x3dcec080	0.1009531
215	0xbea2b1f0	-0.3177638
216	0x3e8df8ee	0.2772898
217	0x3e84a2c6	0.25905436
218	0x3e6ba845	0.23013408
219	0x3e192b39	0.14957894
220	0x3ebe554c	0.3717445
221	0xbe1f882b	-0.15579288
222	0xbe8a0b08	-0.2696154
223	0x3df4a921	0.11946321
224	0xbed3fd41	-0.41404155
225	0xbd9135dd	-0.07090352
226	0xbe5f643f	-0.21815585
227	0x3e9c7de5	0.305648
228	0x3dbc62af	0.0919851
229	0xbea0ff4c	-0.31444776
230	0x3ef4bbed	0.47799626
231	0x3f7a8c88	0.97870684
232	0x3ef72180	0.48267746
233	0x3e19869c	0.14992756
234	0x3e573a73	0.2101839
235	0xbd5d5152	-0.05403263
236	0xbe9fd4f9	-0.31217173
237	0xbdca0880	-0.098649025
238	0xbd50e618	-0.051000684
239	0x3e0a4690	0.1350348
240	0x3e0c1eec	0.13683671
241	0xbe15c073	-0.14624195
242	0xbd588e80	-0.052870274
243	0xbe0f5d56	-0.14000449
244	0x3d22d1fd	0.03975104
245	0x3cfc36cd	0.03078785
246	0xbe0c221d	-0.13684888
247	0xbe08d172	-0.13361147
248	0xbebd00e0	-0.3691473
249	0x3eb8d251	0.3609796
250	0xbd950067	-0.07275467
251	0x3e4864ea	0.19569746
252	0x3dc7b4e6	0.097513005
253	0x3ef40277	0.4765813
254	0x3dfe4e84	0.124173194
255	0xbe07eeb8	-0.13274658

preamp.model.rec.bias_ih_l0 f4 [192]
0	0xbe8b7868	-0.272403
1	0x3ed84822	0.42242533
2	0x3dd8cccd	0.10585938
3	0xbea8ac4b	-0.3294395
4	0xbda6d450	-0.08145964
5	0xbc0e2137	-0.008674911
6	0xbe40db46	-0.18833646
7	0x3c23f462	0.010006996
8	0xbd72895a	-0.05921302
9	0x3d95b624	0.07310131
10	0xbe15ce8a	-0.1462957
11	0xbe3380b2	-0.17529562
12	0x3ca8bfe9	0.020599322
13	0xbdcc3062	-0.09970166
14	0xbd8adc81	-0.06780339
15	0xbc59bb4d	-0.013289285
16	0xbde61392	-0.112342015
17	0xbdfc29ad	-0.123126365
18	0xbd053aab	-0.032526653
19	0xbec5ffde	-0.38671774
20	0xbeb0090f	-0.3438191
21	0x3d29b9f1	0.041437093
22	0x3eb27725	0.34856525
23	0xbe29ee4d	-0.16594811
24	0xbd0cd817	-0.034385767
25	0x3ed2995e	0.41132635
26	0x3eae2e49	0.34019688
27	0xbe21d450	-0.15803647
28	0xbe20ae0c	-0.15691394
29	0x3e5e8039	0.217286
30	0x3ea4e092	0.32202584
31	0x3e89d2a8	0.2691853
32	0xbeae48c7	-0.340399
33	0xbd998d5c	-0.07497665
34	0xbe88ff3b	-0.26757225
35	0xbe49324f	-0.19648097
36	0x3df6f0cc	0.12057647
37	0xbb44ddc8	-0.0030039418
38	0x3d66dbcd	0.056361962
39	0x3de28a81	0.11061574
40	0xbe921e8c	-0.2853893
41	0xbe577c7f	-0.21043585
42	0x3eefeaeb	0.46858916
43	0xbe4408b1	-0.1914394
44	0x3e571139	0.21002664
45	0x3e66796d	0.22507258
46	0xbebbae23	-0.36656293
47	0x3e74dfc9	0.23913492
48	0x3ce5e62e	0.02806386
49	0xbe09164d	-0.13387413
50	0x3d80395f	0.06260943
51	0x3e9b5299	0.30336455
52	0xbd7ce975	-0.06174608
53	0x3e470d2b	0.19438617
54	0x3d6c2add	0.057658065
55	0x3e857034	0.26062167
56	0x3eb23aba	0.3481043
57	0xbdec1669	-0.11527712
58	0xbd47c68f	-0.048773345
59	0xbdf95a39	-0.12175412
60	0xbd9be864	-0.07612684
61	0x3e0e9965	0.13925703
62	0x3ea1f834	0.31634676
63	0x3e18a689	0.14907278
64	0x3e69e1b9	0.22840013
65	0x3d8042c0	0.062627316
66	0x3e38bc70	0.18040633
67	0x3eb2a67e	0.34892648
68	0x3ef75a19	0.48310927
69	0x3e3dcc2f	0.18534921
70	0xbd3bf631	-0.045889083
71	0x3de97d81	0.11400891
72	0x3ebed937	0.37275097
73	0xbe66dc48	-0.22544968
74	0x3ea62c2a	0.3245557
75	0x3ec90361	0.3926039
76	0xbb55f219	-0.0032645522
77	0xbe09ad7d	-0.13445087
78	0xbe0a430a	-0.13502136
79	0xbe18c6b4	-0.14919549
80	0x3e9ceb5b	0.30648312
81	0x3e231c26	0.15928707
82	0x3e5f4f86	0.2180768
83	0x3f0415c6	0.51595724
84	0xbcce8d72	-0.02521393
85	0x3e0ce790	0.13760209
86	0xbe94f8da	-0.2909611
87	0x3e9e9849	0.3097556
88	0x3f0e4055	0.5556691
89	0x3ef53c14	0.47897398
90	0xbd0aed54	-0.03391774
91	0x3e10e254	0.14148837
92	0x3d1ed7b0	0.038779914
93	0x3dbb4919	0.09144802
94	0x3f221f53	0.63329047
95	0xbc896890	-0.016773492
96	0xbdc3aac2	-0.09554054
97	0xbb2b2675	-0.0026115451
98	0xbca4dff9	-0.02012633
99	0xbd99f309	-0.075170584
100	0xbe3968ac	-0.18106335
101	0x3d4d49f2	0.050119348
102	0x3d25e743	0.04050375
103	0xbe8a7ffb	-0.27050766
104	0xbd0a3e01	-0.033750538
105	0x3d948dd8	0.07253617
106	0xbe1b7d45	-0.15184505
107	0x3c0ce445	0.008599346
108	0xbe019aa2	-0.12656644
109	0xbb8230cf	-0.0039731036
110	0x3e41a168	0.18909228
111	0xbdf3c914	-0.11903587
112	0x3d420b2a	0.047373928
113	0x3d058807	0.03260043
114	0xbeadf2fd	-0.33974448
115	0xbd55a213	-0.05215652
116	0x3e33ff10	0.17577767
117	0x3ddd07ee	0.10792528
118	0x3e5a12e9	0.21296276
119	0xbd1fdad0	-0.039027035
120	0x3d9f7511	0.077860005
121	0x399cb536	0.0002988965
122	0x3a91b595	0.0011116738
123	0x3dc7c776	0.09754841
124	0xbdc5826f	-0.09644019
125	0xbd1e6ebe	-0.03867983
126	0xbdbf2d58	-0.093348205
127	0x3dd34b76	0.103171274
128	0xbc710b2f	-0.014712139
129	0xbe518c95	-0.20463784
130	0x3d5bf7ad	0.053703
131	0x3c7d98b0	0.015478298
132	0xbdcc3951	-0.0997187
133	0xbd111c55	-0.03542741
134	0xbdd75eb2	-0.105161086
135	0x3e2f8e0a	0.17144027
136	0x3cb9734b	0.022637984
137	0x3e0d019f	0.1377015
138	0x3e6d3ba4	0.23167282
139	0xbe09a63e	-0.13442323
140	0xbdb9db9a	-0.09075089
141	0x3d1c7a3a	0.0382025
142	0xbe5f3df3	-0.21800976
143	0xbd62baec	-0.055354044
144	0x3dee1261	0.11624599
145	0x3ebe7eeb	0.37206206
146	0x3e023d63	0.1271873
147	0xbde0f685	-0.1098452
148	0x3e340995	0.1758178
149	0xbd05934f	-0.032611188
150	0xbeb1cd6c	-0.34727037
151	0x3e4b2a96	0.19840464
152	0xbdd29f10	-0.10284245
153	0x3eae866c	0.3408693
154	0xbe2ec1a8	-0.17066061
155	0x3e37774e	0.17916605
156	0x3d9a1600	0.075237274
157	0xbd8878e7	-0.06663685
158	0xbc254530	-0.010087296
159	0x3df7596c	0.12077603
160	0x3cf348c8	0.02969779
161	0x3df21c59	0.11821813
162	0x3e80932d	0.25112286
163	0xbd928886	-0.07154946
164	0xbc7955ba	-0.015218193
165	0x3d838dc9	0.06423528
166	0x3e92f772	0.2870441
167	0x3e186226	0.1488119
168	0x3e3848d9	0.17996539
169	0x3e7d414e	0.24731943
170	0x3e201149	0.15631594
171	0x3df6471d	0.120252825
172	0x3d7e671f	0.062110063
173	0x3dc4f843	0.09617665
174	0x3e38b8b9	0.18039216
175	0x3ca50ad1	0.02014676
176	0xbc9caeb0	-0.019126266
177	0xbe5f231b	-0.21790735
178	0x3e0387c9	0.12844767
179	0xbda2b6d8	-0.07945031
180	0x3d407bc4	0.046993032
181	0x3ca7d738	0.020488366
182	0x3e2a0aa4	0.16605622
183	0xbc0f6e33	-0.008754301
184	0xbda2182e	-0.07914768
185	0x3e28f96b	0.16501395
186	0x3eff9f84	0.49926388
187	0x3e0bf449	0.13667406
188	0xbc958d3c	-0.018255822
189	0x3e46cc6b	0.19413917
190	0x3c8e6a4b	0.017384669
191	0x3e0378ab	0.12839

preamp.model.rec.bias_hh_l0 f4 [192]
0	0xbe3b9bec	-0.18321198
1	0x3eb1b65d	0.34709445
2	0x3d258f03	0.04041959
3	0xbe9cbfea	-0.3061517
4	0x3e0d3f00	0.13793564
5	0xbe15a5f0	-0.14614081
6	0xbb9b9c28	-0.00474884
7	0x3d0f132c	0.034930393
8	0xbe003a15	-0.12522157
9	0x3cb59c2e	0.022169199
10	0xbe91cb6d	-0.28475514
11	0xbe8ed27a	-0.27894956
12	0x3d2f9eea	0.04287616
13	0x3dace446	0.08441977
14	0x3d056ab5	0.032572467
15	0x3db902da	0.09033747
16	0xbc884d79	-0.016638504
17	0xbe3d616f	-0.18494199
18	0xbb7c1d97	-0.0038469785
19	0xbec6d4b3	-0.38834152
20	0xbe75a48e	-0.23988554
21	0xbe0f8103	-0.14014058
22	0x3eaec25f	0.34132668
23	0xbe03c9ad	-0.12869902
24	0xbd9c3e2b	-0.07629045
25	0x3e0e9a11	0.13925959
26	0x3e4758d4	0.19467479
27	0x3d4f5f6e	0.05062812
28	0xbe1c5f28	-0.15270674
29	0xbc9e731e	-0.019342002
30	0x3e651ba7	0.2237383
31	0x3ec27cc1	0.37985805
32	0xbe588cd2	-0.21147469
33	0xbdf3efda	-0.119109824
34	0xbe1cf40c	-0.15327471
35	0xbe6b26f3	-0.22964077
36	0x3da95c63	0.082695745
37	0xbd32e1a0	-0.043672204
38	0x3e60d1ec	0.21955079
39	0xbd73805f	-0.059448596
40	0xbedb334c	-0.42812574
41	0xbead423e	-0.338396
42	0x3f08cd74	0.53438497
43	0xbc8efb04	-0.017453678
44	0x3e21b554	0.15791827
45	0x3da5aa42	0.08089115
46	0xbebf96ad	-0.37419644
47	0x3db76921	0.089555986
48	0x3e3f1874	0.18661672
49	0xbda050dd	-0.078279234
50	0x3d441296	0.047869287
51	0x3ece3be7	0.40280077
52	0xbe0a57a7	-0.13509999
53	0x3e0eda78	0.13950527
54	0x3e693722	0.22774938
55	0x3d7bcf49	0.06147698
56	0x3e8007b8	0.2500589
57	0xbd23251f	-0.039830323
58	0x3e22ae55	0.15886815
59	0x3d13c5cc	0.036077306
60	0xbe1aea5c	-0.15128464
61	0x3e573667	0.21016847
62	0x3e9f322d	0.3109297
63	0x3e305c45	0.17222698
64	0x3c05e0e9	0.008171299
65	0x3d7d796e	0.061883382
66	0x3e65a69d	0.22426839
67	0x3e963605	0.2933809
68	0x3f306e92	0.68918717
69	0x3e0e19d1	0.13877036
70	0x3d3f3b4a	0.0466874
71	0x3e2ace74	0.16680318
72	0x3f05b4b3	0.5222885
73	0xbe4b8240	-0.19873905
74	0x3ea5f533	0.32413635
75	0x3e9dc868	0.3081696
76	0xbcb41b2c	-0.021985613
77	0xbde11c30	-0.109917045
78	0xbe36fd35	-0.17870028
79	0xbdf4eab5	-0.11958829
80	0x3eca976f	0.3956866
81	0x3dad536f	0.08463179
82	0x3ca387e0	0.019962251
83	0x3ea177c5	0.3153669
84	0x3dae1508	0.08500105
85	0x3d9f38f0	0.07774532
86	0xbe90dd70	-0.28293943
87	0x3ea6c905	0.3257524
88	0x3f2e39c5	0.680569
89	0x3ecc8618	0.39946055
90	0x3db8a5b3	0.090159796
91	0x3d9ba8c6	0.0760055
92	0x3cbdff5e	0.023193058
93	0x3e19cad7	0.15018784
94	0x3f4373b2	0.7634841
95	0xbe194510	-0.14967752
96	0xbe48ee14	-0.1962207
97	0xbe50fa36	-0.20407948
98	0x3d01f80c	0.031730697
99	0xbd8b5815	-0.0680391
100	0xbb86f90d	-0.0041190446
101	0x3dfff325	0.12497548
102	0xbdcb6563	-0.09931447
103	0xbe42619f	-0.18982552
104	0xbde0c549	-0.10975129
105	0xbd4ea386	-0.050448917
106	0xbd4e2220	-0.050325513
107	0xbbf12389	-0.0073589724
108	0xbdf268e5	-0.11836413
109	0xbc998026	-0.018737864
110	0x3ddc6f47	0.10763412
111	0xbe83136f	-0.25600764
112	0x3d750082	0.059814937
113	0x3e00cc9a	0.1257805
114	0xbda15c0c	-0.07878885
115	0x3e35ccbe	0.17753884
116	0xbdc2ec4d	-0.09517727
117	0xbd4fd2a6	-0.050738
118	0x3e06f991	0.1318114
119	0x3dc59c2d	0.09648929
120	0x3deef1ac	0.11667189
121	0x3c11fba1	0.008910091
122	0x3e1a3de7	0.15062676
123	0xbd1dc1ab	-0.038514774
124	0xbe34b8cc	-0.1764862
125	0xbe272fb7	-0.16326796
126	0xbb6d174b	-0.0036177214
127	0xbc9e37d5	-0.019313732
128	0x3c3511cf	0.011051609
129	0x3d610bc3	0.054942857
130	0x3d93c99a	0.07216187
131	0x3d787b17	0.060664263
132	0xbd50ed60	-0.05100763
133	0x3d8e0dcf	0.069362275
134	0xbddc36f9	-0.10752673
135	0x3deb3e34	0.11486474
136	0xbd505419	-0.05086145
137	0xbdbe0dfe	-0.092800125
138	0x3e33bca9	0.17552437
139	0xbd9f4160	-0.07776141
140	0x3d1e3358	0.038623184
141	0x3e6e040e	0.23243734
142	0x3d42c484	0.047550693
143	0xbe020cb5	-0.1270016
144	0x3ddb068c	0.10694608
145	0x3ed93795	0.42425218
146	0xbd1b2d55	-0.03788503
147	0xbde339a8	-0.110949814
148	0x3e0efa4e	0.13962671
149	0xbcaa8952	-0.020817433
150	0xbe9ab695	-0.30217424
151	0x3e7400dd	0.23828454
152	0x3cbab375	0.02279065
153	0x3e94dacb	0.29073176
154	0xbe3044a7	-0.17213689
155	0x3db12b3d	0.08650825
156	0x3dbb3c7b	0.09142395
157	0x3df1fdea	0.118160084
158	0x3ddf62cf	0.10907518
159	0x3aa9e84e	0.0012962909
160	0xbded339e	-0.11582111
161	0xbd4e928f	-0.050432738
162	0x3dd92fae	0.10604797
163	0x3db4b9ad	0.08824477
164	0x3dc1ac0c	0.094566435
165	0xbd7f4e29	-0.0623304
166	0x3e829087	0.2550089
167	0xbdec76df	-0.1154611
168	0x3de8ebc6	0.11373095
169	0x3e116f0d	0.14202519
170	0x3ece3b3c	0.40279567
171	0x3e86338f	0.2621121
172	0xbc8a3d97	-0.016875071
173	0xbd05e63b	-0.032690268
174	0x3e86d73a	0.2633608
175	0x3ca55405	0.020181665
176	0x3e3c9c40	0.1841898
177	0xbeb1c125	-0.3471767
178	0xbc0b4eb5	-0.008502652
179	0xbda67b33	-0.08128967
180	0x3b48af9b	0.0030622247
181	0xbe761104	-0.24029928
182	0x3e6333ab	0.22187679
183	0x3e724bb9	0.23661698
184	0xbd07bcfa	-0.033139206
185	0x3cecf03a	0.028923143
186	0x3f2266a2	0.63437855
187	0x3c96b159	0.018395113
188	0x3e2dbef0	0.16967368
189	0x3e1cfe52	0.1533139
190	0xba1a1ba7	-0.00058787543
191	0x3e3a4d9f	0.18193673

preamp.model.lin.weight f4 [1, 48]
0	0xbe6e8017	-0.2329105
1	0xb9fc0d56	-0.00048075122
2	0x3e8daa6c	0.27669084
3	0x3d5568ed	0.05210202
4	0xbd7a5eee	-0.06112569
5	0x3d8277f9	0.06370539
6	0xbf5618ee	-0.8363179
7	0xbd8ea91a	-0.06965847
8	0x3c59d772	0.013295995
9	0x3e269404	0.16267401
10	0xbe559cc8	-0.20860589
11	0xbe55991b	-0.20859186
12	0xbd8fe69d	-0.07026408
13	0xbdffc38a	-0.12488468
14	0xbd905303	-0.07047083
15	0xbabe0110	-0.0014496166
16	0x3d2142c6	0.03937032
17	0xbeb164f3	-0.3464733
18	0x3e86c47e	0.26321787
19	0x3e02e453	0.12782411
20	0x3e39490e	0.18094274
21	0xbde5f5bf	-0.11228513
22	0x3cf3a48e	0.029741552
23	0x3cbdab57	0.02315299
24	0x3ac3c30b	0.0014935447
25	0xbd8bc54d	-0.068247415
26	0xbe7884df	-0.24269436
27	0x3b996a70	0.004681878
28	0x3e0080c0	0.12549114
29	0xbd678e48	-0.056532174
30	0x3d00e85f	0.031471606
31	0x3ef14d71	0.47129396
32	0x3df4cb31	0.11952818
33	0xbf361e7d	-0.7114027
34	0x3e72d6b7	0.2371472
35	0x3d98e7df	0.07466101
36	0xbe3fc957	-0.18729149
37	0x3dbd187d	0.092331864
38	0xbe2b2d7b	-0.16716568
39	0x3d80446a	0.06263049
40	0xbe11b90e	-0.14230749
41	0x3e6fc745	0.23415859
42	0xbe1941d9	-0.14966525
43	0x3b4df3ca	0.0031425827
44	0xbe1d7eb6	-0.15380368
45	0x3eb78d5a	0.3585003
46	0x3e06ef5d	0.13177247
47	0x3d021686	0.03175976

exp_avg f4 [192, 4]
0	0x3748c8e7	1.1967705e-05
1	0xb8185a6e	-3.6323843e-05
2	0xb8185a6e	-3.6323843e-05
3	0xb8185a6e	-3.6323843e-05
4	0x377ca75b	1.5059336e-05
5	0xb880d3e1	-6.142981e-05
6	0xb880d3e1	-6.142981e-05
7	0xb880d3e1	-6.142981e-05
8	0xb6a4280a	-4.892242e-06
9	0x38a89a33	8.039586e-05
10	0x38a89a33	8.039586e-05
11	0x38a89a33	8.039586e-05
12	0xb93dfb79	-0.00018118125
13	0xba87b1a7	-0.0010352627
14	0xba87b1a7	-0.0010352627
15	0xba87b1a7	-0.0010352627
16	0x37822f64	1.5519276e-05
17	0x389cef14	7.4831914e-05
18	0x389cef14	7.4831914e-05
19	0x389cef14	7.4831914e-05
20	0xb7803240	-1.5282189e-05
21	0xbac931b0	-0.0015349891
22	0xbac931b0	-0.0015349891
23	0xbac931b0	-0.0015349891
24	0x3689289c	4.0876457e-06
25	0x3a15b44a	0.0005710764
26	0x3a15b44a	0.0005710764
27	0x3a15b44a	0.0005710764
28	0xb7124e87	-8.720562e-06
29	0xb835ccd7	-4.3344535e-05
30	0xb835ccd7	-4.3344535e-05
31	0xb835ccd7	-4.3344535e-05
32	0x32a6ea7c	1.9431575e-08
33	0x3b014a1f	0.0019728018
34	0x3b014a1f	0.0019728018
35	0x3b014a1f	0.0019728018
36	0x36939945	4.3987843e-06
37	0x378e77fe	1.6983595e-05
38	0x378e77fe	1.6983595e-05
39	0x378e77fe	1.6983595e-05
40	0xb4c2dd96	-3.629654e-07
41	0xb997208f	-0.00028825222
42	0xb997208f	-0.00028825222
43	0xb997208f	-0.00028825222
44	0x37c347f6	2.327932e-05
45	0x37fe6a22	3.0328581e-05
46	0x37fe6a22	3.0328581e-05
47	0x37fe6a22	3.0328581e-05
48	0xb6b4cd0c	-5.3882886e-06
49	0x39a9b863	0.0003237157
50	0x39a9b863	0.0003237157
51	0x39a9b863	0.0003237157
52	0xb78cfc82	-1.6806884e-05
53	0x39b4c7a4	0.0003448102
54	0x39b4c7a4	0.0003448102
55	0x39b4c7a4	0.0003448102
56	0xb62862e1	-2.5091506e-06
57	0xb589797a	-1.024265e-06
58	0xb589797a	-1.024265e-06
59	0xb589797a	-1.024265e-06
60	0xb6b3e09c	-5.3607637e-06
61	0xb7f7f8b7	-2.9560511e-05
62	0xb7f7f8b7	-2.9560511e-05
63	0xb7f7f8b7	-2.9560511e-05
64	0xb8c581ef	-9.417894e-05
65	0xb9d073b4	-0.00039759057
66	0xb9d073b4	-0.00039759057
67	0xb9d073b4	-0.00039759057
68	0x392b6333	0.00016344785
69	0x3ad0b5c6	0.0015923313
70	0x3ad0b5c6	0.0015923313
71	0x3ad0b5c6	0.0015923313
72	0xb8aa4310	-8.118723e-05
73	0x39153b89	0.00014231926
74	0x39153b89	0.00014231926
75	0x39153b89	0.00014231926
76	0xb72ef8f7	-1.0429175e-05
77	0x3b83cf08	0.004022483
78	0x3b83cf08	0.004022483
79	0x3b83cf08	0.004022483
80	0x398fcd1a	0.00027427898
81	0x3b940921	0.00451769
82	0x3b940921	0.00451769
83	0x3b940921	0.00451769
84	0xb84ee10c	-4.932382e-05
85	0x3814320d	3.5332563e-05
86	0x3814320d	3.5332563e-05
87	0x3814320d	3.5332563e-05
88	0x35df6750	1.6644863e-06
89	0xb57526a4	-9.132584e-07
90	0xb57526a4	-9.132584e-07
91	0xb57526a4	-9.132584e-07
92	0x3784d9ef	1.583711e-05
93	0xb8a3a279	-7.8027086e-05
94	0xb8a3a279	-7.8027086e-05
95	0xb8a3a279	-7.8027086e-05
96	0xb8b079f7	-8.415052e-05
97	0x3a2e2957	0.00066437334
98	0x3a2e2957	0.00066437334
99	0x3a2e2957	0.00066437334
100	0xb3a126e0	-7.504218e-08
101	0x3a081013	0.00051903835
102	0x3a081013	0.00051903835
103	0x3a081013	0.00051903835
104	0xb60e5165	-2.1207027e-06
105	0xb93f2558	-0.00018229091
106	0xb93f2558	-0.00018229091
107	0xb93f2558	-0.00018229091
108	0x38f12b4a	0.00011499839
109	0x3abcbf48	0.0014400268
110	0x3abcbf48	0.0014400268
111	0x3abcbf48	0.0014400268
112	0xb69ecbf3	-4.7325098e-06
113	0x39d89d6a	0.00041316013
114	0x39d89d6a	0.00041316013
115	0x39d89d6a	0.00041316013
116	0xb7c7db16	-2.3824668e-05
117	0xb92c7878	-0.00016448076
118	0xb92c7878	-0.00016448076
119	0xb92c7878	-0.00016448076
120	0x362af514	2.5474628e-06
121	0xb8461c85	-4.723344e-05
122	0xb8461c85	-4.723344e-05
123	0xb8461c85	-4.723344e-05
124	0x3610e79f	2.1592493e-06
125	0x38d88d28	0.00010325975
126	0x38d88d28	0.00010325975
127	0x38d88d28	0.00010325975
128	0xb7c9d593	-2.406052e-05
129	0x3a0f5d25	0.00054688967
130	0x3a0f5d25	0.00054688967
131	0x3a0f5d25	0.00054688967
132	0x37081193	8.1103235e-06
133	0xb74cff9d	-1.2218862e-05
134	0xb74cff9d	-1.2218862e-05
135	0xb74cff9d	-1.2218862e-05
136	0xb72d1a48	-1.0317723e-05
137	0xba6b960b	-0.0008986897
138	0xba6b960b	-0.0008986897
139	0xba6b960b	-0.0008986897
140	0x3897034b	7.2008545e-05
141	0x3b369486	0.0027859523
142	0x3b369486	0.0027859523
143	0x3b369486	0.0027859523
144	0x37ecff59	2.8252298e-05
145	0x3a317f17	0.0006770952
146	0x3a317f17	0.0006770952
147	0x3a317f17	0.0006770952
148	0xb7c329d1	-2.3265284e-05
149	0xba5575b3	-0.0008142844
150	0xba5575b3	-0.0008142844
151	0xba5575b3	-0.0008142844
152	0xb6c9f0f5	-6.018318e-06
153	0xb9e11ee8	-0.0004293837
154	0xb9e11ee8	-0.0004293837
155	0xb9e11ee8	-0.0004293837
156	0xb8961f25	-7.1583585e-05
157	0x3a90d980	0.0011051148
158	0x3a90d980	0.0011051148
159	0x3a90d980	0.0011051148
160	0xb914a79c	-0.00014176819
161	0xbb2d07a6	-0.0026402264
162	0xbb2d07a6	-0.0026402264
163	0xbb2d07a6	-0.0026402264
164	0x39aaee2b	0.00032602376
165	0x3a48fe73	0.00076673104
166	0x3a48fe73	0.00076673104
167	0x3a48fe73	0.00076673104
168	0x36739b8a	3.6300357e-06
169	0xb75a2a4a	-1.3003659e-05
170	0xb75a2a4a	-1.3003659e-05
171	0xb75a2a4a	-1.3003659e-05
172	0xb81bcd40	-3.7146034e-05
173	0x3903eb20	0.00012580724
174	0x3903eb20	0.00012580724
175	0x3903eb20	0.00012580724
176	0xb8069b22	-3.209257e-05
177	0x3a31e992	0.0006786819
178	0x3a31e992	0.0006786819
179	0x3a31e992	0.0006786819
180	0x37b795f3	2.1885126e-05
181	0x3a733516	0.0009277625
182	0x3a733516	0.0009277625
183	0x3a733516	0.0009277625
184	0xb7f23c4b	-2.8876724e-05
185	0x3b85c0fc	0.0040818434
186	0x3b85c0fc	0.0040818434
187	0x3b85c0fc	0.0040818434
188	0xb7054f41	-7.9458705e-06
189	0xb9114871	-0.00013855264
190	0xb9114871	-0.00013855264
191	0xb9114871	-0.00013855264
192	0xb7588c48	-1.2907265e-05
193	0x36f0dbd4	7.1781487e-06
194	0x36f0dbd4	7.1781487e-06
195	0x36f0dbd4	7.1781487e-06
196	0x37bcfe57	2.2529783e-05
197	0xb91fd9df	-0.00015244585
198	0xb91fd9df	-0.00015244585
199	0xb91fd9df	-0.00015244585
200	0xb7519d3a	-1.2493978e-05
201	0x39ba6b55	0.00035556653
202	0x39ba6b55	0.00035556653
203	0x39ba6b55	0.00035556653
204	0xb94d2e87	-0.00019567656
205	0xba9744be	-0.0011540873
206	0xba9744be	-0.0011540873
207	0xba9744be	-0.0011540873
208	0x384cf257	4.8863087e-05
209	0x39e3bb6f	0.00043436463
210	0x39e3bb6f	0.00043436463
211	0x39e3bb6f	0.00043436463
212	0xb7c672dc	-2.3656925e-05
213	0xbaefc6bc	-0.001829348
214	0xbaefc6bc	-0.001829348
215	0xbaefc6bc	-0.001829348
216	0xb89355a9	-7.025462e-05
217	0x39cc8694	0.0003901018
218	0x39cc8694	0.0003901018
219	0x39cc8694	0.0003901018
220	0xb793548c	-1.7563136e-05
221	0xb971a8f5	-0.00023046492
222	0xb971a8f5	-0.00023046492
223	0xb971a8f5	-0.00023046492
224	0x3759ba4f	1.2977586e-05
225	0x3b06f044	0.0020589987
226	0x3b06f044	0.0020589987
227	0x3b06f044	0.0020589987
228	0xb7fdb533	-3.0244328e-05
229	0x39047698	0.0001263268
230	0x39047698	0.0001263268
231	0x39047698	0.0001263268
232	0x370482ee	7.898298e-06
233	0xba1e25bd	-0.0006032845
234	0xba1e25bd	-0.0006032845
235	0xba1e25bd	-0.0006032845
236	0x38057f8b	3.1828455e-05
237	0xb8abcbdf	-8.191889e-05
238	0xb8abcbdf	-8.191889e-05
239	0xb8abcbdf	-8.191889e-05
240	0xb7267adf	-9.922979e-06
241	0x39b7e41d	0.00035074438
242	0x39b7e41d	0.00035074438
243	0x39b7e41d	0.00035074438
244	0xb8115ec5	-3.4658955e-05
245	0x3a0d5b95	0.000539237
246	0x3a0d5b95	0.000539237
247	0x3a0d5b95	0.000539237
248	0xb61505a1	-2.2206007e-06
249	0xb5da3936	-1.6258916e-06
250	0xb5da3936	-1.6258916e-06
251	0xb5da3936	-1.6258916e-06
252	0xb61e4305	-2.3582845e-06
253	0xb74f8a68	-1.2370387e-05
254	0xb74f8a68	-1.2370387e-05
255	0xb74f8a68	-1.2370387e-05

exp_avg_sq f4 [192, 4]
0	0x32e9413b	2.7154433e-08
1	0x3591f394	1.0874232e-06
2	0x3591f394	1.0874232e-06
3	0x3591f394	1.0874232e-06
4	0x324093ba	1.120946e-08
5	0x343e2c52	1.7711253e-07
6	0x343e2c52	1.7711253e-07
7	0x343e2c52	1.7711253e-07
8	0x316e1ab1	3.464873e-09
9	0x34d56b52	3.9752427e-07
10	0x34d56b52	3.9752427e-07
11	0x34d56b52	3.9752427e-07
12	0x343f1426	1.7795591e-07
13	0x36f53a4c	7.3083556e-06
14	0x36f53a4c	7.3083556e-06
15	0x36f53a4c	7.3083556e-06
16	0x30ba9e0e	1.3578203e-09
17	0x33a691e1	7.7565126e-08
18	0x33a691e1	7.7565126e-08
19	0x33a691e1	7.7565126e-08
20	0x3452625a	1.9593554e-07
21	0x384e2170	4.914537e-05
22	0x384e2170	4.914537e-05
23	0x384e2170	4.914537e-05
24	0x30cbf8e2	1.4840931e-09
25	0x35a49279	1.2261581e-06
26	0x35a49279	1.2261581e-06
27	0x35a49279	1.2261581e-06
28	0x3418d69e	1.423418e-07
29	0x36c144f2	5.7598745e-06
30	0x36c144f2	5.7598745e-06
31	0x36c144f2	5.7598745e-06
32	0x3569b1af	8.705783e-07
33	0x391756f6	0.00014432878
34	0x391756f6	0.00014432878
35	0x391756f6	0.00014432878
36	0x2ee355c7	1.0338002e-10
37	0x30d7b15a	1.5693715e-09
38	0x30d7b15a	1.5693715e-09
39	0x30d7b15a	1.5693715e-09
40	0x32328562	1.0391291e-08
41	0x367a34b2	3.7283576e-06
42	0x367a34b2	3.7283576e-06
43	0x367a34b2	3.7283576e-06
44	0x33bd94e2	8.82808e-08
45	0x36b46a0b	5.376763e-06
46	0x36b46a0b	5.376763e-06
47	0x36b46a0b	5.376763e-06
48	0x3146d59e	2.893422e-09
49	0x361ed0a8	2.3665289e-06
50	0x361ed0a8	2.3665289e-06
51	0x361ed0a8	2.3665289e-06
52	0x3158fd7d	3.1576228e-09
53	0x355fa981	8.3320634e-07
54	0x355fa981	8.3320634e-07
55	0x355fa981	8.3320634e-07
56	0x2ff28eee	4.41211e-10
57	0x2e9078d2	6.569824e-11
58	0x2e9078d2	6.569824e-11
59	0x2e9078d2	6.569824e-11
60	0x30b316b1	1.3030413e-09
61	0x3408cca2	1.2740432e-07
62	0x3408cca2	1.2740432e-07
63	0x3408cca2	1.2740432e-07
64	0x3336628e	4.2464812e-08
65	0x35a11cbf	1.2003801e-06
66	0x35a11cbf	1.2003801e-06
67	0x35a11cbf	1.2003801e-06
68	0x358325da	9.771277e-07
69	0x388d9ce1	6.752625e-05
70	0x388d9ce1	6.752625e-05
71	0x388d9ce1	6.752625e-05
72	0x34834f49	2.445834e-07
73	0x3719819f	9.14969e-06
74	0x3719819f	9.14969e-06
75	0x3719819f	9.14969e-06
76	0x36578afe	3.21184e-06
77	0x39a2aa5e	0.0003102598
78	0x39a2aa5e	0.0003102598
79	0x39a2aa5e	0.0003102598
80	0x35af9577	1.3082016e-06
81	0x39e92b31	0.00044473403
82	0x39e92b31	0.00044473403
83	0x39e92b31	0.00044473403
84	0x325cce4a	1.285259e-08
85	0x3593b9bb	1.1006408e-06
86	0x3593b9bb	1.1006408e-06
87	0x3593b9bb	1.1006408e-06
88	0x2ed0bcdb	9.4922924e-11
89	0x318bb541	4.0660386e-09
90	0x318bb541	4.0660386e-09
91	0x318bb541	4.0660386e-09
92	0x31caa91f	5.8982006e-09
93	0x3509a9f8	5.1283814e-07
94	0x3509a9f8	5.1283814e-07
95	0x3509a9f8	5.1283814e-07
96	0x346aaaa0	2.1855021e-07
97	0x378413a9	1.5744781e-05
98	0x378413a9	1.5744781e-05
99	0x378413a9	1.5744781e-05
100	0x321578ab	8.700378e-09
101	0x35a80ae8	1.252015e-06
102	0x35a80ae8	1.252015e-06
103	0x35a80ae8	1.252015e-06
104	0x31b8c7a5	5.3778018e-09
105	0x3516f091	5.6229425e-07
106	0x3516f091	5.6229425e-07
107	0x3516f091	5.6229425e-07
108	0x34230d03	1.5185292e-07
109	0x36f66820	7.343493e-06
110	0x36f66820	7.343493e-06
111	0x36f66820	7.343493e-06
112	0x33866cc0	6.259643e-08
113	0x36acd817	5.1511556e-06
114	0x36acd817	5.1511556e-06
115	0x36acd817	5.1511556e-06
116	0x3329422b	3.9408558e-08
117	0x36070e70	2.0124971e-06
118	0x36070e70	2.0124971e-06
119	0x36070e70	2.0124971e-06
120	0x3185a8d2	3.890002e-09
121	0x34de18e4	4.1368833e-07
122	0x34de18e4	4.1368833e-07
123	0x34de18e4	4.1368833e-07
124	0x2f1d7f83	1.4324368e-10
125	0x341448ba	1.3810032e-07
126	0x341448ba	1.3810032e-07
127	0x341448ba	1.3810032e-07
128	0x334f0ee2	4.820948e-08
129	0x361fbdc5	2.3803307e-06
130	0x361fbdc5	2.3803307e-06
131	0x361fbdc5	2.3803307e-06
132	0x328e96cd	1.6599552e-08
133	0x362ff022	2.6216808e-06
134	0x362ff022	2.6216808e-06
135	0x362ff022	2.6216808e-06
136	0x3443363a	1.8180518e-07
137	0x36b7fd52	5.4833154e-06
138	0x36b7fd52	5.4833154e-06
139	0x36b7fd52	5.4833154e-06
140	0x34837491	2.4485465e-07
141	0x382c32bd	4.105525e-05
142	0x382c32bd	4.105525e-05
143	0x382c32bd	4.105525e-05
144	0x330ecc48	3.3247744e-08
145	0x36dfd0fb	6.6702464e-06
146	0x36dfd0fb	6.6702464e-06
147	0x36dfd0fb	6.6702464e-06
148	0x333605c8	4.2380435e-08
149	0x37a20fb7	1.9319223e-05
150	0x37a20fb7	1.9319223e-05
151	0x37a20fb7	1.9319223e-05
152	0x33cafcb9	9.452328e-08
153	0x3671e1eb	3.60433e-06
154	0x3671e1eb	3.60433e-06
155	0x3671e1eb	3.60433e-06
156	0x34d0af5d	3.8870613e-07
157	0x380a0cad	3.291357e-05
158	0x380a0cad	3.291357e-05
159	0x380a0cad	3.291357e-05
160	0x351ef2e5	5.9213045e-07
161	0x38face48	0.00011959352
162	0x38face48	0.00011959352
163	0x38face48	0.00011959352
164	0x35bbd8ab	1.3995644e-06
165	0x381acf44	3.6909492e-05
166	0x381acf44	3.6909492e-05
167	0x381acf44	3.6909492e-05
168	0x2fb91840	3.3668535e-10
169	0x3202eb01	7.62043e-09
170	0x3202eb01	7.62043e-09
171	0x3202eb01	7.62043e-09
172	0x340cc18a	1.3108925e-07
173	0x36f9bde2	7.4428835e-06
174	0x36f9bde2	7.4428835e-06
175	0x36f9bde2	7.4428835e-06
176	0x32a20ff0	1.886653e-08
177	0x36448b74	2.9287448e-06
178	0x36448b74	2.9287448e-06
179	0x36448b74	2.9287448e-06
180	0x33a71c5f	7.781704e-08
181	0x366a38a9	3.4901698e-06
182	0x366a38a9	3.4901698e-06
183	0x366a38a9	3.4901698e-06
184	0x35261106	6.186459e-07
185	0x389d5cc7	7.5036245e-05
186	0x389d5cc7	7.5036245e-05
187	0x389d5cc7	7.5036245e-05
188	0x31763c8f	3.5832135e-09
189	0x355fac37	8.332458e-07
190	0x355fac37	8.332458e-07
191	0x355fac37	8.332458e-07
192	0x332292e5	3.7852164e-08
193	0x356d9ab5	8.851451e-07
194	0x356d9ab5	8.851451e-07
195	0x356d9ab5	8.851451e-07
196	0x32e2dbb6	2.6409776e-08
197	0x360f1796	2.132239e-06
198	0x360f1796	2.132239e-06
199	0x360f1796	2.132239e-06
200	0x3332199f	4.1467157e-08
201	0x36eddc22	7.0887772e-06
202	0x36eddc22	7.0887772e-06
203	0x36eddc22	7.0887772e-06
204	0x346217b0	2.1056508e-07
205	0x370ea111	8.501361e-06
206	0x370ea111	8.501361e-06
207	0x370ea111	8.501361e-06
208	0x329e1dd4	1.8407185e-08
209	0x3628b454	2.5138916e-06
210	0x3628b454	2.5138916e-06
211	0x3628b454	2.5138916e-06
212	0x344c641d	1.9035402e-07
213	0x387cde8b	6.028874e-05
214	0x387cde8b	6.028874e-05
215	0x387cde8b	6.028874e-05
216	0x329aa4ce	1.8002904e-08
217	0x371821c6	9.0677695e-06
218	0x371821c6	9.0677695e-06
219	0x371821c6	9.0677695e-06
220	0x34903a2e	2.6864421e-07
221	0x3787203e	1.6108268e-05
222	0x3787203e	1.6108268e-05
223	0x3787203e	1.6108268e-05
224	0x351a4f90	5.748525e-07
225	0x38f2c6cc	0.00011576488
226	0x38f2c6cc	0.00011576488
227	0x38f2c6cc	0.00011576488
228	0x3204ba98	7.725838e-09
229	0x3593bfef	1.1008214e-06
230	0x3593bfef	1.1008214e-06
231	0x3593bfef	1.1008214e-06
232	0x32c52a9f	2.29532e-08
233	0x372f4f1a	1.044923e-05
234	0x372f4f1a	1.044923e-05
235	0x372f4f1a	1.044923e-05
236	0x342abcf5	1.5901226e-07
237	0x36d13d1d	6.2358e-06
238	0x36d13d1d	6.2358e-06
239	0x36d13d1d	6.2358e-06
240	0x311e918c	2.307476e-09
241	0x35ff7af1	1.9034761e-06
242	0x35ff7af1	1.9034761e-06
243	0x35ff7af1	1.9034761e-06
244	0x3241d405	1.1282286e-08
245	0x363339be	2.670669e-06
246	0x363339be	2.670669e-06
247	0x363339be	2.670669e-06
248	0x31030695	1.906675e-09
249	0x2f910931	2.6381877e-10
250	0x2f910931	2.6381877e-10
251	0x2f910931	2.6381877e-10
252	0x31468447	2.8887983e-09
253	0x34a2d146	3.0327118e-07
254	0x34a2d146	3.0327118e-07
255	0x34a2d146	3.0327118e-07

exp_avg f4 [192, 48]
0	0xb7b7781d	-2.1871232e-05
1	0xb8531fba	-5.0335868e-05
2	0x37963316	1.7905182e-05
3	0xb7308793	-1.0521983e-05
4	0x38d50a24	0.0001015852
5	0xb6e39c93	-6.783355e-06
6	0x397c6575	0.00024070388
7	0x37502b42	1.2407838e-05
8	0xb86024ae	-5.3439922e-05
9	0xb7a812b0	-2.0035863e-05
10	0x38b7e71e	8.769169e-05
11	0x379510dd	1.7770037e-05
12	0xb82ed754	-4.1685373e-05
13	0x38238d9e	3.899412e-05
14	0xb799dc5c	-1.8341634e-05
15	0x385631bf	5.1067906e-05
16	0xb7b5708d	-2.1629292e-05
17	0x3800429f	3.0579624e-05
18	0x36c56753	5.883086e-06
19	0xb886dd6f	-6.430863e-05
20	0xb8516808	-4.992637e-05
21	0xb62ec750	-2.6044036e-06
22	0x3852b9d8	5.0240982e-05
23	0xb7b1d116	-2.1197407e-05
24	0xb819eeec	-3.6700556e-05
25	0x36b73ed2	5.4611382e-06
26	0x37f6b3c7	2.94092e-05
27	0xb8a2b2e1	-7.758081e-05
28	0x3779765e	1.4869116e-05
29	0x37231dfa	9.722537e-06
30	0xb83b0733	-4.459098e-05
31	0x3965c96f	0.00021914182
32	0xb819fbd1	-3.6712565e-05
33	0x37259030	9.868338e-06
34	0x380dc0c3	3.3796543e-05
35	0x3504462f	4.927596e-07
36	0x38e663ac	0.0001098582
37	0xb7980cfc	-1.8125858e-05
38	0x3847c035	4.7624304e-05
39	0xb7ee6df1	-2.8423006e-05
40	0x367ca3de	3.764631e-06
41	0x3809a27b	3.2814667e-05
42	0x3774794b	1.4571774e-05
43	0xb81759e0	-3.6084908e-05
44	0x389e134f	7.5376236e-05
45	0xb8c754f8	-9.504886e-05
46	0xb7d0ba3d	-2.4882256e-05
47	0xb85bdb7a	-5.2418072e-05
48	0xb6b11869	-5.277853e-06
49	0x37351ec4	1.0795604e-05
50	0x3775f999	1.4661252e-05
51	0x3869eb21	5.577051e-05
52	0x389680bd	7.176537e-05
53	0xb6246333	-2.4495646e-06
54	0x38c0c5a6	9.192088e-05
55	0x38664e86	5.4909404e-05
56	0xb8294646	-4.0358187e-05
57	0xb761082f	-1.34129505e-05
58	0x36732a66	3.62345e-06
59	0x379b5ec9	1.8521578e-05
60	0xb8589129	-5.1633604e-05
61	0x37d3e155	2.5258088e-05
62	0xb84a4eb5	-4.8233855e-05
63	0x38306200	4.205294e-05
64	0xb582aacd	-9.735464e-07
65	0x382fc150	4.1903288e-05
66	0x381649c3	3.5831483e-05
67	0xb81d8132	-3.755204e-05
68	0xb83b57a2	-4.466589e-05
69	0xb587b9c9	-1.0112354e-06
70	0x380e0bcf	3.3866436e-05
71	0xb74bbb41	-1.2143341e-05
72	0xb7afa9e1	-2.0940732e-05
73	0xb705eedb	-7.983031e-06
74	0x363867fb	2.7478661e-06
75	0xb8004e82	-3.0590694e-05
76	0x37ae800d	2.0802045e-05
77	0x380caebb	3.354133e-05
78	0xb8566f27	-5.1125095e-05
79	0x388ee2a0	6.8133e-05
80	0xb78dfbbe	-1.6925736e-05
81	0xb8432462	-4.6525507e-05
82	0x379a9586	1.8427858e-05
83	0xb815c7d6	-3.571048e-05
84	0x386d74ba	5.6613913e-05
85	0xb6f080e6	-7.167563e-06
86	0x370afe06	8.284585e-06
87	0x351fd084	5.9535546e-07
88	0xb822b6ec	-3.879417e-05
89	0xb7ef63cf	-2.8537497e-05
90	0xb83d4540	-4.5125606e-05
91	0x37cffe66	2.4794786e-05
92	0x386875b4	5.542273e-05
93	0xb84a6c61	-4.826149e-05
94	0x37d89fa1	2.582354e-05
95	0xb7ca0e9c	-2.408708e-05
96	0x3695cf63	4.464689e-06
97	0xb7daf637	-2.6102278e-05
98	0xb781a128	-1.5453043e-05
99	0xb7c6cfaf	-2.370015e-05
100	0x3826d5e8	3.97767e-05
101	0x37db4f68	2.614381e-05
102	0x388892a0	6.5122964e-05
103	0xb81824dd	-3.6273956e-05
104	0x37e1a2ad	2.6897842e-05
105	0xb78af970	-1.6567035e-05
106	0xb6f2c2ea	-7.234853e-06
107	0xb6fc58d5	-7.5205267e-06
108	0x378419d9	1.5747662e-05
109	0xb5b9ea49	-1.385176e-06
110	0x3816cdde	3.5954516e-05
111	0xb769569a	-1.3908046e-05
112	0xb5aebc74	-1.3018857e-06
113	0xb78674e5	-1.6028478e-05
114	0xb7bef685	-2.276456e-05
115	0x37adf772	2.0738433e-05
116	0x3856a938	5.1179173e-05
117	0xb75662c8	-1.2778393e-05
118	0x382ced76	4.122915e-05
119	0x368cf970	4.2013635e-06
120	0x3708cf83	8.154547e-06
121	0x38505da4	4.9678274e-05
122	0xb7567c9d	-1.2784408e-05
123	0xb7d8f4d9	-2.5863223e-05
124	0xb69f2e93	-4.743991e-06
125	0x37f45c13	2.9129942e-05
126	0xb798d0bc	-1.8217012e-05
127	0xb6f3fee5	-7.271638e-06
128	0x37e402de	2.7181053e-05
129	0x36d12293	6.2327103e-06
130	0x371bab92	9.278667e-06
131	0x38231366	3.8880295e-05
132	0xb72ce580	-1.03054335e-05
133	0x354dfb50	7.673416e-07
134	0x37f30902	2.8972052e-05
135	0x37d177b0	2.4970475e-05
136	0x380eb437	3.4023276e-05
137	0x381763c8	3.6094134e-05
138	0xb7b9e110	-2.2158521e-05
139	0xb7e17a88	-2.6879148e-05
140	0xb804c78a	-3.1657088e-05
141	0x36181025	2.2659162e-06
142	0xb636d492	-2.7243846e-06
143	0xb7c9ef81	-2.4072595e-05
144	0xb8dc8db4	-0.00010516812
145	0x39588030	0.00020647119
146	0xb905f0cc	-0.00012773572
147	0x3a4402c4	0.0007477219
148	0x3a1e4db1	0.00060387986
149	0xba4026d6	-0.0007330006
150	0x3a03c1e1	0.00050261436
151	0x3aa6eaf8	0.0012734821
152	0xb82dacbd	-4.140729e-05
153	0xb8cf260d	-9.877617e-05
154	0x39b0efa0	0.0003374787
155	0xb91f7a0b	-0.00015208886
156	0xba14443c	-0.00056559197
157	0x370b9839	8.320488e-06
158	0xba95b34a	-0.001142123
159	0x3a3de9e0	0.0007244628
160	0x39155fe1	0.00014245465
161	0x38c11ca4	9.208292e-05
162	0x3a82ba08	0.0009973655
163	0xba0464cb	-0.000505042
164	0xba02be6a	-0.00049874804
165	0xb94fd5ba	-0.00019820678
166	0xb9f6ea0b	-0.00047095152
167	0xb8e37b33	-0.00010847151
168	0xba132977	-0.0005613784
169	0xba03b46a	-0.0005024137
170	0x37f43ccc	2.9115377e-05
171	0xba110828	-0.00055325264
172	0x39a46e10	0.0003136252
173	0x3906d7a7	0.00012859573
174	0xb961ea3c	-0.00021544931
175	0x3773715d	1.4510323e-05
176	0xb9deb2f1	-0.0004247646
177	0xb99f5914	-0.00030393212
178	0xb82b76a8	-4.0880084e-05
179	0xba078c26	-0.0005170725
180	0x3a36f158	0.0006978712
181	0xb88050db	-6.118576e-05
182	0x394726fb	0.0001899264
183	0xb8a69f45	-7.945163e-05
184	0xba02d221	-0.0004990418
185	0xb983ebac	-0.00025161856
186	0xba3a6404	-0.00071102404
187	0x3a69aed5	0.00089142966
188	0x3a83772e	0.0010030025
189	0xba08724c	-0.000520502
190	0x3903a0c5	0.00012553025
191	0xb842069d	-4.6259363e-05
192	0x380947d3	3.2730237e-05
193	0xb6ceeffe	-6.167217e-06
194	0x355ecfef	8.300403e-07
195	0x38132f21	3.5091423e-05
196	0x3881e06d	6.193002e-05
197	0x36a87926	5.0208937e-06
198	0xb5e2ba97	-1.6892617e-06
199	0x37d069d2	2.4844809e-05
200	0x366b4d71	3.5062806e-06
201	0xb5cba188	-1.517169e-06
202	0xb5d7ec15	-1.6087457e-06
203	0xb6121a78	-2.1771102e-06
204	0x37a1e1da	1.9297866e-05
205	0x38096879	3.2760643e-05
206	0xb6b04a37	-5.2538485e-06
207	0x37b8c047	2.2024045e-05
208	0x373e4da9	1.1342964e-05
209	0x36cce3c0	6.1061874e-06
210	0xb64f0732	-3.0849592e-06
211	0x36526134	3.1349018e-06
212	0x36441a3e	2.922155e-06
213	0xb661fe42	-3.367561e-06
214	0x37d669eb	2.556011e-05
215	0xb6864a3a	-4.0021523e-06
216	0xb78246ca	-1.5530171e-05
217	0xb7357e3d	-1.0817833e-05
218	0xb768bb02	-1.3871819e-05
219	0xb62487e9	-2.4517014e-06
220	0x3714d14b	8.870217e-06
221	0x36a1711f	4.811343e-06
222	0xb7aac597	-2.035759e-05
223	0x36ef8b22	7.1389522e-06
224	0x366d607d	3.5371916e-06
225	0xb7f51cc3	-2.921967e-05
226	0x374e77b5	1.2306428e-05
227	0xb73c7852	-1.12336875e-05
228	0xb687ad82	-4.0435125e-06
229	0x35e79b74	1.7256084e-06
230	0x37a1e9ab	1.9301506e-05
231	0x37affd6a	2.097963e-05
232	0x373f4dda	1.1402613e-05
233	0xb7611a02	-1.34171005e-05
234	0xb836a6b8	-4.354745e-05
235	0x375ba81b	1.3092557e-05
236	0x37c221e0	2.3142376e-05
237	0xb7523594	-1.252945e-05
238	0x38122053	3.4839217e-05
239	0x37b611ae	2.1704323e-05
240	0xb730d8cc	-1.0540894e-05
241	0x39a069aa	0.00030596304
242	0x396a7bc8	0.00022362091
243	0x3a85c550	0.0010205898
244	0x35b070da	1.3145866e-06
245	0xba80a5b5	-0.000981501
246	0xba3bc271	-0.0007162458
247	0x3acb1f85	0.0015497064
248	0xb9c61706	-0.00037782657
249	0xb820a078	-3.829642e-05
250	0x39e727e2	0.00044089468
251	0xb8dd4d3d	-0.00010552488
252	0xb9edb7dc	-0.00045341149
253	0x399400e1	0.00028229415
254	0xbac00c80	-0.0014652163
255	0x3a525e73	0.0008024938
