python/logs/tensorboard/amp_model/15_targets_LSTM48_rnn_only/epoch=37-step=41040.ckpt (torch, 147392 bytes, 15 tensors)

preamp.model.rec.weight_ih_l0 f4 [192, 4]
000000 9c f9 29 bf 11 c7 5e be 1d a3 ab be 46 d6 ca be
       -0.663965 -0.21755625 -0.33522883 -0.39616603
000010 e9 82 87 3f 79 55 ad be e9 8e c3 be 15 89 d0 be
       1.0586826 -0.33854273 -0.3819497 -0.40729585
000020 81 16 30 3e 48 da 16 3f e3 16 04 3f 7b eb 28 3f
       0.17196085 0.5892682 0.5159742 0.65984315
000030 22 62 8b 3f 8e 93 e0 3b 22 1b 8d be 18 2f ee bd
       1.0889323 0.0068535274 -0.27559763 -0.11630076
000040 ea c3 08 bf b7 b3 b6 be 73 f1 9f bc ab ac 21 bf
       -0.5342394 -0.35683987 -0.019524312 -0.63154095
000050 a2 34 2a 3f 93 4c 02 bf 91 47 db be b7 b4 c3 be
       0.6648656 -0.50898093 -0.42828038 -0.38223812
000060 be e2 90 3e 57 3e f0 bd 29 53 37 be 90 79 75 be
       0.2829799 -0.117306404 -0.17902817 -0.23972154
000070 fa cc 0b bf 26 0a a2 be e3 3b 88 be 6d 9e ab be
       -0.54609644 -0.31648368 -0.2660819 -0.33519307
000080 0a 1e 41 bf eb 5d 0d be 2e 2a 9d be f9 ea 91 be
       -0.7543646 -0.13805358 -0.30696243 -0.28499582
000090 07 35 e2 bd 3c 5a d2 bd c9 5f 6f bd 34 df 3e be
       -0.110452704 -0.10271117 -0.058440957 -0.18639833
0000a0 14 73 4f be 8d 17 12 bf 4a c5 24 bf 82 a9 f2 be
       -0.20258743 -0.57067186 -0.6436354 -0.4739495
0000b0 29 cc 98 bb d0 ee db be b1 9c b5 3b 06 21 c3 3e
       -0.0046630097 -0.42955637 0.0055423607 0.38111132
0000c0 03 6d d9 be 16 45 ba be c8 b2 b5 be 65 5b b3 be
       -0.42465982 -0.36380833 -0.35487962 -0.35030666
0000d0 f2 f9 43 bf c8 bf 93 3e 15 43 65 3e 15 c6 ee 3d
       -0.7655326 0.28857255 0.22388871 0.11658875
0000e0 5e ac d2 bd e7 9d 0d 3e 5f 1c 78 3e d3 c8 84 3e
       -0.10286783 0.13829766 0.24229573 0.25934467
0000f0 4a 50 47 3e ea e4 f1 3d 7b f4 18 3d 55 7b 0a 3e
       0.19464222 0.1181124 0.03734253 0.1352361
000100 50 46 9b 3e 12 fd fb bd 54 6d 9d be 51 7d 9a be
       0.30327082 -0.12304129 -0.30747473 -0.30173734
000110 90 83 9b be 1a ec 81 bf 79 91 80 3d 88 d5 75 3e
       -0.30373812 -1.0150177 0.06277747 0.24007237
000120 0e 29 9a be 76 4f f4 3d 48 ee 5e 3e b1 b9 0e 3e
       -0.30109447 0.119292185 0.21770585 0.13938023
000130 38 53 a1 be 2b 99 9d 3d 91 43 01 be 4f eb 5c bd
       -0.31508803 0.0769523 -0.12623431 -0.053935345
000140 6b a9 11 bd cf 3f 37 be c7 59 ef bd cc 3b 24 be
       -0.03556196 -0.17895435 -0.116870455 -0.16038436
000150 c9 10 d9 be 9c 28 c9 be f2 1d c0 be 7b b9 ff be
       -0.4239562 -0.39288795 -0.37522846 -0.49946198
000160 4f d3 0f bd 75 7c d3 3e 5b 86 ac 3f 6f 03 1f 40
       -0.03511363 0.4130589 1.3478502 2.4845846
000170 c5 55 8d bf a4 f0 03 3f 97 58 08 3e 0e be c1 3e
       -1.10418 0.51539063 0.13315044 0.37840313
000180 fd 31 0e 3f 88 ce 9b be b0 98 88 3c ac 98 f6 3c
       0.55545026 -0.30431008 0.01667437 0.030102096
000190 e5 98 6c be 7f 33 14 be ba 9e 2c be 11 78 ac 3c
       -0.231052 -0.14472769 -0.16857424 0.021053346
0001a0 fc d4 a1 3f 3b f8 ee 3e 24 5f 41 3e 7e 85 aa 3e
       1.2643123 0.4667376 0.1888395 0.3330497
0001b0 4e 3e 01 3f 73 67 51 bd d3 1b ef bd 25 c0 7b bd
       0.50485694 -0.051124047 -0.11675229 -0.06146254
0001c0 79 92 ec 3e 70 24 bd be ea 98 81 be dc 1b 8d 3e
       0.462055 -0.36941862 -0.25311977 0.27560318
0001d0 72 67 87 be 4f f1 85 be 64 da 58 be 6a 5a 43 be
       -0.2644611 -0.26160666 -0.2117706 -0.19077459
0001e0 df f5 31 3c d0 c9 6d 3e ce 54 ea 3d 83 34 05 3f
       0.010861843 0.23221517 0.114419565 0.5203325
0001f0 3d 8b 9d 3e c8 e7 37 bc 9b 68 86 3c 58 17 3e 3d
       0.30770293 -0.011224695 0.016407302 0.04640898
000200 3d 26 29 bf 1e df eb 3b 04 a2 56 be fb 97 07 3f
       -0.6607397 0.0071982285 -0.20960242 0.5296628
000210 3b ef 82 be 12 dc e1 3e fd 9e a0 3d b6 3f 2b 3e
       -0.25573143 0.44113213 0.078428246 0.16723523
000220 cd da 39 bf ba 1c 81 3f cc 92 0d 3f c8 26 4a 3f
       -0.7259949 1.0086892 0.5530212 0.78965425
000230 e7 3c 19 bf 88 0c 4f 3c 57 ac 7b bf c1 63 06 be
       -0.59858555 0.012637265 -0.98309845 -0.1312399
000240 1d 58 49 3f ec c4 82 be 54 66 8e be 61 1d 1a bd
       0.78650075 -0.25540864 -0.27812445 -0.037625674
000250 d6 e0 bf 3e dc 36 b3 be 58 de a4 be f8 5e a1 be
       0.37476224 -0.35002792 -0.32200885 -0.31517768
000260 ce ea 96 be fe 49 fc 3c c5 7a fb bd 04 0b 42 be
       -0.29476017 0.030797001 -0.12279276 -0.18949515
000270 b0 72 ab bf a7 d1 ce 3d 0f 77 ef bc 64 f4 2f 3d
       -1.3394375 0.10098582 -0.029231576 0.04295768
000280 e4 33 a3 bd 3c fa d7 3e d9 06 88 be b8 f0 a4 be
       -0.07968882 0.421831 -0.26567724 -0.32214904
000290 00 6d 4b 3e dd c9 ef 3d bf 5c 15 be e0 eb 8a bd
       0.19865799 0.11708424 -0.14586161 -0.06783271
0002a0 a4 15 03 bc 8a 36 1d be 0d 9e 0a be 55 91 c0 be
       -0.008000765 -0.15352836 -0.13536854 -0.3761088
0002b0 1f ed 13 be f7 5d ea 3e 40 55 ba 3d d7 0a 11 3e
       -0.14445923 0.45774814 0.090982914 0.14164291
0002c0 ae 5c 0c bf b9 d5 06 be 0d 04 49 3b b8 5f 70 be
       -0.5482892 -0.13167466 0.003067258 -0.23474014
0002d0 7d e1 ff bd 2e ff 83 be 4f 73 c2 bd 04 a1 42 be
       -0.1249418 -0.25780624 -0.094946496 -0.19006735
0002e0 e5 30 05 3f a7 0c 19 bf ae 08 c3 be cb 6d e2 be
       0.5202773 -0.5978493 -0.3809256 -0.4422439
0002f0 eb 63 bc bd b1 46 f0 bd 80 51 b3 3d 33 84 21 3d
       -0.09198745 -0.11732233 0.08755779 0.039432716
000300 6e 86 5e be de 05 bf 3e f0 49 e6 3e 1d e0 ba 3e
       -0.21730968 0.37309164 0.44978285 0.3649911
000310 08 18 d3 3f 3b 38 ea 3e 9a cc 53 3e c0 77 87 3e
       1.6491709 0.45746025 0.20683518 0.2645855
000320 e2 fd 1a bf 29 12 56 3e 98 c0 29 3c 16 db 4d 3c
       -0.60543644 0.20905365 0.010360859 0.012564441
000330 0a 47 34 3f 16 17 8b bd b3 a8 2a be a6 f2 9a 3d
       0.70420897 -0.06791513 -0.16665916 0.07565813
000340 2f fe bc be 31 c8 9a 3d 45 79 e3 bd b8 c9 48 bf
       -0.36912677 0.07557715 -0.11107115 -0.784328
000350 06 0f 0e 3e 63 f1 1c 3f ed 88 07 3f 85 dc 05 3f
       0.13872918 0.61305827 0.5294331 0.5228961
000360 af e8 a7 be b7 54 71 3e f4 04 92 3e 45 48 33 3e
       -0.3279471 0.23567472 0.28519404 0.17508037
000370 cf 00 00 bf 3c cd 89 3e 38 0b 9b 3e 4a eb 86 3e
       -0.50001234 0.26914394 0.30281997 0.26351386
000380 c1 77 7a bf 2f f3 80 3e ce 8d 37 3e 2a 21 4c 3e
       -0.9783898 0.25185534 0.17925188 0.19934526
000390 3c c2 c0 39 50 22 b7 3d 00 99 f9 bd d1 b7 c3 bc
       0.0003676581 0.089420915 -0.121873856 -0.023891361
0003a0 6a a3 55 bf 95 c6 17 3f a8 58 23 3f 53 5a 28 3f
       -0.83452475 0.5928739 0.63807154 0.65762824
0003b0 fe 90 89 be e6 6a 45 be 23 06 e0 bf c0 7f 67 bd
       -0.26868433 -0.1927906 -1.7501873 -0.056518316
0003c0 d5 d6 09 3e 12 ca 4b 3f 96 86 89 3e 4c 4a 0c 3f
       0.13460858 0.7960521 0.26860493 0.5480087
0003d0 68 8c 2a bf 88 ab f4 3d 31 bb 11 3d c1 64 ab 3d
       -0.6662049 0.119467795 0.03557891 0.08368827
0003e0 a4 45 49 be 3f fc ab be d8 94 eb be 60 e8 d5 be
       -0.19655472 -0.33590886 -0.46011996 -0.4177885
0003f0 9f e1 22 3f cb 3c 40 3d 9d 22 36 bd 9d a5 82 be
       0.6362552 0.046932977 -0.044466604 -0.25516978

preamp.model.rec.weight_hh_l0 f4 [192, 48]
000000 dc d4 83 3e 9c 77 20 bf 22 d8 ae 3e 6d 7e 6f 3f
       0.25748336 -0.6268251 0.3414927 0.93552285
000010 9a 8f f6 3d 77 0f e0 3d df 3a aa be ef be a7 be
       0.120391086 0.1094045 -0.3324804 -0.32762858
000020 0b 3c af be 7a f0 b3 3d c6 64 fe 3e ad 6d a9 bb
       -0.34225497 0.08786102 0.4968626 -0.005170545
000030 2d ac 7c be 1e 68 cf 3e d2 1d d9 3e ca b1 f3 3e
       -0.24675055 0.40509123 0.42405564 0.4759658
000040 59 39 60 3e 30 a1 e2 3e c6 68 b4 bd f2 dc c0 3e
       0.21896876 0.442636 -0.088090464 0.37668568
000050 0e 77 a6 3e f9 37 85 be 7d dc f3 bd fc 68 eb be
       0.32512707 -0.26019266 -0.11907289 -0.45978534
000060 3f 1c c2 be 56 62 3a 3d c1 8f 39 3e 61 17 fe 3e
       -0.37912175 0.045503937 0.18121244 0.49627212
000070 da 94 20 3d 84 f3 ff be 50 e9 2b 3d bb d8 1a bf
       0.039204456 -0.49990475 0.04197055 -0.60486954
000080 7e ef 06 3f 3f 69 98 be 38 41 45 bf 7b e6 a1 be
       0.52709186 -0.29767796 -0.7705264 -0.31621155
000090 fa 16 47 bf b1 6d 70 3e be ae ae be 7a d8 68 be
       -0.77769434 0.23479344 -0.34117693 -0.2273883
0000a0 d7 83 99 be fe b1 61 3e 18 0a a5 3e dd dd e7 be
       -0.29983398 0.22040555 0.32234263 -0.45286456
0000b0 93 4f 1b bf e2 33 07 bf 35 96 13 3f 6f d1 e4 be
       -0.60668296 -0.5281354 0.5765107 -0.44691035
0000c0 e9 4d db 3e 7a 1c 88 bd 05 03 85 bc e3 64 4c 3e
       0.42832878 -0.066460565 -0.016236791 0.1996036
0000d0 ae d8 bb be 15 05 19 3f aa c8 f3 3e fb 22 fb be
       -0.3668875 0.5977338 0.47614032 -0.49050125
0000e0 48 31 fd 3e 27 8d f0 be e3 6e ac 3d 77 d0 91 be
       0.4945166 -0.4698269 0.084195875 -0.2847936
0000f0 7b a5 86 be aa f5 f6 3e 0c c1 41 bd 3e 1d 3a bd
       -0.26298127 0.48234302 -0.047303244 -0.045438044
000100 26 40 68 3f 2d 43 4d 3f 58 3f 24 3e dd b7 0b 3f
       0.9072288 0.8018063 0.16039789 0.5457743
000110 f4 80 cc 3e ec 74 b4 3e 1b d7 38 be 19 69 c0 be
       0.39942133 0.35245454 -0.18050806 -0.37580183
000120 c5 c8 4a 3e 97 42 1c be 69 a4 c3 3e 4a e9 02 3e
       0.1980315 -0.15259777 0.38211372 0.12784305
000130 f7 75 0e bf 5e 7b 8d be 12 0e cd be ec f8 c3 be
       -0.5564875 -0.27633184 -0.40049797 -0.3827585
000140 20 82 72 be c6 c6 82 bf 0b 94 50 be d4 79 1f bd
       -0.23682451 -1.0216911 -0.20368974 -0.038934544
000150 f7 c8 26 bf 5b 9b c9 3e e9 82 ac be 15 02 ee be
       -0.651504 0.3937634 -0.33693627 -0.46485963
000160 0c 33 d1 3d a9 ef 91 3e 77 ec 9f bd cd 6e dd be
       0.102148145 0.2850316 -0.07808774 -0.43248597
000170 0c 33 be 3c 3f f4 0d bf c5 13 ec 3c 29 b8 b7 bd
       0.0232177 -0.55450815 0.02881802 -0.08970673
000180 f5 9f 27 be ce d9 fb 3e 32 ea 15 3f 1f 47 e3 3e
       -0.16369613 0.4918961 0.5856048 0.443902
000190 a0 14 cd bf fc 8f de be ef d3 bf bd 95 e5 19 3e
       -1.6021919 -0.43469226 -0.09366595 0.15028985
0001a0 fe 86 12 be 00 99 93 bd a5 fc 71 bc 1c a5 ca bf
       -0.14309308 -0.07206917 -0.014769708 -1.5831637
0001b0 d0 76 84 be ae 56 b8 be a4 b0 8b 3f a6 e0 d3 be
       -0.25871897 -0.3600363 1.0913281 -0.4138233
0001c0 c6 34 24 3f 3b 34 0a 3f 87 67 66 bf 00 08 14 bf
       0.64143026 0.5398595 -0.9000172 -0.5782471
0001d0 c9 ba 23 3f 7a 1d 9a be aa 9c ac bf 0d 75 87 3e
       0.63956887 -0.30100614 -1.348531 0.2645649
0001e0 ce 19 2a be 66 29 7a 3e a3 1c fc 3d 60 29 04 bf
       -0.16611406 0.24429855 0.123101495 -0.51625633
0001f0 b6 51 56 bf 51 5a fc 3e 66 d9 e7 be a6 4a a5 3e
       -0.8371843 0.49287656 -0.4528305 0.32283515
000200 e8 0b 58 be 15 8b c2 3d 21 b8 55 bf c4 fa 0d 3f
       -0.21098292 0.09499184 -0.83484083 0.5546076
000210 86 2c 48 bd ca 56 0e c0 8c 59 95 3e 8a 61 84 bf
       -0.048870586 -2.2240472 0.2916988 -1.0342267
000220 9b 03 85 3f 0f 7d b7 be 85 ce d0 3e 43 b5 12 bd
       1.0391725 -0.358376 0.40782562 -0.035817396
000230 6f 8b 95 bd b3 56 f0 be 39 cb 95 3d 2c 30 96 3f
       -0.073019855 -0.46941146 0.07314152 1.1733451
000240 cb 6a ba bd ce df 96 3e 38 1c 61 be 1e 03 9b 3d
       -0.091024004 0.29467624 -0.21983421 0.07568954
000250 be 9a 96 3d fd 97 d3 3e ba 0c e1 3d 99 16 b3 3d
       0.073537335 0.41326895 0.109887555 0.087445445
000260 96 5b 98 be b8 b3 d9 3d 28 a0 9a 3e f8 b8 62 3e
       -0.29757375 0.10629982 0.30200315 0.22140872
000270 e7 5c 20 bd c5 1f b3 3d c8 07 4f be a3 56 03 bd
       -0.0391511 0.08746294 -0.20217812 -0.032065045
000280 05 03 7a 3d a1 fe 68 3e 55 04 e6 3e bd 19 e1 bd
       0.061038036 0.22753383 0.4492518 -0.10991237
000290 da c7 64 3e a9 3e 65 3e 60 2b f4 bc da be 55 be
       0.22341862 0.22387184 -0.029805839 -0.20873585
0002a0 62 da 4e 3e 41 79 00 bf 5b ed 99 3e 4b 23 1a 3d
       0.20200494 -0.5018502 0.300639 0.037631314
0002b0 93 08 e8 3b 85 33 d7 3d b0 f0 9a be 33 1a dc 3d
       0.0070811003 0.105078734 -0.30261755 0.107471846
0002c0 3d 18 83 3c 70 6f 6c be 70 0a 80 3e 55 cb a7 be
       0.016002769 -0.23089385 0.25007963 -0.32772318
0002d0 96 75 ff 3c e1 61 3f be 79 3e 16 3d 22 79 e0 bd
       0.031183999 -0.18689682 0.036680672 -0.10960604
0002e0 e8 19 7e bd 74 aa 82 3e 80 4f 49 be 9a a7 df bd
       -0.062036425 0.2552067 -0.19659233 -0.10920639
0002f0 fe ee df bd de ce 35 bb 10 85 df bb 80 85 8e be
       -0.10934256 -0.002774171 -0.006821282 -0.27836227
000300 dc 3d 04 bd 36 c6 99 3e 1b be 72 3f 67 f4 26 3d
       -0.032285556 0.30034035 0.9482133 0.040760424
000310 e7 83 f4 3e 6c a9 5c 3e 89 d6 ba 3d 33 0d 61 3e
       0.47756884 0.21549004 0.091229506 0.21977691
000320 2e 14 7d 3b ff ea 3f be f2 6c 38 3e 73 90 14 bf
       0.0038616764 -0.18741988 0.1801031 -0.5803291
000330 c6 53 b9 be c5 91 d9 3c 1e cc 3b bd 19 fc 9a be
       -0.36196727 0.026558766 -0.04584896 -0.3027046
000340 16 a2 6f be 90 c6 b3 be 28 d0 94 be 9d 0c 3e 3d
       -0.23401675 -0.3511243 -0.2906506 0.046398748
000350 0b f4 b6 be 80 b9 6a 3e e4 d4 21 bf 41 e7 3e be
       -0.35733065 0.22922325 -0.6321547 -0.18642904
000360 bd 78 a2 bd 56 42 b8 be 27 af 06 bf f6 29 e0 be
       -0.07933185 -0.3598811 -0.5261101 -0.43782014
000370 89 63 41 3d 17 43 bf 3c f0 38 11 3e d7 e5 42 be
       0.047214065 0.02334742 0.14181876 -0.1903299
000380 09 a7 23 bf e8 88 7b bd 1b de 6c be 98 d8 c1 3e
       -0.6392675 -0.06140986 -0.23131602 0.3786056
000390 7b b0 33 be 0a c7 02 3e 23 b8 43 3d 3c d3 c4 3d
       -0.1754779 0.1277124 0.04778303 0.09610602
0003a0 98 53 ca be a0 32 07 3e 4e 23 04 bd e8 87 04 3f
       -0.39516902 0.13202906 -0.03226023 0.51769876
0003b0 7a f3 3a 3e 76 03 64 be 26 43 74 be 91 c4 5b 3e
       0.18256941 -0.22266945 -0.2385374 0.21461703
0003c0 9b e7 b0 3e 58 b1 74 be 15 6d 5b 3f 72 ed 82 3e
       0.345517 -0.23895776 0.8571332 0.2557178
0003d0 14 66 eb be 29 2b cf bd 1c 21 a8 be 00 7c 47 be
       -0.45976317 -0.10115654 -0.3283776 -0.19480896
0003e0 4d d1 95 3e b4 81 0e bf f6 15 7e 3e 3f 1d 5c bd
       0.29261246 -0.5566666 0.24813065 -0.05373883
0003f0 f1 9d 22 be a3 40 f3 3e c0 79 1b 3f 8e 77 81 3e
       -0.15880562 0.4751025 0.6073265 0.25286525

preamp.model.rec.bias_ih_l0 f4 [192]
000000 e2 09 1f bf f1 d9 e7 be d0 45 07 3f 94 14 09 3c
       -0.62124455 -0.45283464 0.528409 0.008366723
000010 4d b2 f0 3d 9e cd 0f bf 3b 2b 9c be 64 34 01 be
       0.11752758 -0.5617312 -0.30501732 -0.12617642
000020 ad 22 39 be 4c 0f a9 3d 66 f5 81 bf 35 82 bd 3d
       -0.18079634 0.08254871 -1.0153015 0.09253351
000030 58 4e f3 be 51 73 bc 3e 1b df e8 3d 62 91 e8 3d
       -0.4752071 0.3680673 0.11370679 0.113558546
000040 99 f6 d1 be 64 eb df bc 33 8e f6 3d 8e ba 54 bb
       -0.41008452 -0.027333923 0.12038841 -0.0032459828
000050 39 5c 9c be 06 47 c4 be 12 46 f3 3e 7b 6d a5 3e
       -0.3053911 -0.38335437 0.47514397 0.3231009
000060 8f 58 2f be 6f a3 0e 3d 33 64 62 3e fa f8 6d be
       -0.17123626 0.03482383 0.22108535 -0.23239508
000070 a6 fe 4f be cf 84 71 be e3 33 0f 3f ca a9 63 3e
       -0.20311984 -0.23585819 0.5593855 0.22232738
000080 8e f3 e6 bd 49 b4 f0 3d 46 50 0b 3f 2c 8b 5a be
       -0.11276923 0.11753137 0.5441936 -0.21342152
000090 04 d6 58 bd 6c df a9 be 89 6c 2b 3e 86 31 24 be
       -0.052938476 -0.3317827 0.16740622 -0.16034517
0000a0 f7 09 1d be 0d 78 43 bc 8a 2b bc be 21 35 b0 3e
       -0.15335833 -0.011930478 -0.36751968 0.34415534
0000b0 a8 6a 80 3d d9 e0 1a be 47 08 f5 bd f5 25 8c 3e
       0.06270343 -0.15124835 -0.119644694 0.2737271
0000c0 75 dd 0a 3f 8d 36 f3 3e 42 17 15 bc 7f 9c 89 3d
       0.54244167 0.47502556 -0.009099783 0.067193024
0000d0 0d 36 5b 3e 8f 1d 50 3f a8 70 da 3d f7 8c e1 3e
       0.21407337 0.812951 0.10666019 0.4405286
0000e0 52 f0 04 3d 2f 6e 69 3e e3 00 54 3f 6e fd d9 bd
       0.03245575 0.22795938 0.82813853 -0.10644041
0000f0 5f 9c c0 3e 3a 11 85 3e 8e 9b 85 be d2 aa b9 3d
       0.37619302 0.25989705 -0.2609524 0.090657845
000100 7f a5 f0 3d 04 51 5f 3e a0 fa 10 be 47 82 9c 3d
       0.11750316 0.21808249 -0.14158106 0.07642036
000110 1b 6f 1e 3d 11 64 5b 3f f6 fa b1 3e 0e 79 94 3e
       0.038680177 0.85699564 0.3476178 0.28998607
000120 59 b6 40 bd 81 ff b1 3e ce c0 bb bd d5 73 16 3e
       -0.0470489 0.34765247 -0.09167634 0.14692624
000130 2a 89 81 3e 9c 86 bd 3e ce d1 1b 3e 5d 80 44 3e
       0.2529996 0.3701676 0.15216753 0.19189592
000140 20 29 6a 3e ed 1b 17 3d 45 d8 f5 bd 8a c5 c5 bd
       0.2286725 0.036891866 -0.12004141 -0.09656818
000150 d6 ad b5 3d 25 43 ed 3e fc 4f 30 3d 5e 0b 18 bd
       0.08871047 0.4634029 0.04304503 -0.037120216
000160 5d 17 a3 3e 30 fb 09 be 78 93 16 3f f9 07 1e be
       0.31853762 -0.13474727 0.5881877 -0.15432729
000170 8d 0f 90 3d f6 62 ae 3e e4 4d 0a 3e 3b e1 20 be
       0.07034216 0.34059876 0.13506275 -0.15710919
000180 01 01 44 bd 5e a3 b0 3d 1e 75 a8 3b c2 0c 7f bd
       -0.04785252 0.0862491 0.0051409146 -0.062268026
000190 5a 5d 56 3e d7 73 db 3d 3c b5 60 bd e5 6a 05 bd
       0.20934048 0.10715454 -0.05486034 -0.032572646
0001a0 ce 43 5b be 72 81 cf 3e db 3b 0c be 5f 53 78 3e
       -0.21412584 0.40528446 -0.13694708 0.24250554
0001b0 b6 38 00 3e 25 ea a0 be b1 4e 62 be ae da 71 3c
       0.12521634 -0.31428638 -0.22100331 0.01476161
0001c0 41 a0 10 be 56 fd a1 bc 70 5e a0 bd 4d 30 bb bd
       -0.14123632 -0.01977412 -0.078305125 -0.09140072
0001d0 f5 c8 11 be 3e 50 a0 3d ea 4c 89 3c e8 99 97 3e
       -0.14236815 0.07827805 0.016760308 0.2960961
0001e0 f8 a8 89 bc 8c db 12 3e 67 16 37 bd cf 64 fb bd
       -0.016804203 0.14341563 -0.0446991 -0.12275087
0001f0 50 d9 1e 3d 3f 51 6f bc 12 dc 93 3e c8 ad 9a 3e
       0.038781464 -0.014606773 0.28878838 0.3021071
000200 43 bf 9e 3d a5 d7 55 3e 69 e2 3c 3e 9c b8 1e 3e
       0.07751324 0.20883043 0.18445744 0.1550011
000210 f5 93 4d bd ee df 86 bc ed 0d b8 3e f7 f8 20 3e
       -0.05018993 -0.0164642 0.35948125 0.15719973
000220 9f 85 69 3e ae a9 85 be 00 42 8a 3b a0 3b 77 3e
       0.22804879 -0.26106018 0.0042192936 0.24143839
000230 de 58 2a 3e b3 01 32 3d 6e 3e cc bd f2 9d 9e 3d
       0.16635463 0.04345865 -0.09972845 0.077449694
000240 71 e3 2b 3e 1a b3 35 be b7 26 b9 3e a5 c8 c0 3d
       0.16785981 -0.17744103 0.3616235 0.0941327
000250 0d 01 04 be 2a b9 e7 3d 30 0d 2c 3e 35 f0 f3 3c
       -0.12891026 0.11314614 0.16801906 0.029777626
000260 15 3f b1 be 3a d3 c4 3e fc 58 21 3e b6 db d3 3c
       -0.3461844 0.38442403 0.15756601 0.025861602
000270 c8 f4 83 3e b6 f1 a3 3d f3 43 2e 3e 08 ae 67 3d
       0.2577269 0.08005087 0.17018108 0.056562454
000280 a5 fd 08 be b6 8a 04 3e 9e 03 40 bd 99 c4 7c 3c
       -0.13378008 0.12943539 -0.04687845 0.015427732
000290 33 2f b2 be 96 e0 0a 3e cc 15 0e be b0 1b 7c 3e
       -0.34801635 0.13562235 -0.13875502 0.24619937
0002a0 ac e1 86 3d b5 aa ec bc f5 23 da 3e 56 c0 32 bd
       0.06586012 -0.028889993 0.42605558 -0.043640457
0002b0 dc 31 d2 bc ed 9e 23 3c 9f 6e 1e 3f d7 23 85 3e
       -0.02565854 0.009986621 0.61887544 0.26003906
0002c0 a2 68 fc bd 18 3d b0 3d 08 5c 21 3f 79 c5 34 be
       -0.123246446 0.08605403 0.63031054 -0.17653455
0002d0 27 89 3a bd cc 26 62 bd ad 25 c2 3d 7a de 39 3e
       -0.045540955 -0.05521278 0.09479842 0.18151274
0002e0 df d7 9d bc 59 df 8d be 62 4d 31 bd f5 06 96 3e
       -0.019267974 -0.27709463 -0.04328669 0.29302183
0002f0 c6 e0 3c bd 9e 50 83 3e 8b 77 5d 3e dd 8f 55 3e
       -0.0461128 0.25647444 0.21627633 0.2085566

preamp.model.rec.bias_hh_l0 f4 [192]
000000 f5 a5 23 bf f6 74 17 bf 81 02 00 3f e7 25 15 3e
       -0.63925105 -0.59162843 0.5000382 0.1456524
000010 24 d2 45 bd 9f 8c 2d bf 82 6c ab be ab fe b2 be
       -0.04829611 -0.67792696 -0.33481222 -0.3495992
000020 02 c6 11 be 5e 18 85 3e 62 25 4b bf a3 91 be 3c
       -0.1423569 0.25995153 -0.79353917 0.023262804
000030 6d 55 b3 be 3c 2f 82 3e da b6 0e 3e 8d 01 b9 bc
       -0.35026112 0.25426662 0.1393694 -0.022583747
000040 c0 c6 14 be 0b fe 99 3d 31 e6 58 3e eb 41 ca 3d
       -0.14528942 0.07519158 0.21181561 0.09875854
000050 9b f2 1c be 6a b3 e0 be 10 1a f7 3e c7 32 66 3e
       -0.15326922 -0.43886882 0.48262072 0.22480308
000060 03 7a 00 be 22 f3 4b bd ce ff e8 3e fc c6 45 be
       -0.12546544 -0.049792416 0.45507663 -0.19314188
000070 83 7b 50 bd 0a bf a8 be 2b e3 47 3f 61 bc 58 3e
       -0.05089904 -0.3295825 0.78081006 0.21165611
000080 e3 5f ce bc c3 12 07 3e 29 53 d4 3e c6 25 08 be
       -0.025192207 0.13190751 0.41469696 -0.1329566
000090 d4 f9 2b be a5 10 9f be a1 3f 19 bd 0d 4b 32 be
       -0.1679452 -0.31067386 -0.037414197 -0.17411442
0000a0 77 8f 9b be eb 3d 4d be e0 a0 90 be b5 3e 06 3f
       -0.30382892 -0.20043151 -0.28247738 0.52439433
0000b0 1d cf 35 3e 20 eb 06 be 69 ca 5b bb 7c 8c 1b 3e
       0.17754789 -0.1317563 -0.0033537394 0.1519031
0000c0 c6 1c 18 3f fe c8 f6 3e a7 89 2c 3d 83 ca e0 3d
       0.59418905 0.4820022 0.042123463 0.10976126
0000d0 d2 da 6a 3e af 7c 70 3f 21 7a aa 3e 11 40 06 3f
       0.22935036 0.9394025 0.33296302 0.5244151
0000e0 ba c0 4d 3e 4b b3 1a 3e f7 ec 4f 3f 08 b9 33 be
       0.2009305 0.15107457 0.81220955 -0.17551053
0000f0 c1 68 8d 3e a7 26 37 3e 64 24 c1 be 0e 17 d1 bd
       0.27618983 0.17885838 -0.37723076 -0.102094755
000100 cd 8b 7e 3e dc 79 39 3e 1e 8c 36 3d b6 65 5d 3e
       0.24858017 0.18112892 0.04456722 0.21620831
000110 ba 0a 2e 3e d2 50 3b 3f 19 46 cc 3e 6e b1 87 3e
       0.1699628 0.73170197 0.3989723 0.26502556
000120 da 1c 44 be 1a d0 8c 3e 59 eb af 3d d5 bc b7 3e
       -0.19151631 0.2750252 0.08589811 0.35886255
000130 3c fd 9d 3e 37 ec a5 3e cb 20 a2 3d 53 61 57 3d
       0.30857265 0.3240678 0.07916411 0.05258305
000140 68 15 95 3d 13 99 ae 3c 69 06 79 be 14 a8 ea 3d
       0.072794735 0.021313226 -0.24318852 0.114578396
000150 14 1d c8 bd 77 2f bc 3e 68 52 87 3e 0d b9 ec 3d
       -0.09771171 0.36754963 0.26430058 0.11558733
000160 e6 fd ac 3e 0b d6 b1 bd 5e 21 13 3f 6d b9 7e 3d
       0.3378746 -0.086834036 0.5747279 0.062188555
000170 81 9d 80 bd ee bf e7 3d 59 97 04 3d 9e 05 49 3c
       -0.062800415 0.113159046 0.0323709 0.012269406
000180 fa f1 15 be ec ba 0f be 26 53 74 3e 86 1a 4f be
       -0.14643088 -0.14036149 0.23859844 -0.20224962
000190 ad 06 b9 3c 28 cb 18 be c6 f0 ba 3d 22 ec bc bc
       0.022586191 -0.14921248 0.09127955 -0.023061816
0001a0 4d 92 1c be c4 ae e8 3e 73 41 2c bd d8 ef 82 3d
       -0.15290184 0.45445836 -0.042054605 0.06393403
0001b0 a5 ec 2f bd 91 fe 68 be 98 9e 77 be 86 e3 1f 3e
       -0.04295029 -0.2275336 -0.24181592 0.15614137
0001c0 e6 75 28 3d ed fe 82 be ee d2 a3 3d 81 17 9f be
       0.04112806 -0.25585118 0.07999216 -0.3107262
0001d0 72 d9 f6 3d 4a 04 d7 3d 0c f8 b0 bd 3b 54 fd 3d
       0.12053193 0.10498865 -0.08641061 0.12369581
0001e0 fb de 76 be 40 ca 52 3e 4a 53 93 be e3 3b 7d bd
       -0.24108498 0.20584965 -0.28774482 -0.06182469
0001f0 5f 97 32 bd aa aa dd 3a 0b 69 2f 3e 5d 90 8a 3e
       -0.04360139 0.0016911824 0.17129914 0.27063265
000200 cd e1 00 bd 14 ce 6a 3e 54 6e e9 3d ea 50 35 3d
       -0.03146534 0.22930175 0.113979965 0.04426662
000210 82 05 19 3d 82 9e a6 3d f4 f7 33 3e fd a1 77 3e
       0.03735877 0.08135702 0.17575055 0.24182887
000220 1b f9 5d 3e ca 4e 34 be 09 7a 15 3e 6f 2e 8d 3e
       0.21677057 -0.1760818 0.14597334 0.2757449
000230 89 7d 02 3e 96 3b 1b 3e 7b 8b 17 be 44 a6 25 3c
       0.127432 0.15159449 -0.14799301 0.010110442
000240 85 6e 9d 3d 15 fd 7c be 2a 54 81 3e a5 fa 56 3d
       0.076870956 -0.24705918 0.25259525 0.052485127
000250 4a 47 d4 3c b6 0c 97 3e 48 4f 34 3e 81 0a a0 3d
       0.0259129 0.29501885 0.17608368 0.078145035
000260 85 a3 ab be 9d 38 dc 3e e8 76 11 3e 45 d2 85 3b
       -0.33523193 0.43011943 0.14205515 0.004083904
000270 dd 46 99 3d 97 64 32 3e 40 e1 7a 3e 03 f6 65 3e
       0.07484219 0.17421184 0.24499989 0.22457127
000280 0b 0a b8 bc f4 e7 61 3e ca 7d 3e 3e 91 78 02 3e
       -0.022465726 0.2206114 0.18602672 0.12741305
000290 01 40 bf bd e5 7c cc 3d b4 d4 74 be d3 ca 64 3e
       -0.0933838 0.09984759 -0.23909265 0.22342996
0002a0 8e 56 2e 3e 20 aa 16 3e 25 44 79 3e 93 43 28 be
       0.17025205 0.14713335 0.24342401 -0.16432028
0002b0 2f f3 12 be 3c 44 fd bd e3 7b 26 3f be 85 1f 3e
       -0.1435058 -0.1236653 0.65032786 0.15578362
0002c0 26 e5 32 bd a6 a9 71 3e a7 2b 26 3f de 66 3c be
       -0.043675564 0.23599872 0.6491036 -0.18398616
0002d0 03 84 23 bd a6 b3 4a bd 54 ca 46 3d 7a f3 5a bb
       -0.039920818 -0.049487732 0.0485328 -0.0033409283
0002e0 df 24 41 bd a7 8c 39 be 8e 90 6f 3d 3c 1c 06 3f
       -0.047154304 -0.18120061 0.058487467 0.5238683
0002f0 77 88 b1 3d cc cc 4b 3d da 10 58 3e 46 66 6b 3e
       0.08668607 0.049755856 0.21100178 0.22988233

preamp.model.lin.weight f4 [1, 48]
000000 8d 69 a1 3d d2 70 2d 3d 49 ec 41 be b3 60 23 3e
       0.0788146 0.042343922 -0.18937792 0.15954857
000010 7e dc 5b 3e 7e 37 a1 3e 86 77 10 be 56 26 35 3b
       0.2147083 0.3148765 -0.14108095 0.0027641258
000020 98 05 19 3d 97 60 06 be e7 3c b3 bd f6 cd e0 3e
       0.03735885 -0.13122784 -0.087518506 0.43907136
000030 ed 14 91 be 3d b7 e7 bd 10 e0 84 3c 85 4a 79 3e
       -0.28336278 -0.11314247 0.016220123 0.24344833
000040 4e cc 82 3d fb 5f 4b 3c 54 84 4c bd c8 a9 21 bc
       0.06386624 0.01241302 -0.049930885 -0.009867139
000050 7c ec 3e 3c b2 11 a7 3e 1d 5c 4d bf e2 01 c2 3d
       0.011653062 0.32630688 -0.8021868 0.09473015
000060 a7 01 00 bf 2e 0d 6b bb 70 de 84 bd 99 55 03 be
       -0.5000252 -0.003586601 -0.06487739 -0.12825622
000070 66 39 af be 87 93 b9 bd 91 c2 87 3d 60 b4 6d be
       -0.3422348 -0.09061342 0.066289075 -0.23213339
000080 04 55 1e bf 69 12 da 3d fe 03 46 bd 23 4a f4 3e
       -0.61848474 0.10648043 -0.04834365 0.47712812
000090 76 5b dc 3d 2b 51 a1 bd 2a 88 98 3d a5 e8 7e bd
       0.10759632 -0.0787681 0.07447846 -0.062233586
0000a0 5c af df 3e 22 fb 5a be 91 aa 97 3e 63 a1 5d be
       0.43688476 -0.21384862 0.2962232 -0.21643595
0000b0 53 4a 7e be a6 f5 5a be 5d f7 9f 3e e7 25 6f be
       -0.2483304 -0.2138277 0.3124341 -0.23354302

exp_avg f4 [192, 4]
000000 b5 97 fa b8 64 e4 2d 3a 24 78 40 3a 10 10 23 3a
       -0.000119491866 0.0006633459 0.0007342121 0.000622035
000010 c4 de 81 37 94 db d3 38 5d 91 72 37 79 46 75 38
       1.5481732e-05 0.00010102164 1.4458169e-05 5.8478185e-05
000020 9f 05 b4 b8 cc 43 bd b9 67 6e c2 b9 21 ad b0 b9
       -8.584116e-05 -0.00036099402 -0.0003708482 -0.00033698327
000030 2c 68 e7 b5 bf 42 c4 37 18 b5 ab b8 1a 80 d2 37
       -1.7241159e-06 2.3396102e-05 -8.187647e-05 2.5093603e-05
000040 65 a5 c6 37 e5 54 00 39 f7 8f 36 39 d4 79 3b 39
       2.3680457e-05 0.00012238657 0.00017410504 0.00017879094
000050 a0 04 59 b7 71 91 85 3a 18 56 95 3a 58 d2 84 3a
       -1.2935285e-05 0.001019044 0.0011393456 0.0010133488
000060 e1 e2 73 39 8d 84 a6 ba 26 09 fa b9 5e fd d7 ba
       0.00023258805 -0.0012704298 -0.00047690532 -0.0016478708
000070 98 59 2a 39 f5 af e6 39 36 a1 03 3a 30 37 06 3a
       0.0001624584 0.00044000117 0.0005021276 0.0005119918
000080 c0 6a 20 b5 a3 4e 9a 38 90 5a 8b 38 c2 95 27 38
       -5.9759986e-07 7.3579395e-05 6.644905e-05 3.9955376e-05
000090 d0 30 47 b7 6b 4a 68 3a cd a9 4d 3a c7 f8 86 3a
       -1.1872689e-05 0.0008861187 0.00078454317 0.001029753
0000a0 2f 6e b1 b8 15 21 f8 b6 66 ed 84 38 8a 08 d7 38
       -8.460541e-05 -7.394827e-06 6.3384694e-05 0.000102535894
0000b0 c8 ba b6 37 58 4b da b8 dd 4a cc b8 60 56 ba b8
       2.1783067e-05 -0.00010409084 -9.7414224e-05 -8.88526e-05
0000c0 ec a5 9c b8 f7 d3 23 39 c1 8e fc b6 a9 d5 1e 38
       -7.469565e-05 0.00015623854 -7.526804e-06 3.7869122e-05
0000d0 60 c2 cd 35 3b 09 9b 37 14 46 4f 37 f7 ca 9f 37
       1.5330261e-06 1.8481738e-05 1.2354478e-05 1.904879e-05
0000e0 af 71 00 37 aa 72 56 b8 cf b9 02 b8 cb 95 77 b8
       7.655864e-06 -5.1128365e-05 -3.1167463e-05 -5.9028895e-05
0000f0 47 06 a6 b6 85 9c 78 38 7d dc 94 38 84 28 b0 36
       -4.9479163e-06 5.9273578e-05 7.098259e-05 5.2499254e-06
000100 8b 20 cd 38 e5 47 c1 b9 96 08 11 b9 16 7d f9 b9
       9.781223e-05 -0.00036865394 -0.00013831476 -0.00047586177
000110 a2 1e b1 37 60 07 2c 38 70 00 6d 38 5e 81 e2 37
       2.1114309e-05 4.1014864e-05 5.650561e-05 2.700154e-05
000120 2d 24 5e b8 82 79 8b b8 84 1e c9 b8 91 66 48 b8
       -5.2962616e-05 -6.650669e-05 -9.590111e-05 -4.777924e-05
000130 35 5d e6 37 9c 0f 70 39 34 d7 46 39 b4 72 87 39
       2.746154e-05 0.00022893999 0.00018962921 0.00025834667
000140 b7 e9 76 b6 eb 4d 15 b9 19 8a de b8 b0 52 29 b9
       -3.6792896e-06 -0.00014238774 -0.000106115076 -0.000161479
000150 6e 7b 38 b8 62 0e 38 b9 55 30 a7 38 fe 18 a0 b8
       -4.398397e-05 -0.00017552965 7.972183e-05 -7.63405e-05
000160 3a 82 24 36 3b ac b2 b6 98 c7 59 b7 be d3 1c b7
       2.4513706e-06 -5.3248637e-06 -1.29806795e-05 -9.347625e-06
000170 75 a9 dd b6 15 94 34 37 76 fa 14 37 89 65 c1 36
       -6.6060406e-06 1.0763314e-05 8.879802e-06 5.7636685e-06
000180 79 41 05 b7 ee 26 a6 b8 47 3e 36 b8 88 ec c5 b8
       -7.942662e-06 -7.922748e-05 -4.345018e-05 -9.4377494e-05
000190 0b d9 99 38 7e ab 9e b9 14 fd 52 b9 84 2b 8d b9
       7.336036e-05 -0.0003026388 -0.0002012144 -0.00026926037
0001a0 c7 57 aa b8 dd 63 ea 39 01 fc 93 39 89 2c ec 39
       -8.1225815e-05 0.00044706362 0.00028225782 0.0004504661
0001b0 e7 f9 e8 37 72 ad e1 38 f4 c6 c3 38 e1 4b e1 38
       2.7772925e-05 0.00010761143 9.3353825e-05 0.000107429696
0001c0 7b 30 19 37 9e bd 80 37 78 78 46 b8 d5 94 0c b8
       9.130798e-06 1.5347086e-05 -4.7319074e-05 -3.351721e-05
0001d0 ef 1d db 37 b0 a4 9a b8 12 d8 48 b8 13 b1 4a b7
       2.6120773e-05 -7.373968e-05 -4.7884947e-05 -1.2081367e-05
0001e0 e1 2f 4f 38 5c 16 1b 39 72 c0 76 37 50 26 8c 39
       4.9397237e-05 0.00014790281 1.470755e-05 0.00026731426
0001f0 15 df 16 38 c6 ba 03 39 a2 8a 02 39 fa 99 19 39
       3.597055e-05 0.00012562712 0.00012449411 0.00014648578
000200 0d c2 11 38 44 25 a0 b9 8c db cb b9 e8 6a d2 b9
       3.4751418e-05 -0.00030545343 -0.00038882752 -0.00040133973
000210 46 21 86 b6 4a 00 ba b7 a4 53 88 b7 88 96 06 b8
       -3.9973847e-06 -2.2173062e-05 -1.6251412e-05 -3.2088283e-05
000220 7d b9 c2 b6 79 d9 c3 b8 bb 18 5c b8 eb d2 3e b8
       -5.803244e-06 -9.338832e-05 -5.247512e-05 -4.5495963e-05
000230 d4 0d df b6 51 c3 b4 b8 0d fe c4 b8 19 e4 92 b8
       -6.6475277e-06 -8.619449e-05 -9.393329e-05 -7.004309e-05
000240 77 ef 16 38 8e 6f 43 b8 09 45 45 b8 b0 43 fc b7
       3.5985806e-05 -4.6595516e-05 -4.7032754e-05 -3.007226e-05
000250 b7 f8 94 37 4e 5c 80 b8 6e f9 75 38 ec 16 db b8
       1.7758792e-05 -6.120709e-05 5.864485e-05 -0.00010447003
000260 6a 38 1e 38 c4 8c 7b 39 8f 95 6d 39 a8 56 78 39
       3.7722675e-05 0.00023989665 0.00022657796 0.00023683405
000270 29 92 9f 37 f8 77 c8 b9 7c 95 99 38 6d 7c e3 b9
       1.9022338e-05 -0.00038236356 7.323452e-05 -0.00043389518
000280 87 cf a5 38 8a e2 7c b9 9b 04 2a b9 37 e3 48 b9
       7.906468e-05 -0.00024116985 -0.00016214179 -0.0001915813
000290 bf 0a 3e 38 26 84 0c 38 f5 54 e9 37 a8 7d 93 36
       4.5309538e-05 3.3501674e-05 2.7815326e-05 4.3955697e-06
0002a0 3a 9f 76 38 52 67 44 38 4a ab 96 39 8a 9b 1f 39
       5.879926e-05 4.6826266e-05 0.0002873785 0.00015221364
0002b0 8a 3a ea b6 cf 3c 4f 38 2f cb 3d 38 42 ef 5f 38
       -6.9805583e-06 4.940928e-05 4.525034e-05 5.339017e-05
0002c0 38 5b dc 37 4d a3 df 38 3d 76 a6 38 bf 22 fc 38
       2.626852e-05 0.00010663886 7.9375204e-05 0.00012022768
0002d0 9a b8 a2 37 93 1a 5a 39 73 24 84 39 3f 53 3a 39
       1.9397867e-05 0.000208 0.0002520416 0.00017769354
0002e0 67 8c 04 b7 48 d1 80 b9 d1 db 7b b9 20 7a 82 b9
       -7.900503e-06 -0.0002456999 -0.00024019113 -0.00024886522
0002f0 12 9a d6 36 10 69 2c b9 f4 d6 26 b9 14 d4 0a b9
       6.395633e-06 -0.00016442337 -0.0001591107 -0.00013239711
000300 16 b3 c7 39 fd a2 3e 3b 60 6f 4b 3b 77 0f 49 3b
       0.00038089667 0.0029088848 0.0031041726 0.0030679384
000310 6e 33 6c 35 9a c6 8f b7 52 79 82 b8 ac e6 30 b7
       8.799169e-07 -1.713941e-05 -6.221481e-05 -1.0544125e-05
000320 a7 43 d6 b8 cd 9a d3 b9 c8 59 d6 b9 86 3d 24 ba
       -0.000102169164 -0.00040360392 -0.00040884153 -0.0006265271
000330 c9 40 2c b7 18 18 71 b7 ee 18 70 b8 83 96 72 b7
       -1.0267083e-05 -1.4370329e-05 -5.7243677e-05 -1.4459368e-05
000340 b2 fb 85 37 bd 3b 2c 38 c7 eb e8 38 49 a5 ea 38
       1.597204e-05 4.106363e-05 0.00011106539 0.00011188776
000350 4b f0 a8 b6 42 4e 47 39 a8 95 ac 39 eb 74 93 39
       -5.034764e-06 0.00019007272 0.000329179 0.00028125136
000360 c8 b5 88 39 e9 e5 df ba d7 20 7a ba 15 83 fa ba
       0.0002607538 -0.0017082068 -0.00095416367 -0.0019112552
000370 f0 e5 83 39 a4 54 44 3a d7 05 52 3a b7 31 62 3a
       0.00025157584 0.0007489419 0.00080117345 0.0008628624
000380 c0 1e 71 b6 93 f6 59 b8 b7 c4 99 b8 e8 ab 0d b9
       -3.5929697e-06 -5.196647e-05 -7.3322495e-05 -0.00013510848
000390 58 21 f6 b6 09 68 f5 39 0c d6 f0 39 06 95 0f 3a
       -7.335253e-06 0.00046807554 0.00045935845 0.00054772233
0003a0 b2 ee 65 b6 e2 49 86 b9 8a f3 21 b9 48 a0 20 b9
       -3.4262598e-06 -0.0002561352 -0.00015444882 -0.00015318498
0003b0 57 7c 05 37 8f 9f 1c b8 33 32 1e b8 45 fe 14 b8
       7.956368e-06 -3.73419e-05 -3.7716887e-05 -3.5522757e-05
0003c0 66 58 b6 b8 b6 51 39 b9 39 68 4d b9 f3 03 01 b9
       -8.694902e-05 -0.00017673415 -0.0001958915 -0.0001230387
0003d0 26 73 18 37 03 de 7e 38 be aa 54 38 c2 a7 75 38
       9.086716e-06 6.0765084e-05 5.0703755e-05 5.856879e-05
0003e0 39 16 35 37 bf d0 7d b8 86 23 5f b7 4c be b5 b8
       1.0793615e-05 -6.051431e-05 -1.3300107e-05 -8.666198e-05
0003f0 7a ff 47 b7 fd c2 4c 37 31 55 3a 38 a9 86 81 b8
       -1.1920807e-05 1.2204747e-05 4.4425196e-05 -6.176282e-05

exp_avg_sq f4 [192, 4]
000000 8d 9f bc 35 fe 01 fb 39 a2 fe 05 3a 75 bf 0f 3a
       1.4053527e-06 0.00047875935 0.00051114906 0.00054835464
000010 e2 f3 d9 33 39 4e 9d 36 42 72 99 36 d1 40 9d 36
       1.0149212e-07 4.688071e-06 4.5730567e-06 4.6865102e-06
000020 f8 bd 40 34 a4 8c d9 36 33 fa f4 36 f8 62 0c 37
       1.7950504e-07 6.4834767e-06 7.3008937e-06 8.367693e-06
000030 5a 5e 8e 33 b0 9f f3 36 69 5d fc 36 99 e4 01 37
       6.629553e-08 7.2605544e-06 7.5210596e-06 7.742224e-06
000040 9e 5a e8 33 ad b5 ef 35 fb bf ec 35 66 e2 dd 35
       1.0819825e-07 1.7859762e-06 1.7639244e-06 1.6531674e-06
000050 3f c3 d6 33 b8 c7 69 38 6d ef 4c 38 8a 2e 3a 38
       1.00006666e-07 5.573753e-05 4.8860373e-05 4.43892e-05
000060 0d 3e 95 37 47 4c a1 3a 28 37 a0 3a de 4f a4 3a
       1.7791079e-05 0.0012306058 0.0012223469 0.0012536009
000070 d8 f5 65 35 e8 69 42 39 23 10 40 39 4e f9 41 39
       8.56669e-07 0.00018540735 0.00018316558 0.00018498788
000080 4a 14 60 34 8e 66 10 38 e0 d0 13 38 d5 1e 1d 38
       2.0869007e-07 3.4427787e-05 3.524206e-05 3.746043e-05
000090 57 15 4a 36 bf 1b 70 39 94 11 7b 39 17 a8 7f 39
       3.0112767e-06 0.0002289852 0.00023943774 0.00024381313
0000a0 b7 1c ab 36 1f 8b 85 37 37 fa 8a 37 0a 13 9a 37
       5.09954e-06 1.5919619e-05 1.6567397e-05 1.8367096e-05
0000b0 da 47 3b 32 d2 4e cf 35 93 1d 96 35 97 e3 81 35
       1.090117e-08 1.5445642e-06 1.1184478e-06 9.677486e-07
0000c0 b5 51 a7 36 5d 17 8f 38 ef 88 83 38 77 f9 80 38
       4.9865e-06 6.823123e-05 6.272073e-05 6.149982e-05
0000d0 35 86 37 32 1c 75 ad 33 bd 1d ac 33 48 7b c2 33
       1.0682517e-08 8.077242e-08 8.0147835e-08 9.056254e-08
0000e0 cd 33 06 32 c3 d1 a4 34 38 e5 bc 34 ab b3 d6 34
       7.811605e-09 3.0700002e-07 3.5184507e-07 3.9991332e-07
0000f0 a1 d4 cf 32 65 e1 03 36 5c 5b 15 36 45 4a 1d 36
       2.4194664e-08 1.9651718e-06 2.2255908e-06 2.3438054e-06
000100 1b 81 72 36 99 20 9e 38 aa f3 9f 38 f2 2b a5 38
       3.613596e-06 7.540099e-05 7.627097e-05 7.8759986e-05
000110 92 7b 93 32 bf 72 14 35 f7 44 4a 35 59 ef 36 35
       1.7169246e-08 5.5301274e-07 7.535122e-07 6.814858e-07
000120 f7 88 03 34 0e 63 14 35 84 11 21 35 d8 83 34 35
       1.2250153e-07 5.527844e-07 6.000266e-07 6.7247083e-07
000130 31 13 19 35 77 1f 32 38 16 d1 3a 38 22 e4 3d 38
       5.702487e-07 4.246781e-05 4.4540582e-05 4.5273577e-05
000140 07 1d 0b 31 a6 83 b4 35 5f f8 ab 35 f0 bb a5 35
       2.0243662e-09 1.344936e-06 1.2812778e-06 1.2348155e-06
000150 49 96 d9 33 d1 03 8d 37 57 45 7c 37 af d9 79 37
       1.0132187e-07 1.6810287e-05 1.5036515e-05 1.489224e-05
000160 c5 fa 9d 30 cb b1 51 33 d2 8f 2a 33 4b d4 c9 32
       1.1494526e-09 4.8823306e-08 3.9712013e-08 2.349602e-08
000170 60 b5 03 31 54 70 12 34 f2 30 47 34 08 96 38 34
       1.9166109e-09 1.3638174e-07 1.8551125e-07 1.7190916e-07
000180 fd 56 fb 32 ae a2 ae 35 6a 0a d1 35 97 c3 ec 35
       2.9259803e-08 1.3011356e-06 1.5574744e-06 1.7640294e-06
000190 d1 60 7b 35 5b e6 80 36 6f 70 6e 36 a6 dd 51 36
       9.3645673e-07 3.841514e-06 3.5530209e-06 3.1272443e-06
0001a0 e3 9f 59 35 65 a0 0b 37 bf 17 15 37 7e 30 15 37
       8.1071465e-07 8.32239e-06 8.886621e-06 8.8923825e-06
0001b0 61 37 5e 33 5e 98 27 35 5f 1c 3a 35 32 78 4e 35
       5.173877e-08 6.243407e-07 6.9331685e-07 7.691589e-07
0001c0 f6 f0 12 32 1c 7a 85 34 c9 a8 bb 34 80 2b 00 35
       8.553107e-09 2.4862027e-07 3.4954272e-07 4.7747017e-07
0001d0 a5 23 24 35 08 31 bd 37 6d 46 b6 37 44 06 a1 37
       6.114663e-07 2.2553388e-05 2.1728885e-05 1.9195613e-05
0001e0 d0 86 06 36 c5 7b 64 38 1c db 76 38 dd 4f 80 38
       2.0046027e-06 5.4474705e-05 5.8855032e-05 6.118391e-05
0001f0 37 5a 32 34 02 46 f7 35 ed 2d 04 36 21 f0 02 36
       1.6610362e-07 1.8423309e-06 1.9696265e-06 1.9511283e-06
000200 e4 09 86 33 d0 3e 65 36 3f 47 6e 36 b0 47 78 36
       6.24166e-08 3.416022e-06 3.5506234e-06 3.6996607e-06
000210 dd 11 2b 31 7f 2c c3 34 de 2b d2 34 cf 5c c6 34
       2.489393e-09 3.6353956e-07 3.9147466e-07 3.69479e-07
000220 c8 dc d5 32 60 25 88 35 7b 2a 94 35 70 94 a0 35
       2.4896863e-08 1.0143667e-06 1.1039223e-06 1.196413e-06
000230 26 97 57 31 52 80 5a 35 36 07 1a 35 d0 3b 3d 35
       3.1372536e-09 8.139806e-07 5.7379964e-07 7.0495025e-07
000240 b3 af 1f 34 3f 17 18 36 76 68 1b 36 77 1a 13 36
       1.4871948e-07 2.2663296e-06 2.3157604e-06 2.1920112e-06
000250 0e 43 b1 34 2e 47 04 37 96 1d 00 37 64 71 05 37
       3.3017608e-07 7.884386e-06 7.636283e-06 7.953819e-06
000260 7e 42 e9 32 39 6a e9 35 82 ee f6 35 21 88 07 36
       2.7155007e-08 1.7390768e-06 1.8397843e-06 2.0195805e-06
000270 8f 4c 49 36 e0 fc b7 38 cb 89 ce 38 eb 11 e6 38
       2.9995897e-06 8.7732216e-05 9.8485114e-05 0.00010970592
000280 b5 9f b4 33 1d 0d dc 35 a8 4b b2 35 ef a5 bf 35
       8.410954e-08 1.6395094e-06 1.3284052e-06 1.4278902e-06
000290 94 6f ec 33 d4 fa bb 36 db 2f ce 36 19 de d5 36
       1.1009902e-07 5.6022345e-06 6.1448495e-06 6.3737502e-06
0002a0 db 0d 25 34 d9 90 ae 37 ee b7 ac 37 94 8b a8 37
       1.5371863e-07 2.0809866e-05 2.0589647e-05 2.0092157e-05
0002b0 37 d0 14 32 58 84 86 34 10 cb 98 34 e9 e2 9a 34
       8.662076e-09 2.5055738e-07 2.8459954e-07 2.8849834e-07
0002c0 68 4c e2 32 4b 1e ea 35 f6 44 f3 35 b9 98 f5 35
       2.6344608e-08 1.7443175e-06 1.8124981e-06 1.8298371e-06
0002d0 93 72 82 34 6d 3f ca 36 a9 33 d4 36 d8 54 e2 36
       2.429775e-07 6.027453e-06 6.3241064e-06 6.745202e-06
0002e0 2c a3 ad 33 36 c0 51 35 e4 21 2a 35 8a 1a 0a 35
       8.085621e-08 7.813827e-07 6.337925e-07 5.1447626e-07
0002f0 1e 70 2b 32 b3 99 ba 35 91 4e bb 35 62 5c b8 35
       9.9790025e-09 1.3902812e-06 1.3955452e-06 1.3735955e-06
000300 cf ec c1 35 c2 29 1b 3a 1b b2 27 3a 77 8d 37 3a
       1.4448541e-06 0.0005919003 0.0006397084 0.0007001976
000310 da 39 0d 32 ba 01 f8 35 e7 39 e9 35 13 b9 e5 35
       8.220434e-09 1.8477942e-06 1.7376705e-06 1.7115693e-06
000320 6d 21 5e 35 81 f3 57 38 b6 e2 71 38 9d cd 88 38
       8.2750086e-07 5.1486775e-05 5.767002e-05 6.523284e-05
000330 cb 29 17 32 eb b2 7f 35 66 eb 84 35 ab 8c 8d 35
       8.798859e-09 9.525526e-07 9.903276e-07 1.0546258e-06
000340 8c 63 88 33 79 83 b6 35 bb df b2 35 99 5a 8f 35
       6.351101e-08 1.359832e-06 1.3327148e-06 1.0680698e-06
000350 0e cc 6a 32 06 f4 8e 36 b4 52 a5 36 c3 11 8b 36
       1.3666989e-08 4.260338e-06 4.927011e-06 4.1445905e-06
000360 91 a4 1d 37 a8 49 36 3a 94 70 2a 3a 08 92 26 3a
       9.396245e-06 0.00069537247 0.0006501761 0.0006354158
000370 f0 ac 9f 35 6f ab 7f 39 97 ce 80 39 bd a7 83 39
       1.1896755e-06 0.00024382559 0.00024567984 0.00025111242
000380 77 e9 20 34 8e 3b 1e 38 01 d1 20 38 7f 02 28 38
       1.4986095e-07 3.77256e-05 3.8341623e-05 4.0056646e-05
000390 5f 08 12 35 f7 af 35 38 85 b4 3a 38 78 ab 3c 38
       5.440142e-07 4.3317643e-05 4.4513978e-05 4.4982386e-05
0003a0 34 76 aa 33 6a 16 15 37 fd 39 18 37 f4 91 24 37
       7.937743e-08 8.886311e-06 9.073407e-06 9.809144e-06
0003b0 fb 6b 65 30 8e 09 6f 33 7a f4 23 33 06 38 63 33
       8.3463164e-10 5.5655214e-08 3.8173745e-08 5.290351e-08
0003c0 97 48 92 36 b0 0e 41 38 fb 69 34 38 f7 47 2f 38
       4.3595896e-06 4.6028465e-05 4.3014046e-05 4.1790274e-05
0003d0 60 bd 10 33 8d ca c3 34 bf 56 c8 34 f6 84 e1 34
       3.369985e-08 3.6468955e-07 3.731602e-07 4.2006258e-07
0003e0 20 d5 00 34 80 75 03 36 48 94 16 36 35 22 2e 36
       1.1998463e-07 1.9588915e-06 2.2438053e-06 2.5947932e-06
0003f0 cd a9 2b 33 8d 0a ca 36 0d 2f d4 36 f6 81 e4 36
       3.9968473e-08 6.0212974e-06 6.32357e-06 6.810059e-06

exp_avg f4 [192, 48]
000000 5f 39 04 3a f0 55 8c 37 37 15 d3 39 eb 2a 0a b9
       0.00050439493 1.6729318e-05 0.00040260862 -0.00013176694
000010 22 f4 af 38 55 5b 1f b9 b0 3a e4 b9 ee 76 13 ba
       8.3901235e-05 -0.00015197445 -0.00043531274 -0.0005625327
000020 2f cc 8a 39 fb 25 9a b8 20 6f dc b5 a4 3e 84 b9
       0.0002647354 -7.350367e-05 -1.6423619e-06 -0.00025223673
000030 a9 fc fc 39 64 96 68 b8 64 6a 44 38 49 d6 18 b9
       0.00048253432 -5.5453173e-05 4.6829125e-05 -0.00014575677
000040 7f 5a 09 38 40 06 d0 39 14 9a 81 ba 74 64 6e 38
       3.2747626e-05 0.00039677508 -0.0009887838 5.6837176e-05
000050 3d 1c 77 b9 9a ad e0 38 3f 43 9e b9 5b 4f 03 3a
       -0.00023566275 0.00010713488 -0.0003018621 0.00050090783
000060 6d c5 ac 38 3f fe 74 b7 d9 0e f0 b9 15 dc 12 b9
       8.2383725e-05 -1.460273e-05 -0.0004578743 -0.00014005632
000070 43 9b ea 38 b2 e1 37 b9 c4 50 72 39 dc ab ca 39
       0.00011186909 -0.00017536318 0.00023109006 0.00038656488
000080 cb 8a 43 38 d4 a2 50 39 b0 36 b9 b9 e2 32 52 b9
       4.6620884e-05 0.00019897084 -0.00035326695 -0.00020046116
000090 51 05 87 39 0a 1d 66 b9 5d 5a 5b 39 c0 84 a2 b9
       0.00025753168 -0.00021945327 0.0002091913 -0.00030997954
0000a0 d3 fa af 38 48 a6 db b9 7b 3d 08 3a 6c 6f 3f 39
       8.39137e-05 -0.00041894824 0.00051971496 0.00018256687
0000b0 c5 d0 26 b9 03 00 ca 37 0e 08 d8 38 ea b4 83 39
       -0.00015908766 2.4080282e-05 0.00010301183 0.0002512106
0000c0 58 5d 1c 39 1a 86 1c 36 c8 dd 2b 39 3c 58 2a b8
       0.00014912093 2.3323869e-06 0.00016390451 -4.0613333e-05
0000d0 a4 d8 c9 37 a0 db 82 37 6f 15 e1 b7 3b b6 f6 b8
       2.4061948e-05 1.5599479e-05 -2.6832071e-05 -0.00011764137
0000e0 43 37 36 38 a3 96 8f 38 05 50 d0 b7 d6 03 04 b3
       4.3443648e-05 6.84683e-05 -2.4832794e-05 -3.0737134e-08
0000f0 92 95 dd 38 4c 9b fa b8 bb d8 35 b7 45 77 09 b7
       0.00010565961 -0.00011949855 -1.0838902e-05 -8.193606e-06
000100 27 1a 99 b7 e9 ad c9 b7 72 bd ce b8 e8 94 01 b9
       -1.82512e-05 -2.404205e-05 -9.8581324e-05 -0.0001235787
000110 38 ef a5 b8 54 bb d3 37 b5 b8 0b b8 f0 b7 32 39
       -7.912371e-05 2.5240392e-05 -3.3312204e-05 0.00017043925
000120 1e cb 81 37 26 03 62 38 29 94 11 b8 46 14 f5 b7
       1.5472582e-05 5.388553e-05 -3.470868e-05 -2.9215716e-05
000130 f7 1f 12 b6 17 9a 71 b8 3d a1 e7 38 8d 7b 3d 39
       -2.1774301e-06 -5.7602385e-05 0.00011044971 0.00018070471
000140 bc b6 74 37 8e a3 b5 38 94 51 25 b8 de 5f 1e 37
       1.45860795e-05 8.661217e-05 -3.941504e-05 9.439855e-06
000150 f3 1b 18 38 3f 35 e0 b7 6f 49 00 39 9d 4b 12 38
       3.6265654e-05 -2.6727676e-05 0.00012234387 3.4879533e-05
000160 7b 4a 12 b7 b6 02 18 b9 2d 5e 26 38 db 0c 10 39
       -8.7196195e-06 -0.0001449686 3.9665192e-05 0.00013737699
000170 2c 7b b9 37 8e b2 10 38 47 5c a8 b8 b9 6d 97 38
       2.2111075e-05 3.4498567e-05 -8.028052e-05 7.2206785e-05
000180 a0 52 c5 b9 f4 81 9b b7 ec 25 d2 38 21 66 82 b8
       -0.00037636328 -1.8537954e-05 0.00010020644 -6.217906e-05
000190 14 be dd b6 04 a9 a6 37 e1 e6 e1 37 fd bf 7c 39
       -6.6084413e-06 1.9867446e-05 2.6929602e-05 0.00024104114
0001a0 18 fb 29 b8 e7 ee 92 b9 cf c5 86 38 99 8a 50 b9
       -4.052659e-05 -0.00028025286 6.426463e-05 -0.00019888057
0001b0 8c 87 7a b9 70 f7 99 39 ac f2 89 38 45 4b fa b7
       -0.00023892353 0.0002936679 6.57787e-05 -2.9837372e-05
0001c0 25 22 2c b8 f5 11 22 38 c3 64 fc b8 50 19 69 39
       -4.1039795e-05 3.8640534e-05 -0.00012035065 0.00022230041
0001d0 59 c7 20 b6 87 05 df b8 f2 e9 c2 b9 d5 4b d8 b9
       -2.3957894e-06 -0.00010634498 -0.00037176866 -0.0004125523
0001e0 1e 58 c7 b8 a5 21 2d b9 a4 0e dd b8 21 a5 0f 39
       -9.5054726e-05 -0.00016511099 -0.00010540828 0.00013699058
0001f0 66 5d 2c b7 b9 3e 4c 39 40 86 63 b9 5d 0c ca b9
       -1.0273745e-05 0.00019478322 -0.00021698419 -0.00038537654
000200 d1 cf ef 38 59 d2 9d b8 10 d8 5a b9 da e4 91 b7
       0.00011435117 -7.525524e-05 -0.0002087059 -1.7391914e-05
000210 b9 8a 98 37 9c af 00 b8 78 c4 59 b9 09 90 08 b9
       1.818441e-05 -3.0681127e-05 -0.00020767923 -0.00013023628
000220 c4 ff 20 38 ac 3f a2 39 7f 97 8d b9 e2 16 a7 b9
       3.8385173e-05 0.00030946487 -0.0002700649 -0.0003186977
000230 a7 4d 52 b8 7f 8c 74 b8 49 6f 2a 38 f2 fe 22 b9
       -5.014022e-05 -5.830498e-05 4.06348e-05 -0.00015544498
000240 21 d6 e2 38 ba 38 95 37 53 21 c5 38 ae f0 91 b8
       0.000108164044 1.77886e-05 9.399899e-05 -6.958969e-05
000250 de 14 6a b6 1f 16 1f b7 b7 1e c7 b7 ea 5a 9e b8
       -3.4880863e-06 -9.482289e-06 -2.3736951e-05 -7.550961e-05
000260 bd 5b 2b 38 51 02 e4 37 65 06 62 36 c3 bc 85 37
       4.0855015e-05 2.7180797e-05 3.3680346e-06 1.5942735e-05
000270 42 5b 0c 38 91 46 c4 b8 ba 87 d3 36 b1 ef e1 37
       3.346359e-05 -9.359152e-05 6.3040907e-06 2.6933705e-05
000280 87 c2 49 b7 73 1b 4b b8 c9 81 17 b7 26 6f fe b8
       -1.20258255e-05 -4.8424536e-05 -9.030519e-06 -0.00012132367
000290 48 b0 ee b7 81 2c f3 37 81 65 01 39 e7 80 e6 38
       -2.8453898e-05 2.8988581e-05 0.00012340212 0.000109912646
0002a0 32 5a 1b b8 8e b9 54 38 f5 8c ff b7 3b 84 0e b7
       -3.703888e-05 5.071755e-05 -3.0464007e-05 -8.494647e-06
0002b0 64 11 42 b7 b6 bc c9 b7 9d b0 d6 38 c8 fb d1 38
       -1.156735e-05 -2.4048943e-05 0.00010237212 0.000100127945
0002c0 ea 8d a7 b8 08 b7 9b 38 5d 46 06 b8 7e aa 01 38
       -7.989614e-05 7.425068e-05 -3.201362e-05 3.091478e-05
0002d0 77 cf 56 38 a4 7c bc b7 c8 47 db 38 73 24 d4 37
       5.1214793e-05 -2.2469387e-05 0.00010456104 2.5289342e-05
0002e0 1f 3b 60 38 08 ad cc b8 1f 8f 55 37 4d 48 9d 38
       5.3460823e-05 -9.7597076e-05 1.2729112e-05 7.4998105e-05
0002f0 b3 d1 42 38 b7 76 3d 37 48 11 3e b8 14 72 37 38
       4.6448502e-05 1.1292918e-05 -4.5315624e-05 4.3736844e-05
000300 67 9e 4b 39 69 7b 4d 37 c1 98 70 38 b9 68 76 b7
       0.00019418598 1.2247686e-05 5.7362722e-05 -1.4687125e-05
000310 20 fd cd 37 70 3e 17 37 41 83 dd b7 d6 06 13 b9
       2.4555775e-05 9.014839e-06 -2.6406373e-05 -0.00014021559
000320 a5 84 46 38 6a fb b2 38 ee 9c 98 36 cb 79 11 37
       4.7330414e-05 8.534531e-05 4.548222e-06 8.671031e-06
000330 1a c5 9d 38 df b7 0a b9 15 af 2b b7 43 b9 ff 37
       7.5230564e-05 -0.00013229203 -1.0233159e-05 3.0484638e-05
000340 c6 94 10 b7 60 f1 b7 b7 bc bf a4 b8 16 3a 0b b9
       -8.617708e-06 -2.1927699e-05 -7.855843e-05 -0.00013277712
000350 0d 43 74 b7 3c 19 32 38 c1 78 10 b8 ff 9a 4d 39
       -1.4559145e-05 4.246201e-05 -3.4444736e-05 0.00019608064
000360 1c 56 da b6 89 65 71 38 82 e5 c1 b7 51 ea 6d b8
       -6.5069307e-06 5.755344e-05 -2.3114266e-05 -5.6723427e-05
000370 cd eb 1b b5 f9 35 a3 b8 0e 9c 02 39 91 b6 47 39
       -5.8085135e-07 -7.782499e-05 0.00012455901 0.0001904613
000380 14 30 91 b7 1a bf 67 38 e1 67 57 37 7f 9a c8 34
       -1.7307735e-05 5.525267e-05 1.2839185e-05 3.7365314e-07
000390 ba e2 7b 37 34 96 ff b7 d2 a1 05 39 3c dc d6 37
       1.5013555e-05 -3.0468313e-05 0.00012744151 2.5613343e-05
0003a0 28 79 23 38 f9 6f 31 b9 4c 83 b7 38 a0 d4 fa 38
       3.8975064e-05 -0.00016921748 8.750576e-05 0.000119605334
0003b0 2f de b8 b6 96 6e e8 37 a7 52 fb b7 d7 62 79 38
       -5.509493e-06 2.770805e-05 -2.996002e-05 5.9458278e-05
0003c0 04 72 eb 3a 8b 9e 66 b7 94 18 5b 3a 50 ff 58 b9
       0.0017963056 -1.3745982e-05 0.00083578494 -0.00020694477
0003d0 9d d8 e4 39 34 89 4e b9 45 4f 44 ba a0 19 c4 ba
       0.00043648938 -0.00019696803 -0.0007488619 -0.001496125
0003e0 0d da 38 3a a2 89 fe 39 40 a3 4a b8 65 38 af b9
       0.0007051535 0.000485492 -4.831259e-05 -0.00033420618
0003f0 e8 28 21 3a 15 e5 7f ba 25 c3 e4 37 0e 63 0a b9
       0.0006147758 -0.0009761614 2.727059e-05 -0.00013197606
