python/logs/tensorboard/amp_model/3_targets_LSTM40_pwr_GRU8/epoch=311-step=67392.ckpt (torch, 178755 bytes, 30 tensors)

preamp.model.rec.weight_ih_l0 f4 [160, 1]
0.3457896 0.37727123 1.3642024 0.030095166 -0.8557535 -1.3666278 0.41818607 0.57296103
0.13473439 -0.07174869 2.0134702 0.07823227 -0.5019412 -0.36227858 -0.05075567 0.10137813
-0.11465842 1.461829 -0.35287854 0.27513462 0.16407187 -1.0281974 -0.00021257742 1.2042997
1.4671346 0.28170484 -0.00036275087 0.21937238 -0.17840014 0.056004 -0.24716707 0.2785586
-0.432133 0.34058335 -0.5427694 0.39553583 0.14622128 -0.0144620575 0.08350653 -0.82246643
0.03220789 0.7386621 1.8282675 0.69199926 -0.56342137 -1.5137749 0.1983101 0.2963569
0.28099027 -0.20527048 1.2344131 -1.1510695 -0.89543617 -0.10144053 -0.4197733 0.18760173
0.35123485 0.42946297 0.4060556 0.59220845 0.30434927 -0.6715344 -0.2165044 0.8046047
1.3199673 0.6524722 -0.27006793 -0.1520261 -0.63560003 -0.5596921 -0.1229173 0.6101953
-0.62726504 0.38646474 -0.9827825 0.27358243 -0.028007625 -0.17063284 0.19628802 -1.2106674
0.72148794 0.36372155 -3.9267263 2.6252496 -0.09512196 1.153915 0.9974459 -0.29758415
1.7225789 -0.690712 -0.67867774 2.0190473 0.35665363 -0.44226816 -0.3998426 0.35128978
1.0214517 -1.6537384 -1.3425668 -0.13373479 -1.5157695 -1.5067436 0.5866602 -0.695091
-1.5971673 0.5757095 -0.20102398 0.31203085 0.6039643 -0.4201716 -0.082709484 0.5577522
0.66985345 0.22340493 -0.2284497 0.2358017 -0.4110155 0.60409504 0.8436532 -0.7963844
0.23641488 -0.037135694 0.026035309 -0.88268304 -0.86573184 -2.9202309 -0.14627025 -0.048032474
-0.031530567 0.07969229 1.9100674 -0.22683617 -1.0873622 0.26494977 -0.53810376 0.11376638
-0.28247523 1.5814451 1.8486446 0.71715415 -0.98105556 -0.5635571 -0.28088984 0.46629477
1.748939 0.15282245 -0.67789054 0.9104681 -1.2596477 -0.19147241 -0.034994226 0.7400715
-0.7867436 0.78135 -0.41901565 0.013107574 -0.186699 0.3713793 -0.07759334 -1.3769408
00000000: 560b b13e b229 c13e 2f9e ae3f 238a f63c
00000010: a912 5bbf a9ed aebf 7c1c d63e 93ad 123f
00000020: d0f7 093e faf0 92bd b2dc 0040 3e38 a03d
00000030: 387f 00bf 947c b9be 2de5 4fbd 569f cf3d
00000040: 09d2 eabd 361d bb3f 7fac b4be 72de 8c3e
00000050: 7502 283e f99b 83bf 51e7 5eb9 7e26 9a3f
00000060: 11cb bb3f 9e3b 903e 992f beb9 27a3 603e
00000070: 87ae 36be 7364 653d 5d19 7dbe 3c9f 8e3e
00000080: 8940 ddbe f160 ae3e eff2 0abf ac83 ca3e
00000090: 08bb 153e 44f2 6cbc 7905 ab3d 298d 52bf
000000a0: 6cec 033d f618 3d3f ab04 ea3f dd26 313f
000000b0: 623c 10bf 60c3 c1bf ce11 4b3e 17bc 973e
000000c0: f5dd 8f3e 6d32 52be 4001 9e3f 3f56 93bf
000000d0: 4e3b 65bf 0dc0 cfbd 87ec d6be ab1a 403e
000000e0: 0ed5 b33e 92e2 db3e 85e6 cf3e f99a 173f
000000f0: abd3 9b3e aee9 2bbf 54b3 5dbe 93fa 4d3f
00000100: b0f4 a83f 6b08 273f 5846 8abe bbac 1bbe
00000110: afb6 22bf fb47 0fbf 11bc fbbd c235 1c3f
00000120: 7194 20bf b5de c53e a297 7bbf ff12 8c3e
00000130: 3f70 e5bc 60ba 2ebe baff 483e 26f7 9abf
00000140: 6fb3 383f b639 ba3e 7c4f 7bc0 1704 2840
00000150: 4dcf c2bd 7db3 933f 9d58 7f3f f35c 98be
00000160: 777d dc3f 80d2 30bf d3bd 2dbf 1238 0140
00000170: 4e9b b63e f970 e2be 2bb8 ccbe 41dc b33e
00000180: eebe 823f b3ad d3bf 3bd9 abbf c6f1 08be
00000190: bc04 c2bf f9dc c0bf 5d2f 163f 7cf1 31bf
000001a0: fa6f ccbf b361 133f 3bd9 4dbe 82c2 9f3e
000001b0: 689d 1a3f bb20 d7be 9763 a9bd d9c8 0e3f
000001c0: 847b 2b3f 43c4 643e b8ee 69be 0076 713e
000001d0: a070 d2be f9a5 1a3f a8f9 573f d9df 4bbf
000001e0: be16 723e 991b 18bd 0048 d53c 84f7 61bf
000001f0: 9aa0 5dbf 10e5 3ac0 dec7 15be b3bd 44bd
00000200: 3226 01bd b635 a33d 177d f43f be47 68be
00000210: af2e 8bbf 7fa7 873e 2bc1 09bf 59fe e83d
00000220: 98a0 90be cb6c ca3f 63a0 ec3f 6a97 373f
00000230: 7526 7bbf 4745 10bf cbd0 8fbe 30be ee3e
00000240: 3cdd df3f 7d7d 1c3e 3c8a 2dbf 7014 693f
00000250: 233c a1bf 5811 44be 1b56 0fbd 5375 3d3f
00000260: 0768 49bf 8e06 483f 3889 d6be 26c1 563c
00000270: 062e 3fbe 6d25 be3e 42e9 9ebd 993f b0bf

preamp.model.rec.weight_hh_l0 f4 [160, 40]
-0.13035028 0.008437216 0.08950071 -0.43929526 0.0032746107 0.116992004 0.04522151 -0.21097122
-0.17249922 -0.052712243 0.22688255 -0.026450837 -0.14226905 -0.10785958 -0.17004165 0.011276859
0.4241737 -0.22768635 -0.21442123 0.01908356 0.09092513 0.19603173 -0.15648177 0.076137446
-0.20456618 -0.27767867 0.32658547 0.07911135 -0.16018642 0.049293067 -0.1292547 -0.2615898
-0.49065956 0.21450661 0.10870406 -0.060396843 0.12822202 0.067313604 0.061874297 -0.08475565
0.10892748 0.14356345 0.39412504 -0.28649554 -0.033731174 0.20252265 -0.3389377 -0.09051593
0.26768193 0.027165743 0.18366896 0.2763829 -0.48093644 0.12393165 -0.20212889 -0.014549611
0.23016156 0.2524762 0.05806041 -0.16960438 0.02780472 -0.11392566 -0.5794302 0.23096709
0.112367526 -0.0580058 0.077580355 -0.07371378 0.18773979 0.18814532 -0.25062922 0.008628105
-0.24444096 0.116113074 0.3132738 -0.0010365198 -0.13713428 0.47767043 -0.4468382 0.22348668
0.54099894 -0.3827124 -0.042789552 -0.5885118 0.2918386 -0.27298144 -1.3214545 0.63483036
-0.016337065 0.91107947 -0.09776516 -1.0870684 0.39743692 0.1832309 0.43763843 -0.64858425
0.33126882 -0.0033750487 0.113091536 0.21985434 -1.1371331 0.07791644 0.73235786 -0.20837866
-0.19670755 -0.6295852 0.073784575 -0.17331365 0.82830316 0.24459895 -0.6414575 0.28386706
0.82166785 -0.5086906 0.0648055 0.92206466 0.14422666 -0.2884897 -0.5562143 0.0703678
0.24833898 -0.17129478 -0.9446654 -0.21071774 0.6758255 -1.2687013 -0.20450787 0.3259754
0.61943686 0.5457246 -0.8751967 1.286196 0.24868329 -0.5509131 0.10209034 -0.68018997
-0.08889065 -0.669165 -0.813003 0.84353215 -0.042992767 0.90161383 -0.8085597 -1.4864925
-1.0829123 -0.21679834 0.5202669 0.70492774 -0.37320432 -0.08752204 0.90757406 1.1874306
-0.29237762 -0.2711893 0.8699365 1.1340802 0.77788234 -0.69639707 0.8478919 0.6282535
0.23254775 0.11943482 -0.1666879 0.33045366 -0.0056821513 -0.14465147 -0.51805496 0.0919383
0.28497636 0.10042212 0.007360012 -0.1598401 0.1479296 -0.10283514 -0.048941277 -0.2630142
-0.3022141 -0.0144634545 0.1312618 -0.052964278 0.2099472 0.24009648 0.094622605 -0.21657445
0.3290945 0.046404798 -0.057506565 -0.29239348 0.18768051 -0.046809893 -0.04117947 -0.5381863
0.14568695 -0.10793038 0.12597209 -0.15223905 0.06984212 0.17297679 0.071799085 -0.24847245
0.28634167 -0.28406867 -0.49764222 0.32972553 0.08572136 -0.06730277 0.1352158 0.24024852
0.36295024 0.18180308 -0.16555326 -0.3055596 0.30692658 -0.1695903 0.42241395 -0.2084993
-0.7134243 -0.6477914 -0.17055288 0.3182635 -0.36486813 0.27950352 0.2435793 -0.29860386
-0.33973446 -0.12984988 0.15201421 0.21849157 -0.12029491 -0.75154525 0.38000208 0.5913661
-0.42972857 -0.12188487 -0.14806017 0.33826268 0.3420909 -0.7128659 0.40668532 0.29067487
-0.21422108 -0.23476054 0.13916098 -0.22811593 -0.26202336 0.16048291 -0.2377545 -0.39286035
-0.19038194 -0.33124167 0.22341658 0.4224538 0.188411 0.27459413 -0.3630994 0.3266291
00000000: 8b7a 05be 403c 0a3c 264c b73d 4feb e0be
00000010: da9a 563b 8199 ef3d 313a 393d d708 58be
00000020: a3a3 30be cbe8 57bd e653 683e 6daf d8bc
00000030: faae 11be 7ce5 dcbd 661f 2ebe 93c2 383c
00000040: 4c2d d93e 9c26 69be 3d91 5bbe 2055 9c3c
00000050: f436 ba3d 8bbc 483e c23c 20be f3ed 9b3d
00000060: cc79 51be e62b 8ebe 3636 a73e 2205 a23d
00000070: e907 24be 87e7 493d 585b 04be 19ef 85be
00000080: bb37 fbbe 9fa7 5b3e 3ca0 de3d ae62 77bd
00000090: a24c 033e b7db 893d e76f 7d3d 5f94 adbd
000000a0: 5f15 df3d 4c02 133e c2ca c93e 8baf 92be
000000b0: b329 0abd 1962 4f3e 3e89 adbe 6a60 b9bd
000000c0: 9b0d 893e b18a de3c b713 3c3e 0f82 8d3e
000000d0: 4d3d f6be e0cf fd3d e0fa 4ebe 7e61 6ebc
000000e0: 79af 6b3e 8f44 813e c1d0 6d3d c5ac 2dbe
000000f0: b9c6 e33c db51 e9bd 8a55 14bf a382 6c3e
00000100: f220 e63d 7d97 6dbd 73e2 9e3d 40f7 96bd
00000110: dc3e 403e 2ba9 403e 7952 80be e55c 0d3c
00000120: bb4e 7abe b1cc ed3d 6c65 a03e d5db 87ba
00000130: ee6c 0cbe 3891 f43e fac7 e4be b1d9 643e
00000140: e87e 0a3f e1f2 c3be 1944 2fbd b6a8 16bf
00000150: de6b 953e 39c4 8bbe 6c25 a9bf 3e84 223f
00000160: 4fd5 85bc 813c 693f 1a39 c8bd 0f25 8bbf
00000170: da7c cb3e e2a0 3b3e 2512 e03e 9e09 26bf
00000180: 119c a93e ec2f 5dbb 899c e73d 7f21 613e
00000190: 948d 91bf a892 9f3d ce7b 3b3f 3761 55be
000001a0: b46d 49be 7f2c 21bf 5e1c 973d 2279 31be
000001b0: ad0b 543f 2678 7a3e 8f36 24bf 0657 913e
000001c0: d358 523f 8c39 02bf bfb8 843d 6e0c 6c3f
000001d0: 27b0 133e ecb4 93be 0f64 0ebf fe1c 903d
000001e0: 934c 7e3e e667 2fbe 97d5 71bf 64c6 57be
000001f0: e602 2d3f ce64 a2bf 836a 51be 3fe6 a63e
00000200: 6a93 1e3f 9bb4 0b3f e40c 60bf 12a2 a43f
00000210: d5a6 7e3e a408 0dbf bd14 d13d ee20 2ebf
00000220: 4d0c b6bd 664e 2bbf f720 50bf b9f1 573f
00000230: 2f19 30bd 2ad0 663f c5fd 4ebf 6345 bebf
00000240: df9c 8abf 6200 5ebe 3630 053f 2576 343f
00000250: a314 bfbe c13e b3bd c656 683f bafd 973f
00000260: 85b2 95be 53d9 8abe 29b4 5e3f 8a29 913f
00000270: 4c23 473f 1447 32bf 720f 593f 39d5 203f
00000280: ff20 6e3e 3e9a f43d 3cb0 2abe 3931 a93e
00000290: 5731 babb 841f 14be 409f 04bf 264a bc3d
000002a0: 6ce8 913e 1daa cd3d 412c f13b 20ad 23be
000002b0: db7a 173e 3b9b d2bd a676 48bd cca9 86be
000002c0: cebb 9abe 20f8 6cbc 7e69 063e 12f1 58bd
000002d0: 66fc 563e dadb 753e 7fc9 c13d b1c5 5dbe
000002e0: 137f a83e f512 3e3d 018c 6bbd 99b4 95be
000002f0: 522f 403e bbbb 3fbd ceab 28bd 94c6 09bf
00000300: f62e 153e 9a0a ddbd d4fe 003e 8ee4 1bbe
00000310: 6309 8f3d d420 313e 660b 933d 906f 7ebe
00000320: 609b 923e 7371 91be f6ca febe c9d1 a83e
00000330: ae8e af3d 09d6 89bd 0376 0a3e b503 763e
00000340: 9dd4 b93e 962a 3a3e cb86 29be 4f72 9cbe
00000350: 7b25 9d3e 14a9 2dbe a446 d83e d780 55be
00000360: faa2 36bf a8d5 25bf 6aa5 2ebe 6ff3 a23e
00000370: ffcf babe 161b 8f3e da6c 793e 9be2 98be
00000380: adf1 adbe 5ef7 04be 9da9 1b3e 41bc 5f3e
00000390: 2e5d f6bd 4565 40bf a28f c23e c563 173f
000003a0: 6205 dcbe c69e f9bd 169d 17be c430 ad3e
000003b0: 8a26 af3e 617e 36bf 0f39 d03e 56d3 943e
000003c0: c55c 5bbe 1165 70be 3780 0e3e 3997 69be
000003d0: ed27 86be a255 243e ea75 73be fe24 c9be
000003e0: 7cf3 42be 8298 a9be 51c7 643e dd4b d83e
000003f0: d0ee 403e 9a97 8c3e 2ae8 b9be ee3b a73e

preamp.model.rec.bias_ih_l0 f4 [160]
0.11575147 -0.12693083 -0.005506781 0.71781695 0.07633151 0.37057793 -0.20974094 -0.06463714
0.15838002 -0.033788092 0.21247278 0.36237693 -0.21337903 0.2521116 0.13860483 0.09861148
-0.21227385 0.45417804 0.17929533 -0.008133802 0.419221 0.20331992 -0.035728227 0.39618835
-0.004445189 0.24546196 -0.3877594 0.016073333 -0.20080604 -0.5491698 0.2501152 -0.4462388
0.0647457 0.17494772 -0.11256582 -0.27447584 -0.05470129 0.15084927 0.09113205 0.13548578
0.011627591 -0.02918925 -0.13567685 0.027202858 0.23950173 -0.110276535 0.39737037 0.1565792
-0.10108171 0.031527076 -0.03050329 -0.19360232 0.09915685 0.029049013 0.19695519 0.1710274
0.21360621 -0.14108379 -0.08595013 0.0037441459 0.19728735 0.27437997 0.08537637 0.033940386
-0.06531667 -0.32550347 0.49639386 0.1976409 0.44218355 0.6663298 0.0033774443 0.2010075
0.2232082 -0.088270955 -0.034336433 0.25468624 0.032965742 0.09663719 -0.06552044 0.104999945
0.25322652 0.09436487 -0.2666783 -0.08387834 0.27321473 -0.16414903 -0.07459046 0.011990259
0.23971082 0.20115568 -0.22398692 -0.22767644 0.019825894 -0.3107812 0.18732896 -0.13289085
0.16972372 -0.12241312 -0.116179354 0.20044906 -0.1120887 0.30824745 -0.08709784 -0.18825303
-0.17147674 0.07766235 0.09030271 0.1405244 -0.12727337 -0.08139204 0.23987676 0.021118341
-0.054573424 -0.19760492 0.11627105 -0.054107778 0.2861984 -0.05064257 0.0048673716 -0.041573722
-0.066131555 0.03692636 0.48139283 0.86985487 0.06244743 0.28379744 0.20090076 0.08013698
0.014548601 0.40534765 0.35071987 0.5519235 -0.04255445 0.16310713 0.32216522 0.06966728
0.10270838 0.46894288 -0.06902152 0.06544519 0.26437956 0.11969435 -0.2307678 0.057289887
-0.0127462335 0.085706405 0.2005959 0.31989306 0.21737382 0.24221922 0.49870652 -0.005499674
0.071318574 0.043964833 0.0015402414 0.59735614 0.036346905 0.052541174 -0.12236187 0.16399421
00000000: 1b0f ed3d 28fa 01be 3a72 b4bb dac2 373f
00000010: b253 9c3d 64bc bd3e 54c6 56be 7a60 84bd
00000020: 5f2e 223e 6265 0abd 7792 593e 7889 b93e
00000030: 0880 5abe c614 813e 6dee 0d3e d1f4 c93d
00000040: 515e 59be 068a e83e 3299 373e a343 05bc
00000050: 23a4 d63e 1933 503e c357 12bd 33d9 ca3e
00000060: f3a8 91bb 615a 7b3e 6688 c6be 39ac 833c
00000070: 19a0 4dbe 6496 0cbf 190f 803e 6979 e4be
00000080: 6599 843d 7f25 333e e988 e6bd 1988 8cbe
00000090: 760e 60bd 3b78 1a3e 71a3 ba3d c9bc 0a3e
000000a0: a781 3e3c 4b1e efbc dfee 0abe 87d8 de3c
000000b0: f13f 753e aad8 e1bd 2174 cb3e 4c56 203e
000000c0: ed03 cfbd 8922 013d 09e2 f9bc b03f 46be
000000d0: bf12 cb3d 32f8 ed3c 9fae 493e cf21 2f3e
000000e0: 96bb 5a3e 4578 10be 9f06 b0bd 5860 753b
000000f0: b205 4a3e 887b 8c3e ced9 ae3d 1305 0b3d
00000100: bfc4 85bd 64a8 a6be 5627 fe3e 6062 4a3e
00000110: e265 e23e 9794 2a3f 1d58 5d3b e9d4 4d3e
00000120: b190 643e 67c7 b4bd 5ca4 0cbd 3c66 823e
00000130: 1607 073d b8e9 c53d 952f 86bd 360a d73d
00000140: e8a6 813e 5e42 c13d 0f8a 88be 68c8 abbd
00000150: cde2 8b3e af16 28be e2c2 98bd cb72 443c
00000160: c176 753e c1fb 4d3e d45c 65be 0324 69be
00000170: ea69 a23c b71e 9fbe 2ad3 3f3e 8a14 08be
00000180: 0ecc 2d3e bbb3 fabd 71ef edbd 8542 4d3e
00000190: c38e e5bd 9cd2 9d3e 5a60 b2bd 67c5 40be
000001a0: 9997 2fbe 700d 9f3d a1f0 b83d a1e5 0f3e
000001b0: f353 02be dfb0 a6bd 41a2 753e 5f00 ad3c
000001c0: 6288 5fbd f258 4abe 841f ee3d 1ea0 5dbd
000001d0: 9988 923e 956e 4fbd 797e 9f3b 3549 2abd
000001e0: fb6f 87bd 1840 173d 1f79 f63e cfae 5e3f
000001f0: e0c8 7f3d e64d 913e eeb8 4d3e db1e a43d
00000200: 415d 6e3c ba89 cf3e 8e91 b33e dc4a 0d3f
00000210: 934d 2ebd 8e05 273e d7f2 a43e b8ad 8e3d
00000220: c558 d23d 4819 f03e 285b 8dbd 2108 863d
00000230: c25c 873e 5022 f53d 654e 6cbe cda8 6a3d
00000240: 94d5 50bc d786 af3d 0369 4d3e 06c9 a33e
00000250: 3e97 5e3e 5108 783e 7656 ff3e 9c36 b4bb
00000260: 790f 923d 7814 343d ede1 c93a 55ec 183f
00000270: 7ee0 143d 6a35 573d dc98 fabd 19ee 273e

preamp.model.rec.bias_hh_l0 f4 [160]
0.18139467 -0.06287975 0.03623239 0.9181905 0.19598831 0.28624916 -0.30178744 -0.19022334
0.12531503 -0.08643802 0.33764982 0.32411903 -0.18746158 0.1833407 0.32306433 -0.09792798
-0.20699117 0.6033059 0.3676816 0.068746336 0.37523174 0.17379488 -0.047431163 0.1674937
-0.1299506 0.039759424 -0.2509582 0.0049109566 -0.14650531 -0.37679037 0.21078089 -0.35502127
0.120492354 -0.0412536 0.046283044 -0.17183973 0.009118582 0.04380831 0.08966106 0.06461204
0.0672396 0.027360387 -0.3585312 -0.08677426 0.04627555 0.06762152 0.48918355 0.20188476
0.10648229 0.2034367 0.056351468 -0.17505947 0.102843925 0.24649023 0.2008636 0.16080685
0.09461907 -0.30709517 -0.13891679 0.24485044 -0.049591646 0.16634624 0.12800181 0.041515
-0.05163408 -0.37264323 0.4326003 -0.008932522 0.66017133 0.8187645 -0.028811023 0.49795014
0.055264186 -0.1251875 0.047878947 0.23833726 0.19229645 -0.033825994 -0.13699925 0.015233982
0.0447381 -0.039326552 -0.014262997 0.19193085 0.2522246 -0.054927275 0.026430571 0.038313966
0.20696925 0.06460384 -0.05328463 0.04326126 -0.065917574 -0.30530295 0.36439842 -0.22323544
-0.10381478 0.05887396 -0.12751319 0.26660776 0.0029801799 0.35103074 -0.07488159 0.010167107
-0.22826919 0.043224007 0.09719598 0.17397553 -0.109463185 0.06405151 0.22101931 0.014610358
0.00304698 0.044743374 -0.0004017703 0.1936443 0.09323298 -0.0600333 0.21345866 0.24610227
0.1393635 -0.0974997 0.47546348 0.92056865 0.15092613 0.30209357 0.3185568 0.24829398
0.17020836 0.3486747 0.29342923 0.47180384 -0.10227966 0.021227764 0.36130103 0.06328577
0.18345265 0.2459726 -0.022621047 0.1563782 0.2590725 0.18122609 -0.1770962 0.06346908
-0.08601197 0.28761774 0.25546446 0.15639861 0.21579073 0.30635992 0.4508505 -0.0072064744
-0.09656797 0.18320341 0.017725598 0.45023826 0.15709 -0.043031517 0.1101287 0.10948936
00000000: 86bf 393e 19c7 80bd 6a68 143d 880e 6b3f
00000010: 29b1 483e 408f 923e e283 9abe e8c9 42be
00000020: 9552 003e 6b06 b1bd 70e0 ac3e eef2 a53e
00000030: eef5 3fbe aabd 3b3e b068 a53e 778e c8bd
00000040: 7ef5 53be 4172 1a3f c340 bc3e e1ca 8c3d
00000050: 601e c03e 49f7 313e 2e47 42bd 7883 2b3e
00000060: c511 05be c7da 223d 987d 80be 17ec a03b
00000070: 7d05 16be abea c0be f2d6 573e 59c5 b5be
00000080: b2c4 f63d 89f9 28bd 4a93 3d3d c1f6 2fbe
00000090: 1b66 153c 5870 333d 38a0 b73d 5153 843d
000000a0: eab4 893d e422 e03c 6791 b7be b4b6 b1bd
000000b0: 6e8b 3d3d 277d 8a3d 4476 fa3e e1ba 4e3e
000000c0: 6313 da3d b651 503e ccd0 663d ca42 33be
000000d0: d69f d23d ef67 7c3e 30af 4d3e 8daa 243e
000000e0: a5c7 c13d 943b 9dbe 3440 0ebe 13ba 7a3e
000000f0: 9c20 4bbd ab56 2a3e e812 033e a20b 2a3d
00000100: 427e 53bd 18cb bebe c97d dd3e b659 12bc
00000110: fd00 293f 8d9a 513f 1805 ecbc 52f3 fe3e
00000120: b35c 623d 2731 00be b71c 443d af0e 743e
00000130: 5ce9 443e 208d 0abd 8849 0cbe f497 793c
00000140: 4c3f 373d e114 21bd 58af 69bc 8589 443e
00000150: 9523 813e 6cfb 60bd ed84 d83c 1bef 1c3d
00000160: bfef 533e 054f 843d fc40 5abd b832 313d
00000170: cbff 86bd ab50 9cbe 6e92 ba3e d597 64be
00000180: d89c d4bd d225 713d d192 02be d080 883e
00000190: 1f4f 433b 4dba b33e 855b 99bd f093 263c
000001a0: 66bf 69be a80b 313d b00e c73d a426 323e
000001b0: 3c2e e0bd 702d 833d e352 623e 4860 6f3c
000001c0: d7af 473b d444 373d b2a4 d2b9 b14a 463e
000001d0: eff0 be3d 7ae5 75bd e894 5a3e 3c02 7c3e
000001e0: 4eb5 0e3e ecad c7bd f36f f33e 63aa 6b3f
000001f0: 618c 1a3e 02ac 9a3e e019 a33e c740 7e3e
00000200: 1a4b 2e3e 7e85 b23e 5b3c 963e 4690 f13e
00000210: 0078 d1bd d9e5 ad3c 73fc b83e f89b 813d
00000220: 03db 3b3e 3ee0 7b3e c64f b9bc 9b21 203e
00000230: 27a5 843e 5593 393e b558 35be 14fc 813d
00000240: 0b27 b0bd a242 933e 3dcc 823e f526 203e
00000250: 3ff8 5c3e 35db 9c3e e0d5 e63e 4a24 ecbb
00000260: 6ec5 c5bd ad99 3b3e 4635 913c a185 e63e
00000270: 33dc 203e d141 30bd 288b e13d f53b e03d

preamp.model.lin.weight f4 [1, 40]
-0.19424397 -0.08562314 -0.0413693 -0.45000514 0.027853591 -0.45013818 -0.41449177 0.2281826
-0.34507924 0.2779352 0.316861 0.6584497 0.18536927 0.21067873 -0.859882 0.28093538
-0.45446372 -0.045854405 0.31513554 0.026281368 -0.40136784 -0.14097072 -0.06609182 -0.046272542
0.033400238 0.3227756 1.0839742 -1.356262 -0.5874909 -0.4948578 0.5769898 0.0075499695
0.22056487 -0.053663846 -0.059378218 0.32215276 0.09023775 -0.6321012 -0.2520084 0.20193925
00000000: e4e7 46be 2f5b afbd db72 29bd 1367 e6be
00000010: 372d e43c 8378 e6be 4438 d4be b3a8 693e
00000020: 3aae b0be 864d 8e3e 9b3b a23e 2990 283f
00000030: 71d1 3d3e 2abc 573e 3a21 5cbf c3d6 8f3e
00000040: 78af e8be d4d1 3bbd 7259 a13e 064c d73c
00000050: 1680 cdbe a15a 10be 265b 87bd 4788 3dbd
00000060: b0ce 083d d842 a53e abbf 8a3f fe99 adbf
00000070: ce65 16bf 005e fdbe 9bb5 133f bc65 f73b
00000080: c2db 613e 9fce 5bbd 9336 73bd 35f1 a43e
00000090: 92ce b83d 62d1 21bf 3f07 81be 2ac9 4e3e

poweramp.model.rec.weight_ih_l0 f4 [24, 1]
0.37138745 1.2248479 -0.34178624 0.39546782 -0.19512418 -1.5490439 -0.15841328 -1.3920665
-0.40535662 -0.6561574 1.977163 7.2488422 0.9565017 0.1256183 0.13820092 4.235653
-0.08204041 -0.5681733 -1.0201284 0.7645594 -0.5201238 0.71462685 0.51785004 -1.0011702
00000000: 7f26 be3e d1c7 9c3f 9bfe aebe c27a ca3e
00000010: a2ce 47be 1247 c6bf 1737 22be 3c2f b2bf
00000020: e78a cfbe eef9 27bf ad13 fd3f 84f6 e740
00000030: 4cdd 743f 15a2 003e 8b84 0d3e 788a 8740
00000040: cd04 a8bd ce73 11bf 9193 82bf 2aba 433f
00000050: d526 05bf c9f1 363f d291 043f 5826 80bf

poweramp.model.rec.weight_hh_l0 f4 [24, 8]
-0.13966487 -0.8608982 -0.57026094 -0.55584216 -0.20292617 0.5205064 0.3859864 -0.28321484
0.52516717 -0.15191126 0.0028319191 0.9649243 -0.55362123 -0.27599266 0.121610165 -1.496336
0.098695055 -1.2098823 -1.4281605 -0.9055149 -0.38131082 -0.5480771 -0.03382961 0.17456788
-0.32572743 -0.6701654 0.051589556 0.11252971 -0.3911183 0.24048376 0.099405274 -0.34485358
-0.07088178 -0.3857598 -0.9829872 0.49132255 -0.6043076 -0.6476052 0.29943144 -0.7385776
-1.0605464 -1.859556 -1.469143 -0.2935821 -1.0297812 -0.40468323 -0.5061118 0.23246528
0.66063863 -0.76046675 0.36594912 0.37979782 -0.6015698 -0.28186673 0.24117902 0.065683536
-0.75514007 -0.49017534 0.3619609 -1.0586505 1.3594406 0.0045401896 -0.025956513 0.2013782
1.179143 0.1521071 -1.0994174 -1.1942974 1.3516994 1.2869263 0.64839673 0.13728179
-0.94991845 0.9274475 0.41181028 -1.8017005 -0.19513361 1.8641821 0.22643495 2.5311804
-1.047289 1.7416888 -1.2799356 -1.4539404 -0.9342982 1.3745232 -0.95461506 1.4694864
0.66024077 1.5629157 3.5768301 1.4749204 1.0107676 -1.0110674 -0.12832637 -1.2787455
-0.75552285 1.2454056 0.70627314 -0.33571267 -0.17436326 1.9647306 0.2732526 1.2938751
0.120173015 0.032483876 -0.131163 3.2594485 1.7540344 2.102076 1.3813063 -0.7275609
-0.20201713 0.5300043 -0.27475053 0.25992787 1.3936263 1.2253952 0.5522657 0.067701206
-0.0018035605 1.2148794 4.289963 -2.1213899 -2.175587 -2.0128741 -0.2084279 0.871071
0.3083909 -0.7766135 -0.034889724 -0.2116881 -0.6653469 0.79402 0.2774794 0.3695202
0.33423892 0.2720648 -0.69092524 -0.30619776 0.011505659 0.46950588 0.07595037 0.8375471
0.51864135 -0.26394013 -0.81010574 -0.2869227 -0.5455611 0.80015355 0.14863941 0.2778143
-0.15763938 0.38593373 0.28236473 -0.096812926 0.17519315 -0.09510745 -0.5234737 0.08479555
-0.11173584 0.14757076 -0.99971354 -0.5378202 0.016300606 0.26859018 -0.16551542 0.3339346
-0.1784917 0.6244065 0.654931 1.1234553 -0.23458704 0.032020792 0.49087486 -0.23074917
-0.47155172 0.124238856 0.5988502 0.47945127 0.17128462 -0.3418036 -0.020208977 -0.26864585
0.053869743 -0.7814211 -0.0760733 -0.92435366 0.027150119 0.058191583 1.4260976 -0.01727051
00000000: 4f04 0fbe d363 5cbf 9ffc 11bf ac4b 0ebf
00000010: e1cb 4fbe e83f 053f 02a0 c53e 8901 91be
00000020: 5b71 063f a08e 1bbe b897 393b 4705 773f
00000030: 1fba 0dbf e94e 8dbe c00e f93d f087 bfbf
00000040: a220 ca3d 6cdd 9abf f7cd b6bf d3cf 67bf
00000050: 2c3b c3be c84e 0cbf eb90 0abd ecc1 323e
00000060: bfc5 a6be f68f 2bbf 924f 533d fa75 e63d
00000070: a840 c8be 6041 763e fe94 cb3d a690 b0be
00000080: 772a 91bd 4f82 c5be 0da5 7bbf a18e fb3e
00000090: e7b3 1abf 74c9 25bf 144f 993e 6c13 3dbf
000000a0: fcbf 87bf ee05 eebf e10c bcbf 6550 96be
000000b0: dfcf 83bf a432 cfbe 8b90 01bf 610b 6e3e
000000c0: 9d1f 293f f3ad 42bf af5d bb3e dc74 c23e
000000d0: 7a00 1abf d650 90be a2f7 763e 1785 863d
000000e0: dc50 41bf 43f8 fabe f052 b93e dc81 87bf
000000f0: 2602 ae3f dfc5 943b c1a2 d4bc 1636 4e3e
00000100: 28ee 963f f7c1 1b3e b6b9 8cbf bdde 98bf
00000110: 7c04 ad3f 00ba a43f 54fd 253f 9993 0c3e
00000120: db2d 73bf 336d 6d3f ccd8 d23e 1f9e e6bf
00000130: 1bd1 47be 859d ee3f 90de 673e dcfe 2140
00000140: 910d 86bf a9ef de3f eed4 a3bf b81a babf
00000150: 2b2e 6fbf 60f0 af3f a761 74bf 2118 bc3f
00000160: 8a05 293f 9f0d c83f c9ea 6440 31ca bc3f
00000170: d560 813f a86a 81bf fd67 03be efad a3bf
00000180: f269 41bf 7369 9f3f 51ce 343f 88e2 abbe
00000190: 488c 32be 4b7c fb3f c4e7 8b3e b39d a53f
000001a0: 451d f63d d00d 053d 984f 06be ce9a 5040
000001b0: 3384 e03f 6a88 0640 a5ce b03f 6e41 3abf
000001c0: 94dd 4ebe 5dae 073f 1aac 8cbe 4415 853e
000001d0: 5962 b23f c0d9 9c3f 4961 0d3f eea6 8a3d
000001e0: 7365 ecba 2b81 9b3f 6047 8940 dac4 07c0
000001f0: d13c 0bc0 eed2 00c0 206e 55be 82fe 5e3f
00000200: 69e5 9d3e 24d0 46bf 87e8 0ebd c4c4 58be
00000210: 2d54 2abf e544 4b3f c811 8e3e c031 bd3e
00000220: 5d21 ab3e 144c 8b3e 7ae0 30bf f4c5 9cbe
00000230: 3b82 3c3c 1363 f03e de8b 9b3d 7d69 563f
00000240: aec5 043f 2923 87be 1763 4fbf 88e7 92be
00000250: e4a9 0bbf ddd6 4c3f ee34 183e ad3d 8e3e
00000260: 386c 21be 1b99 c53e 1c92 903e db45 c6bd
00000270: d565 333e b2c7 c2bd 5f02 06bf 4aa9 ad3d
00000280: c3d5 e4bd ca1c 173e 3aed 7fbf 96ae 09bf
00000290: d988 853c a784 893e e07c 29be 7af9 aa3e
000002a0: 87c6 36be 1bd9 1f3f 8fa9 273f 62cd 8f3f
000002b0: 9637 70be 3c28 033d f353 fb3e 8349 6cbe
000002c0: 3a6f f1be f170 fe3d 3f4e 193f a37a f53e
000002d0: 3c65 2f3e e200 afbe 4c8d a5bc f38b 89be
000002e0: 85a6 5c3d 370b 48bf 51cc 9bbd 71a2 6cbf
000002f0: ed69 de3c 4c5a 6e3d 5e8a b63f e27a 8dbc

poweramp.model.rec.bias_ih_l0 f4 [24]
0.13086872 0.084256835 0.6647482 -0.22061436 0.030599618 -0.8195922 0.16009387 -0.049865503
0.87365144 -0.7482672 -1.2786387 -0.30975005 -0.7504408 0.70631355 0.5579616 -1.3181942
0.18253818 -0.1140988 -0.4185917 -0.20163554 -0.15507354 0.39395788 0.21034084 -0.030916037
00000000: 7302 063e d98e ac3d f02c 2a3f bbe8 61be
00000010: 0dac fa3c cbd0 51bf a6ef 233e c53f 4cbd
00000020: 9fa7 5f3f 708e 3fbf 6faa a3bf 8f97 9ebe
00000030: e31c 40bf f7d0 343f 92d6 0e3f 96ba a8bf
00000040: 4aeb 3a3e a2ac e9bd a751 d6be 8c79 4ebe
00000050: 99cb 1ebe d9b4 c93e 9763 573e a143 fdbc

poweramp.model.rec.bias_hh_l0 f4 [24]
0.32266772 0.10617408 0.4650362 0.1440457 -0.3782554 -0.33375406 0.1805272 -0.32173213
1.0709025 -0.44103882 -0.8708824 -0.8045473 -0.7316191 0.5087297 0.84064806 -1.1710136
0.11328144 -0.13546343 -0.17417313 -0.21043518 0.36478984 0.11669577 0.20940883 0.08772135
00000000: b434 a53e cc71 d93d 3a19 ee3e b780 133e
00000010: b1aa c1be d0e1 aabe 1fdc 383e 13ba a4be
00000020: 5513 893f d7cf e1be 26f2 5ebf d0f6 4dbf
00000030: 644b 3bbf 1c3c 023f b634 573f c6e3 95bf
00000040: 1a00 e83d edb6 0abe 715a 32be 527c 57be
00000050: bcc5 ba3e 31fe ee3d 456f 563e 40a7 b33d

poweramp.model.lin.weight f4 [1, 8]
0.35363826 0.2203912 0.41033325 0.2638445 0.26063985 -0.18762395 -0.5715313 -0.16752924
00000000: 1310 b53e 3bae 613e 3317 d23e a016 873e
00000010: 9672 853e 7e20 40be e04f 12bf c98c 2bbe

exp_avg f4 [160, 1]
2.286611e-05 -8.911701e-06 1.6110464e-06 9.1743175e-08 4.9867396e-07 -9.110862e-07 -6.139539e-05 4.8800575e-05
-9.557184e-07 6.36717e-06 -9.253663e-06 -8.724423e-06 1.7130656e-05 1.8547037e-06 -1.7266888e-06 9.830411e-08
-7.083155e-08 -5.336022e-08 4.9093883e-06 5.0673566e-07 -2.6247992e-06 -5.351474e-06 1.0870715e-05 -6.976091e-06
-2.098268e-05 1.9955023e-06 -2.8772742e-05 8.851924e-06 -6.307702e-05 0.00024682627 -1.8526061e-05 -1.7528077e-05
-2.658935e-05 5.0040785e-06 1.5110328e-06 -3.6360943e-05 1.5861123e-06 -1.8373286e-06 1.6295215e-05 -4.131891e-05
3.1815434e-05 -5.611724e-06 -4.0777013e-05 -2.3134591e-07 -2.730077e-06 -2.3097846e-05 -6.780327e-05 4.4267443e-05
3.077783e-05 3.47184e-05 -3.3713306e-05 -2.8943155e-06 1.5868682e-05 4.9408413e-06 -4.0726536e-06 -2.577371e-06
5.1351176e-06 -6.752571e-07 -3.9426877e-06 2.9711012e-07 -3.282565e-06 -1.1019022e-05 1.0657563e-05 -3.7534971e-06
-3.479754e-05 -3.4641275e-06 -1.5308213e-05 -4.6646775e-05 -4.8294718e-05 4.510495e-06 -8.167076e-06 -1.4882523e-05
-2.7927412e-05 1.7464663e-05 -1.2759558e-06 1.4677139e-05 7.7172945e-07 -8.443898e-06 1.2551925e-05 -2.6889173e-05
2.554086e-05 -7.606877e-06 7.640057e-05 0.00013694116 -9.615449e-06 1.9422081e-05 0.00034429875 1.2596734e-05
-0.0003625612 1.7686094e-05 5.3673102e-05 0.00022900265 -9.778783e-06 -1.198994e-05 -1.8508995e-06 -9.694844e-06
1.0843337e-05 0.000125509 0.0001054876 1.2664133e-06 9.514268e-05 -2.1289745e-06 2.1192664e-05 -4.889295e-05
7.610135e-05 -7.234642e-06 0.00042368722 -5.338576e-05 0.00014144581 5.2399988e-05 -0.0002919453 -0.00022579417
2.6650434e-05 -2.9601153e-05 7.002898e-07 -0.0008298034 1.011205e-07 0.00017483639 3.321194e-05 -8.009356e-06
2.6607326e-05 -1.04557e-06 -1.7871673e-05 4.5204283e-06 -1.7336184e-05 -9.1461225e-06 1.174121e-06 3.288875e-05
5.154626e-06 4.810245e-07 -8.550453e-06 6.1551646e-07 2.685776e-05 -1.2509368e-05 -3.0042027e-05 2.1076337e-05
6.4866786e-06 1.277944e-07 2.0055336e-06 2.7201208e-06 6.5464906e-06 -4.65758e-05 1.6532927e-05 -1.8173341e-05
-4.6478493e-05 -3.6385513e-06 1.0339498e-05 4.1097748e-05 -9.164462e-06 -7.528437e-06 -3.4653413e-06 5.501778e-05
-2.46677e-05 2.5058735e-05 3.9720653e-06 -7.202434e-07 -9.019926e-06 -6.9391e-06 2.0214711e-05 -4.066236e-05
00000000: 99d0 bf37 7783 15b7 223b d835 5804 c533
00000010: 9ddc 0535 5e91 74b5 66c1 80b8 38af 4c38
00000020: 3c46 80b5 93a5 d536 2e40 1bb7 1d5f 12b7
00000030: ceb3 8f37 22ef f835 93c0 e7b5 421b d333
00000040: 0e1c 98b3 2f2e 65b3 53bb a436 9c06 0835
00000050: b525 30b6 d090 b3b6 5e61 3637 2a14 eab6
00000060: f603 b0b7 78ea 0536 fe5c f1b7 b982 1437
00000070: 3848 84b8 7668 8139 6a68 9bb7 4209 93b7
00000080: 320c dfb7 b5e8 a736 b1ce ca35 4482 18b8
00000090: 67e2 d435 219a f6b5 b5b1 8837 d74d 2db8
000000a0: 9071 0538 584c bcb6 fc07 2bb8 e167 78b4
000000b0: 5e36 37b6 3fc2 c1b7 9a31 8eb8 ceab 3938
000000c0: 7117 0138 999e 1138 6367 0db8 f63b 42b6
000000d0: bc1d 8537 81c9 a536 d4a7 88b6 e6f6 2cb6
000000e0: 534e ac36 5143 35b5 6e4b 84b6 8182 9f34
000000f0: 0a4a 5cb6 57de 38b7 e2cd 3237 97e4 7bb6
00000100: 93f3 11b8 4279 68b6 236a 80b7 98a6 43b8
00000110: 0f90 4ab8 db58 9736 5305 09b7 f3af 79b7
00000120: a945 eab7 1481 9237 8241 abb5 d53d 7637
00000130: d828 4f35 44aa 0db7 1b96 5237 0f90 e1b7
00000140: 9440 d637 933e ffb6 3e39 a038 dd97 0f39
00000150: 0a52 21b7 9aec a237 ff82 b439 9056 5337
00000160: 2416 beb9 995c 9437 0e1f 6138 6e20 7039
00000170: 8e0f 24b7 6628 49b7 6c6c f8b5 0aa7 22b7
00000180: c7eb 3537 119b 0339 3939 dd38 a1f9 a935
00000190: 5687 c738 81df 0eb6 e6c6 b137 6812 4db8
000001a0: 9a98 9f38 1ac1 f2b6 5622 de39 86ea 5fb8
000001b0: 1251 1439 0fc8 5b38 3c10 99b9 29c3 6cb9
000001c0: 5f8f df37 fe4f f8b7 8cfb 3b35 2a87 59ba
000001d0: 9527 d933 4954 3739 0d4d 0b38 ec5f 06b7
000001e0: cc32 df37 8355 8cb5 20eb 95b7 2fae 9736
000001f0: 2c6d 91b7 4c72 19b7 7e96 9d35 07f2 0938
00000200: e6f5 ac36 c01f 0135 ea73 0fb7 f839 2535
00000210: 9a4c e137 54df 51b7 c302 fcb7 17cd b037
00000220: 25a8 d936 db37 0934 ce96 0636 528b 3636
00000230: eda9 db36 625a 43b8 31b0 8a37 f472 98b7
00000240: e7f1 42b8 d62d 74b6 ce77 2d37 5f60 2c38
00000250: 11c1 19b7 c89c fcb6 1c8e 68b6 e4c2 6638
00000260: 7bed ceb7 3935 d237 c847 8536 c056 41b5
00000270: 4a54 17b7 6ad6 e8b6 c392 a937 e08c 2ab8

exp_avg_sq f4 [160, 1]
5.295495e-09 4.487653e-09 2.5153264e-09 4.9922807e-14 2.969141e-10 8.369483e-12 1.14713956e-07 3.68344e-08
1.8083064e-10 3.783686e-09 3.0967423e-10 4.2630038e-10 3.4278043e-09 1.8899667e-10 5.540573e-09 2.3721072e-09
7.4160957e-09 7.7126876e-14 3.455693e-10 1.9034143e-09 8.8636876e-11 4.150129e-09 8.8580054e-10 1.583782e-09
9.920209e-10 6.554759e-11 1.3134246e-08 7.0757894e-10 8.636339e-09 2.8309719e-06 6.314468e-10 1.4921616e-07
3.5665162e-09 7.988784e-09 1.0503445e-09 6.6440117e-07 4.787805e-10 4.074691e-11 1.5498732e-09 8.2281675e-09
8.225554e-09 6.4585235e-09 2.9248225e-08 7.666535e-09 2.1100142e-09 6.724256e-09 5.282337e-08 4.3797545e-08
3.819582e-08 5.623574e-09 3.34067e-09 1.1648452e-10 3.1284741e-09 1.8533917e-09 6.2556333e-09 3.7448658e-09
1.0821118e-08 9.243566e-11 7.486035e-10 2.7636082e-09 4.932689e-09 5.396079e-09 1.8300867e-09 2.2198834e-09
1.7616577e-09 7.1413576e-11 1.4718073e-09 1.9836781e-08 4.3305315e-09 3.9773775e-09 1.02770556e-10 1.7732772e-08
3.7128634e-09 1.6861966e-08 1.549158e-09 2.0774003e-07 7.817295e-10 3.742625e-09 6.8637773e-10 6.6154815e-09
1.8640748e-08 8.588012e-08 4.2959e-07 6.843047e-07 9.860038e-09 2.6815927e-09 2.5139186e-06 2.4954415e-08
1.5763572e-06 4.022279e-09 3.785599e-07 6.416667e-07 4.4402015e-09 3.512832e-09 6.529754e-11 4.510784e-09
4.0274531e-07 1.05006805e-07 3.7431997e-07 8.614091e-11 6.6950996e-08 6.13719e-09 4.6700585e-08 2.0429081e-07
2.591032e-08 6.6628743e-09 1.4492845e-06 5.875668e-08 1.8096055e-07 1.4419233e-07 1.2408299e-07 7.802158e-07
8.37435e-09 1.4049164e-07 6.870581e-08 4.662962e-06 5.3251934e-12 1.6940164e-07 1.8338586e-08 6.577374e-09
7.598914e-08 9.75857e-10 9.408145e-09 1.0277865e-09 8.554947e-08 2.698542e-09 8.751539e-10 1.0436499e-08
3.4644978e-09 2.8652417e-10 7.734905e-10 7.481979e-12 5.9908998e-09 5.7582486e-08 5.898119e-08 4.3037314e-08
1.1784489e-09 8.2946866e-13 4.860312e-09 8.5693316e-08 1.4489222e-09 5.1044626e-08 4.135196e-09 1.0673406e-08
4.225839e-09 5.723913e-10 6.799467e-10 3.8521186e-09 1.9756236e-10 2.5498093e-10 5.3776563e-11 3.7669295e-08
3.0297993e-09 2.2909646e-08 1.2589213e-09 1.6424142e-11 8.727745e-08 1.1258167e-09 1.9988924e-09 7.469099e-09
00000000: abf3 b531 d031 9a31 17da 2c31 14d5 6029
00000010: f23a a32f cd3c 132d aa58 f633 da33 1e33
00000020: 4dd3 462f a701 8231 c63e aa2f 725c ea2f
00000030: 928e 6b31 d5cd 4f2f 655f be31 8d02 2331
00000040: abd0 fe31 9eac ad29 8efa bd2f 38cd 0231
00000050: 20ea c22e ec98 8e31 ac7c 7330 60ac d930
00000060: a257 8830 0324 902e 06a5 6132 717f 4230
00000070: 055f 1432 bafb 3d36 1e92 2d30 3a38 2034
00000080: d116 7531 0b3f 0932 b65b 9030 4d59 3235
00000090: 2f9b 0330 f134 332e 5103 d530 dd5b 0d32
000000a0: 5e50 0d32 c6e9 dd31 873d fb32 c7b5 0332
000000b0: c3ff 1031 2e0b e731 e9df 6233 e91b 3c33
000000c0: c00c 2433 7b39 c131 b091 6531 7a13 002f
000000d0: b3fc 5631 6cba fe30 22f1 d631 30ac 8031
000000e0: c8e7 3932 a744 cb2e 4ac6 4d30 e9e9 3d31
000000f0: 647c a931 6a68 b931 7486 fb30 9a8c 1831
00000100: d21e f230 450a 9d2e 9e48 ca30 8b65 aa32
00000110: c2cb 9431 62a9 8831 aefe e12e c752 9832
00000120: 6225 7f31 dbd7 9032 27ea d430 250f 5f34
00000130: 53e1 5630 7a98 8031 8aab 3c30 644e e331
00000140: 701f a032 186d b833 66a2 e634 10b1 3735
00000150: e864 2932 1447 3831 cbb4 2836 575b d632
00000160: 3993 d335 5734 8a31 e03c cb34 003f 2c35
00000170: 6d90 9831 6566 7131 3f97 8f2e 47fd 9a31
00000180: e538 d834 1a80 e133 25f6 c834 056d bd2e
00000190: b3c6 8f33 4bdf d231 d693 4833 085b 5b34
000001a0: 6591 de32 43ef e431 0985 c235 a75b 7c33
000001b0: 0f4e 4234 49d3 1a34 ac3b 0534 0670 5135
000001c0: c8de 0f32 0cda 1634 6b8b 9333 8a76 9c36
000001d0: 145d bb2c c5e4 3534 fa86 9d32 32ff e131
000001e0: 792f a333 ea1e 8630 76a1 2132 0642 8d30
000001f0: 52b7 b733 4171 3931 7b8f 7030 354c 3332
00000200: 1714 6e31 b184 9d2f 8e9d 5430 d69f 032d
00000210: 83d8 cd31 9d50 7733 8152 7d33 07d8 3833
00000220: fcf6 a130 8479 692b c2ff a631 6606 b833
00000230: 6b23 c730 293c 5b33 9215 8e31 235e 3732
00000240: df32 9131 7556 1d30 ffe6 3a30 985b 8431
00000250: dc38 592f 602d 8c2f 0783 6c2e d4c9 2133
00000260: cb34 5031 d8ca c432 5b06 ad30 e177 902d
00000270: 496d bb33 27bb 9a30 e35c 0931 7251 0032

exp_avg f4 [160, 40]
6.915575e-05 -2.5456844e-05 -2.050603e-05 2.0278845e-05 3.6581263e-05 -8.12669e-05 7.80397e-06 8.517949e-05
-2.0621088e-05 0.00010942895 -5.9558603e-05 -4.2397063e-05 8.440115e-06 -4.1422336e-05 6.98771e-05 -8.386941e-05
5.809406e-06 1.0332327e-06 5.6706467e-05 7.0539456e-05 1.5926898e-05 9.19806e-06 5.0719386e-06 -7.507981e-05
-1.9897285e-05 -0.0001068551 -1.5078577e-05 -0.00010839068 1.7242928e-05 -2.9916831e-05 2.1444497e-05 4.5076078e-05
2.2483278e-05 -0.00013274988 5.510408e-06 -5.9392703e-05 5.8895035e-05 -5.983537e-05 -6.4574974e-06 1.4210262e-05
0.00022070855 -3.7476373e-05 -5.509693e-05 0.00011221193 0.000109544664 -0.00027440488 -0.00011312836 0.00027154994
-2.9676485e-05 0.00030539374 -0.00015440291 -3.1413958e-05 -3.0818093e-05 -0.00018670734 0.00021414178 -0.00025734256
-4.1402927e-05 -2.0566193e-05 4.334203e-05 0.00021754304 8.648892e-07 0.00010837536 -2.8191e-05 -8.946642e-05
-5.9122165e-05 -1.9421402e-07 -3.0943866e-05 -6.640137e-05 -7.486177e-05 -0.00011229333 6.706907e-05 0.00014997163
-2.7310937e-06 -0.00014753731 2.7770016e-05 -5.4400894e-05 0.0002266736 -0.00016441954 4.2402466e-05 0.000102347585
5.7453784e-05 -4.989324e-06 4.2226696e-07 2.6295362e-05 2.8035683e-05 -5.7813944e-05 -2.532434e-05 6.133827e-05
-2.0188345e-05 6.743886e-05 -1.1847674e-05 1.6165513e-05 -6.3653506e-06 -4.692096e-05 3.8489557e-05 -6.297841e-05
-1.5115245e-05 -1.6029353e-05 3.4473924e-05 4.879957e-05 3.1883807e-05 2.4231538e-05 -1.4197375e-05 1.064375e-05
1.5853393e-06 3.6975067e-05 -1.1481851e-05 1.8832967e-05 -1.3129975e-05 -3.849797e-05 5.865971e-06 4.6102003e-05
-1.3791792e-05 -1.8129507e-05 1.7577238e-05 -9.695322e-06 5.6355395e-05 -3.3771186e-05 1.2129056e-05 2.4089864e-05
4.2726364e-07 -4.386829e-08 -7.0829785e-08 2.4731202e-07 1.9492244e-07 -4.6356683e-07 -1.5975916e-08 4.9208893e-07
-2.4319257e-07 6.246112e-07 -4.892573e-09 4.6366935e-10 -6.643629e-08 -3.3541326e-07 3.6025764e-07 -5.364285e-07
-1.5324856e-07 -2.4121374e-07 5.1926384e-07 4.201029e-07 4.7414443e-07 1.4392523e-07 3.2402895e-08 6.367529e-08
5.862697e-08 -6.2025314e-09 -1.09326145e-07 -7.369103e-08 -3.7174917e-08 -3.1990476e-07 5.1734627e-08 3.55641e-07
5.3794317e-08 -3.333233e-07 1.5957728e-07 -2.275535e-07 4.2829032e-07 -3.5580976e-07 5.3983285e-08 1.4709961e-07
-5.7920115e-06 1.951149e-06 8.042998e-06 -5.9686713e-06 1.3868785e-06 6.404841e-06 1.3988193e-05 -6.61014e-06
-7.703246e-06 -2.9564376e-06 1.21585235e-05 1.1290107e-06 -7.947634e-08 1.9242107e-06 -3.0229442e-06 4.032863e-06
4.0601562e-06 -2.269413e-06 1.7456252e-05 -5.8331425e-06 2.1813277e-05 -2.909315e-06 -4.317672e-07 3.7758064e-06
1.0130588e-05 -1.708943e-05 -4.455966e-06 -1.3303256e-05 6.7695964e-06 2.6268478e-06 -4.4957965e-06 -6.6902467e-06
1.0760964e-07 -5.2220894e-06 5.330616e-06 2.4713665e-07 -3.611585e-06 2.1880019e-06 -3.493798e-06 1.66554e-07
5.884074e-06 -2.0528421e-07 9.657832e-07 9.942163e-07 3.8032115e-06 -7.690254e-06 -3.703118e-07 7.703377e-06
-7.676253e-06 1.0173837e-05 8.2516203e-07 -1.0149259e-06 -9.4782166e-07 -5.7721672e-06 6.8145077e-06 -7.7048435e-06
-9.749652e-07 -2.1686744e-06 5.4268385e-06 5.373606e-06 8.042576e-06 2.8706293e-06 -9.933508e-07 4.6428934e-08
1.0410474e-06 -3.496788e-06 -1.0398842e-06 -1.2427978e-06 -1.9777665e-06 -3.3504032e-06 1.08951085e-07 5.164482e-06
-1.3976469e-06 -6.1719975e-06 2.3686766e-06 -1.3048427e-06 7.390386e-06 -7.046776e-06 3.6159744e-07 4.2119377e-06
-7.918703e-05 1.7176937e-05 -2.0768643e-05 -0.00012878729 -0.00011775884 0.00013486996 -0.00028899784 -0.00013084785
-7.188626e-05 -0.00016629293 3.4336404e-05 -1.7027303e-05 -8.896956e-06 0.00011202661 -0.00011656773 0.00015691694
00000000: b607 9138 288c d5b7 5d04 acb7 7d1c aa37
00000010: d56e 1938 d66d aab8 cced 0237 64a2 b238
00000020: 73fb acb7 387d e538 90ce 79b8 80d3 31b8
00000030: 059a 0d37 e5bc 2db8 fb8a 9238 0ce3 afb8
00000040: 6bee c236 9bad 8a35 1bd8 6d38 95ee 9338
00000050: c19a 8537 5e51 1a37 9f2f aa36 2b74 9db8
00000060: 18e9 a6b7 6517 e0b8 fff9 7cb7 ce4f e3b8
00000070: e8a4 9037 e8f5 fab7 b5e3 b337 1210 3d38
00000080: 799a bc37 c632 0bb9 0be6 b836 6e1c 79b8
00000090: 1006 7738 bdf7 7ab8 7bad d8b6 9c68 6e37
000000a0: 006e 6739 f32f 1db8 e117 67b8 5253 eb38
000000b0: 58bb e538 00de 8fb9 533f edb8 d15e 8e39
000000c0: c4f1 f8b7 411d a039 37e7 21b9 7bc2 03b8
000000d0: ad42 01b8 dfc6 43b9 3f8b 6039 efeb 86b9
000000e0: 0ea8 2db8 9085 acb7 26ca 3538 441c 6439
000000f0: bc2a 6835 9447 e338 b67b ecb7 eb9f bbb8
00000100: f1f9 77b8 2589 50b4 b9c9 01b8 f740 8bb8
00000110: 1bff 9cb8 067f ebb8 6fa7 8c38 b441 1d39
00000120: d547 37b6 3fb4 1ab9 a8f3 e837 842c 64b8
00000130: 3baf 6d39 0968 2cb9 4dd9 3138 71a3 d638
00000140: 88fa 7038 f869 a7b6 eeb3 e234 dc94 dc37
00000150: 2c2e eb37 407d 72b8 9b6f d4b7 bca2 8038
00000160: 245a a9b7 f66d 8d38 5fc5 46b7 2d9b 8737
00000170: f295 d5b6 ffcc 44b8 d96f 2138 4713 84b8
00000180: 7c97 7db7 c676 86b7 1898 1038 24ae 4c38
00000190: faba 0538 d544 cb37 4331 6eb7 8f92 3237
000001a0: d8c7 d435 ad15 1b38 2da2 40b7 7dfb 9d37
000001b0: d048 5cb7 e178 21b8 4fd4 c436 a65d 4138
000001c0: 4c63 67b7 d214 98b7 d572 9337 17a9 22b7
000001d0: 255f 6c38 89a5 0db8 e67d 4b37 9714 ca37
000001e0: ab62 e534 b269 3cb3 161b 98b3 4ec6 8434
000001f0: df4b 5134 24e0 f8b4 693b 89b2 1818 0435
00000200: 2290 82b4 f4aa 2735 871b a8b1 a9e7 fe2f
00000210: bdab 8eb3 d912 b4b4 6f69 c134 16ff 0fb5
00000220: a58c 24b4 2a80 81b4 8a63 0b35 818a e134
00000230: ea8d fe34 de89 1a34 5c2b 0b33 dcbd 8833
00000240: 09cd 7b33 0b1e d5b1 afc6 eab3 1240 9eb3
00000250: 41aa 1fb3 60bf abb4 d332 5e33 edee be34
00000260: 7a0b 6733 9bf3 b2b4 4558 2b34 6e55 74b4
00000270: c6ef e534 1f06 bfb4 40db 6733 6ff2 1d34
00000280: 0059 c2b6 7cf0 0236 6af0 0637 7f46 c8b6
00000290: c824 ba35 2ae9 d636 d5ae 6a37 accc ddb6
000002a0: 313d 01b7 3667 46b6 76fc 4b37 8388 9735
000002b0: 94ac aab3 b021 0136 c9dd 4ab6 0852 8736
000002c0: 7a3c 8836 384c 18b6 046f 9237 50ba c3b6
000002d0: a8fb b637 a73d 43b6 a2cd e7b4 dc63 7d36
000002e0: 8bf6 2937 455b 8fb7 7584 95b6 0d31 5fb7
000002f0: 6426 e336 e748 3036 99da 96b6 c87c e0b6
00000300: 0617 e733 6839 afb6 a5dd b236 34ae 8434
00000310: 8f5e 72b6 96d5 1236 fe76 6ab6 04d6 3234
00000320: d06f c536 186c 5cb4 0fa0 8135 0371 8535
00000330: ad3a 7f36 6405 01b7 44cf c6b4 c13d 0137
00000340: 41c9 00b7 4cb0 2a37 b480 5d35 9738 88b5
00000350: cf6d 7eb5 8aae c1b6 2da8 e436 0d44 01b7
00000360: 8ddb 82b5 8b89 11b6 3018 b636 ed4e b436
00000370: 9aee 0637 09a5 4036 4653 85b5 2769 4733
00000380: 1eba 8b35 5caa 6ab6 2692 8bb5 35ce a6b5
00000390: c5b9 04b6 7dd7 60b6 7ef8 e933 904a ad36
000003a0: c896 bbb5 0e19 cfb6 8ef5 1e36 0e22 afb5
000003b0: effa f736 5873 ecb6 9321 c234 4554 8d36
000003c0: 3711 a6b8 3117 9037 5238 aeb7 130b 07b9
000003d0: 4cf5 f6b8 e16b 0d39 a284 97b9 3434 09b9
000003e0: a4c1 96b8 eb5e 2eb9 6f04 1038 dbd5 8eb7
000003f0: 2344 15b7 d4ef ea38 d375 f4b8 128a 2439

exp_avg_sq f4 [160, 40]
2.123677e-07 7.3552506e-09 1.307323e-08 6.669156e-08 7.0977926e-08 3.755653e-07 4.399506e-08 3.4042765e-07
1.5222071e-07 5.4602594e-07 9.3867506e-08 1.477756e-08 1.1745346e-08 1.9253234e-07 2.5144763e-07 3.3498313e-07
6.1987495e-09 2.4929847e-08 3.707661e-07 2.1429453e-07 2.3555219e-07 5.5220376e-08 7.479359e-09 5.2237574e-08
1.3445112e-08 1.6306056e-07 3.2755203e-08 1.6342906e-07 7.4420217e-09 6.5839146e-08 1.44049e-08 9.6178006e-08
1.3527185e-09 3.276088e-07 1.5106853e-08 1.6923428e-08 2.841342e-07 1.2959768e-07 7.789831e-09 7.1057656e-08
3.6606005e-07 3.1126937e-08 4.2095294e-08 7.753813e-08 8.078138e-08 5.3409735e-07 1.1406483e-07 5.349595e-07
1.6406466e-08 6.552999e-07 2.2094306e-07 2.8237427e-08 1.0411698e-08 2.396235e-07 3.4877897e-07 4.7192086e-07
7.842677e-09 6.16744e-09 1.1014029e-07 3.5532875e-07 6.0220174e-08 8.257175e-08 2.2104762e-08 1.07426374e-07
7.199677e-08 5.5958626e-08 1.2182942e-07 4.6353065e-07 2.5387342e-08 6.507995e-08 2.954081e-08 1.6471166e-07
9.567112e-10 2.505513e-07 8.929738e-09 3.4365623e-08 3.622993e-07 1.8307836e-07 9.509342e-09 7.2716055e-08
1.0313073e-08 3.5566547e-10 5.063339e-09 3.7068546e-09 3.4656709e-09 1.896439e-08 4.7995816e-09 1.6448363e-08
3.5002632e-08 2.4776249e-08 8.613616e-09 1.4255787e-09 2.6888258e-09 1.1830496e-08 1.1393284e-08 1.5670354e-08
1.7061474e-09 3.3870182e-09 4.4638522e-08 1.1078295e-08 3.4723495e-08 4.8476245e-09 1.4315421e-09 1.889978e-09
3.236181e-09 4.3434227e-08 1.3088853e-09 2.658653e-08 1.8161629e-09 5.14654e-09 2.3359883e-09 6.2114363e-09
3.959133e-09 1.2878384e-08 1.032171e-09 2.8471259e-09 1.6044906e-08 1.0642224e-08 1.6162693e-09 6.925034e-09
4.565578e-12 3.2080627e-14 3.1853873e-14 9.777457e-13 1.3586316e-12 6.847245e-12 6.3914157e-13 7.1889764e-12
3.3801132e-12 1.0869054e-11 2.3788558e-13 2.963414e-14 1.6039818e-13 3.9357385e-12 4.310206e-12 7.579978e-12
3.558586e-13 8.8932003e-13 5.221444e-12 4.3542795e-12 5.82676e-12 9.661418e-13 2.2116936e-13 1.2621628e-13
8.275703e-14 2.4065842e-14 2.9396044e-13 8.826879e-14 3.4346435e-13 2.2060708e-12 5.760543e-14 3.288072e-12
5.860729e-14 2.7043662e-12 7.8778916e-13 4.9188556e-13 6.249795e-12 3.7884596e-12 8.550048e-14 1.2245894e-12
7.3493935e-09 9.158154e-11 1.584188e-09 1.2043186e-09 1.4311012e-09 9.885823e-09 2.3107556e-09 9.89555e-09
1.0124256e-08 1.4257558e-08 5.424964e-09 6.6097505e-10 2.7647581e-10 4.433795e-09 6.8616934e-09 9.081208e-09
2.3131175e-10 1.0107043e-09 1.3159807e-08 6.524476e-09 1.1631975e-08 1.3386141e-09 1.9024292e-10 1.3391749e-09
2.0960775e-09 6.3792784e-09 3.30381e-10 1.0005215e-08 4.241321e-10 1.5698556e-09 3.6896616e-10 3.878742e-09
2.4869734e-10 5.6118403e-09 4.6759185e-10 7.8621504e-10 7.96524e-09 5.0691193e-09 3.374685e-10 1.9300817e-09
2.0737394e-10 9.8900966e-12 4.2652614e-11 3.940781e-11 9.247627e-11 3.427574e-10 2.2221593e-11 3.542067e-10
7.25186e-10 6.057921e-10 1.7514858e-10 2.0831498e-11 1.2031234e-11 1.9958878e-10 2.4050828e-10 3.7744333e-10
2.4369612e-11 7.379225e-11 8.174029e-10 1.8898501e-10 7.749304e-10 4.3438655e-11 1.7868883e-11 2.6577343e-11
5.5993734e-11 4.078153e-10 1.8396657e-11 4.087399e-10 1.9753994e-11 1.02769744e-10 1.1756131e-11 1.7889489e-10
3.3737964e-11 3.094057e-10 6.129093e-11 4.3783317e-11 3.1717293e-10 3.37709e-10 6.8095408e-12 8.608125e-11
5.637169e-06 7.918256e-08 5.0292067e-07 1.7034312e-06 8.779354e-07 7.7650975e-06 1.6779898e-06 7.225151e-06
6.701037e-07 9.071407e-06 5.9453664e-06 4.2488702e-07 1.8701911e-07 3.5308017e-06 5.1700067e-06 6.591801e-06
00000000: 3007 6434 78b9 fc31 ac98 6032 1338 8f33
00000010: 876c 9833 4da1 c934 14f5 3c33 05c4 b634
00000020: 1c72 2334 9e92 1235 3594 c933 65e0 7d32
00000030: 94c8 4932 e3ba 4e34 b3fe 8634 bbd7 b334
00000040: c7fc d431 5025 d632 b40d c734 d518 6634
00000050: 18ec 7c34 722b 6d33 927e 0032 d25b 6033
00000060: 3afc 6632 bf15 2f34 baae 0c33 0a7b 2f34
00000070: b7b4 ff31 7463 8d33 6c79 7732 6b8a ce33
00000080: 8dea b930 36e2 af34 52c4 8132 035f 9132
00000090: 1b8b 9834 8a27 0b34 0ad4 0532 5c98 9833
000000a0: e986 c434 6eb0 0533 44cc 3433 0a83 a633
000000b0: 097a ad33 e45e 0f35 cef3 f433 239a 0f35
000000c0: 33ee 8c32 dee7 2f35 5e3c 6d34 c28e f232
000000d0: 22df 3232 9aa5 8034 d13f bb34 4f5c fd34
000000e0: 75bc 0632 60e9 d331 4486 ec33 03c4 be34
000000f0: 6452 8133 4d52 b133 e3e0 bd32 46b2 e633
00000100: a59c 9a33 2957 7033 37d0 0234 2bdb f834
00000110: 5b13 da32 15c2 8b33 eec0 fd32 99db 3034
00000120: 487d 8330 8283 8634 6769 1932 6799 1333
00000130: 0982 c234 3294 4434 875e 2332 1328 9c33
00000140: 602d 3132 7787 c32f 9af9 ad31 adbb 7e31
00000150: ba28 6e31 22e7 a232 91e9 a431 554a 8d32
00000160: cd55 1633 8cd3 d432 15fb 1332 17ee c330
00000170: 53c6 3831 123f 4b32 31bc 4332 799b 8632
00000180: ba7d ea30 0ec1 6831 93b8 3f33 db52 3e32
00000190: e322 1533 2890 a631 e9bf c430 d8e0 0131
000001a0: 8063 5e31 708c 3a33 4fe4 b330 6660 e432
000001b0: 8d9c f930 72d5 b031 2487 2031 5f6c d531
000001c0: e708 8831 bb3f 5d32 4adc 8d30 2ba7 4331
000001d0: 1fd3 8932 ffd4 3632 6c23 de30 3ef1 ed31
000001e0: 12a3 a02c 727a 1029 0475 0f29 009b 892b
000001f0: dd35 bf2b 80ea f02c 01e7 332b 8bf0 fc2c
00000200: b5da 6d2c de35 3f2d edea 852a d675 0529
00000210: a197 342a fb79 8a2c e2a6 972c 3059 052d
00000220: a154 c82a 4352 7a2b 96b6 b72c dd33 992c
00000230: ca02 cd2c edf8 872b ba03 792a 5e1b 0e2a
00000240: 2e5a ba29 0ec4 d828 2a7c a52a 7ec3 c629
00000250: 6e5a c12a 0a3d 1b2c 45b7 8129 a460 672c
00000260: cdf8 8329 884d 3e2c 31be 5d2b 1774 0a2b
00000270: 26e5 db2c 694b 852c ac87 c029 7c58 ac2b
00000280: f385 fc31 d363 c92e a9ba d930 3285 a530
00000290: 66b0 c430 4fd6 2932 3ecb 1e31 1701 2a32
000002a0: f3ee 2d32 67f1 7432 7d66 ba31 fcaf 3530
000002b0: 83fe 972f 1358 9831 18c4 eb31 9303 1c32
000002c0: 7854 7e2f ffe8 8a30 7115 6232 e62d e031
000002d0: f8d5 4732 4cfa b730 9f2c 512f 070e b830
000002e0: 960a 1031 ba30 db31 fea0 b52f 67e3 2b32
000002f0: 492b e92f 62c2 d730 5fd7 ca2f c745 8531
00000300: 0ab9 882f 45d2 c031 da87 0030 f71c 5830
00000310: 7fd7 0832 722c ae31 7886 b92f 5ba2 0431
00000320: 9302 642f 09fd 2d2d 9396 3b2e 4051 2d2e
00000330: 835b cb2e d16e bc2f 9476 c32d 29ba c22f
00000340: 6e56 4730 d484 2630 f193 402f 5d3c b72d
00000350: dca7 532d 3f73 5b2f 8838 842f 6d80 cf2f
00000360: 7d5b d62d 5845 a22e 9eaf 6030 8dca 4f2f
00000370: e102 5530 940b 3f2e 262d 9d2d dbc6 e92d
00000380: 5743 762e e732 e02f 97d1 a12d 07b5 e02f
00000390: 0ac2 ad2d 39fe e12e e8d0 4e2d 6fb2 442f
000003a0: 9261 142e fb18 aa2f bac7 862e a28f 402e
000003b0: 1f5e ae2f 51a8 b92f e496 ef2c 704b bd2e
000003c0: ea26 bd36 130b aa33 7200 0735 73a1 e435
000003d0: 43ab 6b35 d746 0237 4a37 e135 936f f236
000003e0: 2de1 3335 6531 1837 4f7e c736 071c e434
000003f0: 6ccf 4834 b6f2 6c36 057a ad36 242f dd36
