python/logs/tensorboard/amp_model/21_targets_LSTM48_rnn_only/epoch=29-step=45360.ckpt (torch, 145932 bytes, 15 tensors)

preamp.model.rec.weight_ih_l0 f4 [192, 4]
00000000: 6edb 103f 2f9c 4cbe 193f 95be cd48 0bbe
00000010: 691f e03e 4efc 15be 2778 b1be 4fc5 fdbd
00000020: 6c5b d73e 4642 923c 0cb5 143e ea5b e13e
00000030: a535 38be 2a22 4abd 65c2 36be 8f30 69bd
00000040: 99af 253e 122e 56be bbb5 79be c148 8ebe
00000050: 79b8 80bc 086a 65be fd4d 95be 8280 5dbe
00000060: a0ff 66bf 6d33 ebbe 4335 abbe 7eac dbbe
00000070: 8e14 2ebf b6f7 acbf 37d2 e1bd 55b9 d2be
00000080: aadc f9bd 8b9f e5bd 1ca3 1c3e b762 b23e
00000090: 7377 273e 81a0 7a3d 209d 513e 905f 36bf
000000a0: 6159 26be 98a7 75be 3e8c 89be 167d c4bd
000000b0: bb65 f7be e0fc 69bb 4a5c d53e 281a 8bbe
000000c0: 4e27 08be 4049 b2be e3a7 79be 2ef5 54be
000000d0: b3e8 a1bd 2fc0 c1be 52dd 30bf 0bd0 08bf
000000e0: 5d49 5a3f dd7e 17be 7cb3 22bd eb38 debd
000000f0: 751f a5be 4688 903e 81fd 953c 285b e73e
00000100: 2dc2 3bbf 593a 94be d21b 5cbe 944d babe
00000110: a313 e43e 37ec abbd bc28 e9bd 62e0 90be
00000120: c8b1 923d 8120 113e cad5 a53c 6b66 53bd
00000130: 5850 913d 8368 26be ee40 6fbe b696 b4bd
00000140: 3a4a 7a3e 668f 22be b4d3 38be fecd 72bf
00000150: 49b0 c0bd f242 d3be 7d9b e9be c835 cebe
00000160: 3904 97be 4180 98be 2bfb babe 307f f1be
00000170: bf28 85be 6487 90bd 415d 23be 1f16 49be
00000180: 3f8e 343d 67ef aebd 1f6a 713d d53d 203e
00000190: e33b b2bf ccc7 073f 637a 013f f856 8b3f
000001a0: af96 f9bf 32c2 d43e a918 753f 4870 ca3f
000001b0: 063f a03f 871f 6cbe ac37 b9bd a4bd 293f
000001c0: 109d 96bd 6a8a 3dbe 9d69 f0be 22a5 81be
000001d0: f1f7 073c d770 edbe 1796 0ebf 9b7a e7be
000001e0: d185 373e 403e 31be f9e7 10bf fd3c 0dbf
000001f0: 2e9f 953e e1cc 3ebe 3198 6abe 7aa7 ccbe
00000200: eddc 61bf 8bf0 de3c 6523 8ebe bf29 70bd
00000210: 1afc 1dbf 2f94 3d3d 2578 15be 7118 84bd
00000220: b542 30bf b056 77be 7de3 90be b242 2ebe
00000230: 572e 08bf 2a61 acbd 093a 65bf e88e 9abe
00000240: 8920 993e c67b 48be 3274 87be 71fd d1be
00000250: 6521 abbf dcf9 5d3d e303 7d3c a343 893f
00000260: 6a98 c4be b776 b7bd 471b 8c3c d4e1 493e
00000270: b4a0 f43d ee60 39bd e463 4b3b 7d65 f73e
00000280: b058 a03c 8648 323e 8b1e ec3d 2a03 813e
00000290: d8c7 663e f611 03bf 76fb a7be 2c10 c8be
000002a0: 3e8b f33e ee2c 42be a045 80be 3014 d6bd
000002b0: fecf ff3e d7b7 93be f780 94be 7914 88be
000002c0: 1097 87bd 7172 a73e 9f0b 1d3f 2076 813f
000002d0: 3389 2e3e a8d0 93be 4d4d 07be 2c24 943d
000002e0: 1c32 2ebf 8a4d 253d 67d6 813d 2f20 863f
000002f0: 87eb cdbf afd0 253e 756a 85be ad47 8abe
00000300: b1f8 163f 900d 0ebe 237a 94bd 6248 5dbe
00000310: af30 353f f652 8c3e d1d4 d33e 56d9 8e3e
00000320: 0592 e83e 9eb5 73bd 76f2 08bd 0bb2 c5be
00000330: 1e38 c2be 05ea fcbd 63da 083e 8c1e 1c3d
00000340: 78b2 863e 23d6 803e 9122 a63e f042 953e
00000350: 94a5 f53e b4f7 5b3e 85bd 393d 88da 8e3e
00000360: ed54 50bf eae0 123f 17dd c53e 0943 a13e
00000370: d3b1 e43e 6028 15bd 1f9c bd3e 6cac e93e
00000380: 6984 f33d 2f49 6ebd d4b0 bbbe 2b3f 0a3f
00000390: 54fe b5bb 3a5e 5abe 5705 11be 9cdd 15be
000003a0: 64fc b8be 94ed 393e 65ce c83d 379f 013c
000003b0: 9a96 e2be 2383 84be 05be a9be 6a33 f9be
000003c0: 17e9 a5be 3083 7e3e c98e a83e 7331 b93e
000003d0: 9984 7cbf 726d 0e3f cb7b 373f 334c 5b3f
000003e0: 808c b63f 8600 1b3e c4e6 15bd f900 a43d
000003f0: a106 a1bf 789f 33be fc63 eebe 0834 a8be
0.56584823 -0.19981454 -0.29149702 -0.1360199 0.43773964 -0.14647028 -0.3466198 -0.12391149
0.42061937 0.017853867 0.14522189 0.44015437 -0.17989214 -0.049348988 -0.17847593 -0.056931075
0.16180266 -0.20916012 -0.24385731 -0.27789882 -0.015712963 -0.22403729 -0.29161063 -0.21631053
-0.902338 -0.45937672 -0.33439073 -0.4290504 -0.68000114 -1.3513095 -0.110264234 -0.41157022
-0.122002915 -0.11212071 0.15296596 0.34840938 0.1635416 0.061188225 0.20470095 -0.71239567
-0.16245033 -0.23989713 -0.2686481 -0.09594171 -0.48319802 -0.0035703704 0.41671973 -0.27168393
-0.13296244 -0.3482151 -0.2438045 -0.20796654 -0.07905712 -0.37841937 -0.6908771 -0.5344245
0.85268193 -0.14794488 -0.03972195 -0.108507 -0.32250562 0.28228968 0.018309357 0.45186734
-0.73343164 -0.28950766 -0.21494988 -0.36387312 0.44546232 -0.08394664 -0.113847226 -0.2829619
0.07162815 0.14172556 0.020243544 -0.051611345 0.070954025 -0.16250806 -0.23364612 -0.08817808
0.24442378 -0.15875015 -0.18049508 -0.9484557 -0.09408624 -0.41262013 -0.4562644 -0.40275407
-0.2949541 -0.2978535 -0.3651975 -0.4716735 -0.2600765 -0.07057074 -0.15953542 -0.19637345
0.04408097 -0.08541756 0.058939096 0.15648587 -1.3924526 0.5303924 0.5057737 1.0885916
-1.949911 0.4155441 0.95740753 1.5815516 1.2519233 -0.23058902 -0.09043822 0.66304994
-0.07354176 -0.18509832 -0.46955577 -0.253213 0.00829886 -0.46375152 -0.5569777 -0.45210728
0.1792214 -0.17308903 -0.5660396 -0.55171186 0.29223007 -0.18632843 -0.22909619 -0.39971524
-0.8822773 0.02721431 -0.2776138 -0.058633562 -0.617128 0.046283897 -0.14596613 -0.06449974
-0.68851787 -0.24154162 -0.2829856 -0.1701763 -0.5319571 -0.0841697 -0.8954168 -0.30187154
0.29907635 -0.19578466 -0.26455837 -0.41013673 -1.3369566 0.054193363 0.015442821 1.0723766
-0.38397533 -0.0895819 0.01710285 0.19715053 0.11944714 -0.045258455 0.0031034881 0.48319617
0.01957354 0.17410478 0.11529263 0.25197726 0.22537172 -0.5119928 -0.32809037 -0.39074838
0.4756717 -0.18962452 -0.2505312 -0.10453069 0.49963373 -0.28851196 -0.29004642 -0.2657812
-0.0662061 0.327045 0.6134586 1.0114174 0.17044525 -0.2887013 -0.13213082 0.07233462
-0.6804521 0.04035715 0.06339722 1.0478572 -1.6087502 0.16192888 -0.26057783 -0.2700781
0.5897322 -0.13872361 -0.07249858 -0.21609643 0.7077741 0.27407044 0.41373304 0.2790019
0.45423904 -0.059499376 -0.033434354 -0.38612399 -0.3793344 -0.12349323 0.13364558 0.03811507
0.26308036 0.25163373 0.32448247 0.29152632 0.4797789 0.2148121 0.045346756 0.279011
-0.81379586 0.5737444 0.3864524 0.31496456 0.4466692 -0.036415458 0.37033173 0.4563936
0.118904896 -0.058175262 -0.36658347 0.54002637 -0.005554 -0.21325007 -0.14162193 -0.14635319
-0.3613006 0.18157035 0.09804992 0.007911495 -0.44255525 -0.258813 -0.33152786 -0.48672038
-0.32404396 0.24854732 0.32921436 0.3617054 -0.9863983 0.5563575 0.7167327 0.85663146
1.4261627 0.15136918 -0.03659703 0.08007998 -1.2580148 -0.17541301 -0.46560657 -0.32852197

preamp.model.rec.weight_hh_l0 f4 [192, 48]
00000000: f406 5dbe a177 25be 07c7 453e f57e 26be
00000010: fa43 f0bd 4527 203e 802a 03bd 4d02 b4be
00000020: fcda ac3e 5d12 963c 8cba de3d a435 d3bb
00000030: d955 89bd e59e 0bbf 96f5 673d c84e 963d
00000040: 9720 a93d 933c dc3d b5a9 743e a30c 803e
00000050: 5c64 eb3d 5580 193e bc92 f93d d439 33be
00000060: a619 3b3d 03d5 e63e 4979 00be e0d2 cdbc
00000070: 765b b33e d80c 32bd 212c 973d fcc5 043e
00000080: 2c7b 6f3d b2cf 47be c159 d7bd 8125 dabd
00000090: 07b6 8abe 8035 973c f0c7 c2bd 637f dcbc
000000a0: 3262 4b3e 16be 51be 1f99 803d d446 c63e
000000b0: b5f8 57bd 704b 903e 5f3f 2cbe 06e8 0bbc
000000c0: 3dd5 ba3e 4e5a 0d3d b8a9 d8be 9575 3c3e
000000d0: 574e f83d 0aa6 283e fd68 833b 6dd8 cdbe
000000e0: a71b 223c 6cde 10be 0694 413f 7c56 e4bd
000000f0: e8b1 9e3e 2416 0b3f e6e1 7d3e 9af2 fcbe
00000100: f911 ec3e edb8 a9bd f366 92be 7f94 8fbe
00000110: 14d6 a6be c4cd ce3e d0fb 95be 14d0 9fbe
00000120: 6b68 b73d 58ef 1f3e de17 18bf 6d99 c13e
00000130: 82a1 34be 50b8 083f d37f 053e a2bc 873d
00000140: 07d5 973d b983 a83e e0f7 21bf 38da 7a3e
00000150: b286 813e 0cfc 743e a4be 0cbf 2af2 64bd
00000160: 30f6 8e3d e427 8f3e 2630 dbbe 12b7 7fbe
00000170: 71c8 b73c 7e5b bf3d 540a 22bd 3ba6 6bbe
00000180: 9dd6 7dbb 4fca 7d3d bc7c 4e3f a8fb b63d
00000190: ffc5 f53d 9150 033f 228b eebe c140 3cbf
000001a0: 9859 363e 25a9 783f 550b 3c3c 21f2 54be
000001b0: 10c7 003f 4e45 62bf 6e51 e4be 4fe6 aabf
000001c0: e4a0 9b3e 2b71 94b9 a285 92bf aef8 52bf
000001d0: 23fb 59bf 75f4 123f 563b b43d fa4b f2be
000001e0: 9551 5dbe a1cd 46be 794c e1be 54b3 603f
000001f0: 2e01 113e 2238 353e 0079 d03e 7215 8ebb
00000200: b483 313f b45d c03d 10ea 09be fc62 643f
00000210: cf9f e53d 64cb c2bf 8764 b7bd 8e46 8bbe
00000220: 5b74 233f df66 83be 4985 b9bd 5ad7 ab3e
00000230: 9457 ab3f e048 8dbf a0be 84bf 2fcb 65be
00000240: 7b82 483e 2323 58bc 35df 2cbe ba7f 37bd
00000250: 6536 763e a887 883e 7f67 753e 40f8 5fbe
00000260: 89b2 703d 0ca2 563e 5e7d fe3d 9714 29be
00000270: bbc4 0b3e 02bf 0abf 3b11 893e 71b4 7bbe
00000280: f4bf 893d 8a92 27be eccc 7ebe 1387 abbe
00000290: 8e30 f23d 5cd0 e43d 1ba0 99bc 0cf7 a0be
000002a0: 43df f9be 754c 513d ac5f b6bd 84aa 773e
000002b0: b4e3 ccbd 6a95 2dbe 70f3 d03d 2709 173e
000002c0: a07e 393e 0f6f c5ba 8da4 89be 16c8 edbd
000002d0: e7d7 513e 5f30 373e da3a af3d f8d0 a33e
000002e0: 115d 8b3e ee5b 66be 4151 a8be ac31 913e
000002f0: 0204 b43d 5642 873d 33df 36bd ba07 15be
00000300: 37e3 ca3e 17ec 873e 81b4 b2be 93cf 743e
00000310: a1bd f6bd 4959 99be 7d21 573e c32e d8bd
00000320: cb47 81be 5cbe acbe 5ed5 c0bd 3e98 49be
00000330: 6c3e 17be 15f8 c9be fe4f 4d3f b11c 97bd
00000340: 5f56 58bf c5a6 8fbe 4420 e5bd 7121 96be
00000350: 0618 283d 6c49 043f deef 713a 7072 2bbd
00000360: 20df 123e 5fe5 bebe 3079 aebe a90d 953e
00000370: 9fa6 6dbe da05 a43c adba 0c3e 9e71 17be
00000380: 3ea9 223e 3e2c a33e fb68 c9bd 4671 b7bd
00000390: ed89 c13e 7207 623e 412b bebd c27f 273d
000003a0: 193d a0be f4dc 893d 54c2 3e3d f274 3abf
000003b0: 3349 583e f1ba c43e 843d 813d 3a95 58be
000003c0: e320 313d cb87 933e df7c 21be be8b 74be
000003d0: f104 9f3d 6c7f b93e 76a4 613d 27ce 8bbe
000003e0: 3506 1c3d c347 62be dee4 ce3e cfbc bcbe
000003f0: 4b82 bebd 475a efbe 02ab d6bd a587 c1bd
-0.21584684 -0.16158916 0.19314204 -0.16259368 -0.117317155 0.1563998 -0.032022953 -0.35158005
0.33760822 0.018319303 0.10875425 -0.0064456034 -0.06705827 -0.5453933 0.056630693 0.07339245
0.08258169 0.10753741 0.23892863 0.2500964 0.114937514 0.14990361 0.121861905 -0.17502528
0.045678757 0.4508439 -0.12546267 -0.025124967 0.35030717 -0.04346928 0.07381464 0.1296615
0.058467075 -0.19512823 -0.10515166 -0.106516846 -0.27092 0.018458128 -0.09510791 -0.026916211
0.19861677 -0.20482668 0.062792055 0.38725913 -0.05272742 0.28182554 -0.16821049 -0.008539205
0.36490813 0.03450995 -0.42316985 0.18404229 0.12124317 0.16469589 0.0040103183 -0.40204182
0.009894288 -0.14147347 0.7561649 -0.11149308 0.30995107 0.5433066 0.24793205 -0.4940384
0.46107462 -0.08287225 -0.2859417 -0.2804298 -0.32585204 0.40391362 -0.2929368 -0.3121344
0.08955463 0.15618646 -0.5941142 0.37812367 -0.17639735 0.5340624 0.13037042 0.06627776
0.074136786 0.32912996 -0.6326885 0.24497306 0.25298077 0.23924273 -0.54978395 -0.05589501
0.0698055 0.27960122 -0.42810172 -0.2497218 0.022434445 0.093436226 -0.03956063 -0.2301263
-0.0038732656 0.061960515 0.8065908 0.08934718 0.120006554 0.5129481 -0.46590525 -0.73536307
0.17807615 0.97133094 0.011477311 -0.2079549 0.50303745 -0.88387 -0.44593376 -1.3351535
0.30396187 -0.00028313076 -1.1447031 -0.82410705 -0.8514883 0.5740426 0.0880038 -0.4732359
-0.21613152 -0.19414379 -0.44003657 0.87773633 0.14160606 0.17697194 0.40717316 -0.0043360526
0.6934159 0.093928725 -0.13468194 0.8921354 0.11212122 -1.521832 -0.08954721 -0.27202266
0.6384942 -0.25664422 -0.09058625 0.33562738 1.3386102 -1.1037865 -1.0370674 -0.2244079
0.19581024 -0.013191971 -0.16882022 -0.044799544 0.24044187 0.26665998 0.23965262 -0.21872044
0.058764014 0.20960253 0.12426256 -0.1651176 0.13649265 -0.54197705 0.26770958 -0.24580552
0.06726065 -0.16364494 -0.24882859 -0.3350149 0.11825667 0.11172554 -0.018753102 -0.31438482
-0.48803148 0.051098306 -0.08904967 0.2418614 -0.100043684 -0.16951528 0.10202682 0.14749585
0.1811471 -0.0015063005 -0.26883355 -0.11610429 0.20492516 0.17889546 0.08556147 0.31995368
0.27219442 -0.22496006 -0.32874492 0.2835821 0.08789827 0.066044495 -0.044646453 -0.14553729
0.39626476 0.2654731 -0.3490334 0.23907308 -0.120478876 -0.29950932 0.21008869 -0.10555794
-0.25250086 -0.33738983 -0.094156966 -0.19686982 -0.14769906 -0.39447084 0.80200183 -0.07378519
-0.8450679 -0.28056923 -0.11187795 -0.2932239 0.041038536 0.5167453 0.00092291634 -0.041857183
0.14342928 -0.3728437 -0.34076834 0.29111984 -0.23208092 0.020022321 0.13743086 -0.14789435
0.15884873 0.31869692 -0.098344766 -0.08957152 0.37800542 0.22073153 -0.09285594 0.040893324
-0.31296614 0.067315966 0.046572044 -0.72834694 0.21121673 0.38423875 0.06310561 -0.21150675
0.043244254 0.2881454 -0.15770291 -0.23881432 0.077646144 0.36230028 0.055088483 -0.2730572
0.038091857 -0.22097687 0.40408987 -0.368628 -0.09302195 -0.46748564 -0.10481836 -0.094497

preamp.model.rec.bias_ih_l0 f4 [192]
00000000: 2c56 b03e e9c2 d2be c018 22be 2670 34be
00000010: f5a9 ccbe 2c8c 0bbe 0263 21bf 4067 c8be
00000020: 6a5d cf3e cc87 993b a207 7ebe 9adb 453e
00000030: 24ba d3be 4b0c 59bf a2e6 13be 9447 f43e
00000040: 348b 91be be01 323d a39c 413f fb2a 8abe
00000050: b88d 413d 3d98 c0be bb6d cbbe 3c6d 89be
00000060: 5c1d d1be cf41 143f 77f3 253f ea11 7f3e
00000070: ad5a 0f3c 09dc 1fbf b2cc f5be b09c fcbd
00000080: a761 0bbe 8f9c bbbd aad9 7dbe 0444 853d
00000090: 491a dbbe bf73 f2bd af01 30be b856 14be
000000a0: b5fc 053e 553e 16bf 42eb b9be 6a39 4cbe
000000b0: 20a9 783e 9c2c 99be 9475 a1be 2b26 383e
000000c0: b71c 743e b4a5 863e a65d 1ebd c1d5 8b3d
000000d0: 1365 ef3e f66e 863e 3095 2d3f ec7a 9c3e
000000e0: e474 403e a9b1 a03d b69e 07be 599c 813e
000000f0: a977 053f 3b0d 893f 04bb 9b3d e045 59be
00000100: 5e4c 90bd 0bce a33e e3a4 3c3d 7028 a13e
00000110: f8bd 113e c105 033e 907c 373e 2032 853e
00000120: db19 67be 84cc 6ebc 575a 383d 2b0f c6be
00000130: 6099 b93e 3434 093f d69b ee3e d689 643e
00000140: 761b 4c3e dfd6 d13e 2a58 ce3e cbea 903d
00000150: dbe0 f53e 5295 433e ecf5 9ebb 365f b13d
00000160: c67f 733e b47e 423f ba9d 9a3e 2ed3 9e3e
00000170: d29c 6dbe 2d88 de3c 5021 2f3e 2bce bdbd
00000180: 072c 1cbf 347b 13be 0487 8ebc 87c0 99be
00000190: 65b4 cdbd 587f 05be 959d 1b3e 8c43 913d
000001a0: 0ccd 923e 26b8 173e 5c0c f2bd 1304 b23e
000001b0: 9a1e cdbc 6d71 813d f6ff 05be 053c d0bd
000001c0: 5a39 b5bd 9b66 8b3e f9a4 ed3e fbf9 dc3d
000001d0: 72d3 233e a60e 0ebd 42d5 733d 26dd 083e
000001e0: 601a 22be 90df fe3d 9cc8 a13d cd9b 743c
000001f0: 6763 cb3d a217 d6bd 5a0d f1bd e5bf 60be
00000200: 7d40 27be f766 a3be ca51 77bd 512b 003e
00000210: 496a 03be 0097 21be f95a 9cbc e933 0d3c
00000220: ca5f e13e b800 23bc 3fbd 94bb 6815 40be
00000230: 4946 8e3c 1e6e 24bd 73e4 e6bd 8c1f 313d
00000240: 261e 993e cf48 96bd 509e 3e3e 40bd df3d
00000250: 570b 133e 0c84 c8bd 921d 1c3e 2789 103d
00000260: 6264 c73e b62a c83d 354a debc de9b d03e
00000270: ec6e e6bd 3b72 0b3e bb4f 30bd 7926 0b3f
00000280: d4b4 d8bc 3e6b d93e 8556 8d3e 34f5 91be
00000290: c19f 1f3e af44 9c3d 3f38 9a3d a3dd 17be
000002a0: a551 50bd 4925 ad3e a2e3 053f 6c75 a43e
000002b0: 7cff 96ba 3b20 0a3e 786c 173e 523a 41bd
000002c0: 59cf b03d 4f37 a03e 35b1 233e 2bae dbbc
000002d0: dd2e edbd fe48 bbbd b3b5 0bbe 19cb 013d
000002e0: fcff 783e 02af 793e f337 dd3c 29df 5bbd
000002f0: f914 413e b82d dfbd ae03 cabd 0add ea3c
0.34440744 -0.4116433 -0.15829754 -0.17620906 -0.39973417 -0.1362769 -0.630417 -0.39141273
0.40500957 0.0046853777 -0.24807599 0.19322053 -0.41352952 -0.8478438 -0.14443448 0.4771086
-0.28426516 0.043458693 0.75629634 -0.26985916 0.047254294 -0.3761615 -0.39732155 -0.26841152
-0.40842712 0.57912916 0.6482462 0.24909177 0.008749646 -0.6244512 -0.48007733 -0.12334573
-0.1361147 -0.091607206 -0.24790064 0.065071136 -0.4279349 -0.11838483 -0.17188142 -0.14486206
0.13084681 -0.5868886 -0.363123 -0.19943777 0.24283266 -0.29916847 -0.31535017 0.1798331
0.23839079 0.26298296 -0.03866353 0.0682788 0.467568 0.2625653 0.6780577 0.30562532
0.1879459 0.07846386 -0.13244137 0.25314596 0.5213571 1.0707163 0.0760403 -0.21218061
-0.07045816 0.31993136 0.046055686 0.31476164 0.14232624 0.12795164 0.1791861 0.26014805
-0.22568457 -0.0145751275 0.04500803 -0.38683447 0.36249828 0.5359528 0.46603268 0.22318205
0.1993235 0.40984246 0.4030164 0.07076033 0.48023114 0.1909993 -0.0048510935 0.08660738
0.2377921 0.75974584 0.3019846 0.31020492 -0.23204353 0.027164543 0.17102551 -0.09267839
-0.6100468 -0.14402467 -0.017398365 -0.300297 -0.10044173 -0.13036859 0.15196832 0.07092962
0.28672063 0.14816341 -0.118187636 0.34768733 -0.025039006 0.063204624 -0.13085923 -0.10167698
-0.088488296 0.2722672 0.46414927 0.107898675 0.15998629 -0.03468194 0.05952955 0.13365611
-0.15830374 0.12444985 0.07899591 0.014929724 0.09931069 -0.10453726 -0.11770125 -0.21948202
-0.16333194 -0.31914493 -0.060380735 0.12516524 -0.12833513 -0.15780258 -0.019086348 0.008618333
0.44018394 -0.009948902 -0.0045391615 -0.18758166 0.017367499 -0.04014408 -0.11274042 0.043242976
0.29905814 -0.07338106 0.18615079 0.109247684 0.14359795 -0.09790811 0.15245655 0.03528705
0.38943774 0.097737715 -0.027134994 0.40743917 -0.112516254 0.13617794 -0.043044787 0.5435558
-0.026453413 0.42464632 0.27605072 -0.28507388 0.15588285 0.07630288 0.07530259 -0.14830641
-0.050859112 0.3381751 0.52300465 0.32120836 -0.0011520232 0.13488857 0.14787471 -0.04717476
0.086332984 0.31292197 0.15985568 -0.026816448 -0.11581204 -0.091447815 -0.13643532 0.03168783
0.243164 0.24383166 0.027004218 -0.05367962 0.18855657 -0.10897392 -0.09863983 0.028669853

preamp.model.rec.bias_hh_l0 f4 [192]
00000000: f1da 353e 7395 bbbe a0ff a1bd d7e3 e8bc
00000010: 780d 56be 23ff 95be b74b e2be 7fe4 adbe
00000020: e48e a03e f36e 0d3e 2688 e9be 11df 5f3e
00000030: ef84 dabe f999 5dbf 6fce a9be 7217 f53e
00000040: 73eb 8ebe 6e67 8d3d df7c 2d3f 5fbc a1be
00000050: fc63 15be 3202 41be b9fd bfbe ca0c d4be
00000060: 3ac1 85be 7161 063f 5d37 073f 40f6 563e
00000070: 7005 1ebd d51e eabe 7317 02bf a572 39be
00000080: 164d 02be 24f9 723d a1c9 52be e702 ac3d
00000090: bc95 d3be fa4a 84be 4f03 79be f5ac 003e
000000a0: 752d a63d 18cc 2ebf 52d7 b5be cf72 c4be
000000b0: 6f1f 6b3e 63ac 82be 0eee d4be 0e5d 313d
000000c0: 87f6 483e 0fe0 3f3e b640 103d 3ae9 433e
000000d0: a7df f83e ac25 1c3e 33e1 443f cff2 de3e
000000e0: c133 3d3e d845 d63c 7dac ccbc 76e3 aa3c
000000f0: 9bf6 d33e a019 773f 44c2 31be dae0 99be
00000100: 0735 253e 069b 833e 78f9 8e3d a1ea 083e
00000110: 0dd9 1e3e b44b e03d 9c73 293d db25 653e
00000120: 6425 9cbe 5095 01bd c60b 253e 8af1 a5be
00000130: b9aa c43e a384 233f 6605 c73e 87d7 023e
00000140: ee97 e13d b9d5 943e f33c cc3e 6e11 cb3a
00000150: 7988 033f 3e27 243d 9c6f 9b3b 7d3b 23be
00000160: 2998 ca3d a87d 7a3f 5cb6 933e e358 943d
00000170: 3144 e7bd 9124 bd3d f631 863e e0f9 10be
00000180: 2216 04bf 0ec0 07be 18e5 dd3d 9f32 8cbe
00000190: 15b1 8cbd 8577 8fbd 9792 b7bd 6ccf f93d
000001a0: 4c12 d43d 9c37 863e 9d91 7fbd 5649 cb3e
000001b0: e278 293d 9bb2 f43c f807 b6bc 57e7 3c3d
000001c0: 7655 d43d 4571 c33e 77f5 a53e b89a 7e3b
000001d0: 011c 3d3e 067e cdbd 83f3 cebc 88ef 073e
000001e0: 76a3 8fbe ffb7 cf3c 68aa 9a3e e040 a9bd
000001f0: 3afa 8ebd cc01 f3bd cdbf 2fbe faed 99bd
00000200: 577c 3e3d a2b2 c9bd faf9 123e 59b5 e63d
00000210: 6144 3dbe 4da9 b9bd 5228 543d 21a6 0ebe
00000220: f172 7d3e 26f0 1f3e 6cbe 9e3d 4ead 793d
00000230: ea55 dfbd 73f6 083e be4b 1b3c 8217 db3d
00000240: 14a2 9d3e f228 8dbe a019 963d b885 85bd
00000250: f2c6 213e 1756 82bb 433f 743d f081 223d
00000260: d5a2 a03e 6073 803e 57ea 353b 8d00 cb3e
00000270: 7402 44be aca2 763e 87b3 2ebe 1d6e cd3e
00000280: 8b0c 03be 189a 4d3e 33de c63e d70a 0abe
00000290: ee94 3c3e cbeb 013d abf8 07be 0140 37be
000002a0: 9d35 33be af9b 0b3f cd87 0d3f c169 4b3e
000002b0: 7bd2 833a 1b58 f83d 5273 c83c 4ef6 82be
000002c0: 44aa 50bd 19e7 7a3e 1e5b b23d 7a00 1b3d
000002d0: 0bf6 1fbd be8d 8abd 837e 07be 12d6 1f3e
000002e0: e92a 2a3d 2e7b 1f3d da11 953b e1f2 3f3d
000002f0: 2fdf a83e ff58 5cbd b239 7f3d 00f7 9b3c
0.17759301 -0.36637458 -0.07910085 -0.028428955 -0.20903575 -0.29296216 -0.4419839 -0.3396339
0.31359017 0.13811855 -0.45611686 0.21862437 -0.42679545 -0.8656307 -0.3316531 0.4786945
-0.27914008 0.06904493 0.67768663 -0.31589028 -0.14588922 -0.18848494 -0.37498263 -0.41416007
-0.26123983 0.52492434 0.5281885 0.20992374 -0.038579404 -0.45726648 -0.5081703 -0.1811014
-0.12724718 0.05931963 -0.20584728 0.08398991 -0.41325176 -0.25838453 -0.24317668 0.12565978
0.08114139 -0.6828017 -0.3551584 -0.38368842 0.2296121 -0.25522146 -0.4158787 0.043301634
0.19625293 0.18737815 0.035217963 0.19131938 0.48608133 0.15248746 0.76906127 0.43544623
0.18476774 0.026156351 -0.024984593 0.020860415 0.41399083 0.96523476 -0.17359263 -0.3005436
0.1613351 0.2570421 0.06981176 0.13370754 0.15512486 0.10951939 0.04137002 0.22377722
-0.30497277 -0.031636536 0.16117772 -0.32410842 0.384115 0.6387426 0.38871306 0.1277753
0.110153064 0.29069307 0.3989025 0.0015492865 0.51380116 0.040076487 0.0047435295 -0.15940662
0.098923035 0.97847986 0.28850067 0.07243516 -0.11292303 0.0923549 0.26209992 -0.1415782
-0.5159627 -0.13256857 0.10834712 -0.2738237 -0.06869713 -0.070052184 -0.08963507 0.12197766
0.10355052 0.26214302 -0.062394727 0.39704388 0.04137505 0.029870322 -0.022220597 0.04611906
0.10367863 0.38172355 0.32413837 0.0038849544 0.18467714 -0.10033803 -0.0252626 0.13274968
-0.28054398 0.02535629 0.30208135 -0.08264327 -0.06981321 -0.11865577 -0.1716301 -0.075160936
0.0465053 -0.09848525 0.14353171 0.11265058 -0.18483116 -0.09065495 0.051796265 -0.1393056
0.24750878 0.15618953 0.07751164 0.06095629 -0.10905059 0.13375263 0.009478508 0.10697843
0.30787718 -0.275703 0.07329106 -0.065196455 0.15798548 -0.003977548 0.059630644 0.0396747
0.3137423 0.25088024 0.0027758086 0.39648858 -0.19141561 0.24085492 -0.17060672 0.40123072
-0.12797754 0.20078313 0.388414 -0.13480698 0.18416187 0.03171901 -0.13278453 -0.1789551
-0.1750092 0.5453443 0.5528534 0.1986456 0.0010057235 0.1212618 0.024469052 -0.2557854
-0.050943628 0.2450222 0.087087855 0.03784225 -0.039053004 -0.067653164 -0.13231854 0.15609005
0.04154483 0.038935833 0.004549247 0.046862487 0.32982776 -0.05379581 0.062310882 0.019038677

preamp.model.lin.weight f4 [1, 48]
00000000: a22f ef3d f588 90bd 86a8 6bbe 0374 6cbd
00000010: f6fb 7d3d cfe4 8cb8 dfa6 d7be 3138 77be
00000020: 3f1e 4fbe a800 363e e8e9 b0bc a6bf 0f3e
00000030: 50cb a8bd a896 4dbd 1fb8 77bd de15 b13c
00000040: e010 76bd fef2 0cbe f274 613c ad37 8fbd
00000050: 5e8c aabe 253b 35bc 56d5 75bd 9a94 343d
00000060: 3b61 313e 129f b13c 1d7e e43d f69c 363e
00000070: 4b84 2e3e c63f 0a3e 2d89 cb3e 7dd2 1a3d
00000080: de89 8ebd 1b93 09bd 50f3 87bc 6ac1 d63e
00000090: 9d6e be3b 6328 243f 8282 033e e38f 673e
000000a0: 9fa9 9b3d 5846 f9be a8cc b7bd faff 833d
000000b0: 23bb 9b3d df23 973c cda4 183f 9857 2f3e
0.11679007 -0.070573725 -0.23013505 -0.057727825 0.062007867 -6.718339e-05 -0.421195 -0.24142529
-0.20226382 0.17773688 -0.02159591 0.14037952 -0.08241904 -0.050192505 -0.060478326 0.021616872
-0.060074687 -0.13764569 0.013760792 -0.06993041 -0.33310217 -0.011061464 -0.060017906 0.04408703
0.17322247 0.021682296 0.11156867 0.17833313 0.17042653 0.1350089 0.39753094 0.037798394
-0.0695989 -0.033587556 -0.016595513 0.41944438 0.005811526 0.64124125 0.12842754 0.22613482
0.07600712 -0.4868648 -0.08974582 0.06445308 0.07604053 0.018449722 0.59626466 0.17123258

exp_avg f4 [192, 4]
00000000: 51fa 47b6 42a0 c437 ea61 a337 22c5 d137
00000010: a8f7 cf37 02f0 fc38 fbfc 1d39 6276 1339
00000020: b502 6c37 7365 36b6 20fc 3a37 0611 47b8
00000030: fea3 cab6 d2ef 10b8 4831 40b8 bcda 2ab8
00000040: a874 9438 9593 00ba a4da 6aba b813 21ba
00000050: 2d9e 2837 ea88 85b5 eb52 3ab7 dcde 99b6
00000060: 21dc a438 ca39 bbb9 af0b d0b8 5396 73b9
00000070: 9cb8 f3b6 ddd2 d438 1a4b 8c38 af71 9238
00000080: 3736 1cb6 5a37 2936 fc4c d3b7 0df7 9ab7
00000090: 97dc 5037 261c 36b9 4a23 acb9 dd79 71b9
000000a0: f365 c838 bc91 d2b9 94b3 9ab9 c288 1cba
000000b0: deb3 c436 c47b 3e38 cede 5c38 21e8 4938
000000c0: 719f 5538 ec6d 8fb9 b728 a5b9 db6c b2b8
000000d0: de6b 9737 0439 8538 e68e 1fb6 92df 3b38
000000e0: ab4f 33b7 ebce d137 e50d 5b38 c37e dfb6
000000f0: 8726 96b6 c72a 1338 494f 2ab7 58e5 1e38
00000100: 0efe 5037 a614 ab38 4a57 c938 cfe3 9438
00000110: 0697 3ab8 8d64 44b7 19c0 1138 63e7 ae37
00000120: 6acb 04b6 2e08 0439 b29b f638 0eed 1c39
00000130: ea45 cc36 0ad6 31b8 3f9f 2fb8 75e4 42b8
00000140: 2f57 dfb7 03dd a4b8 01c5 8bb8 b9ae 9e37
00000150: 95c6 2ab7 8687 cd38 47a6 6f38 b641 1c38
00000160: 7f91 4239 1e77 c4ba e80d f9ba 2528 d9ba
00000170: 097e e338 5c73 e5b9 181d 8cb9 d2af 03ba
00000180: 0dda 8437 44b9 8db6 9fbe a736 1124 b3b7
00000190: bfc5 8636 94dd a5b7 46bb a9b7 3c47 25b8
000001a0: 781d 4136 4ee8 9e37 707d fd37 1db3 8737
000001b0: ea61 21b7 bf81 3bb8 0be4 2eb8 0a4a 6eb8
000001c0: 4559 1f36 b007 98b4 d6fe 69b6 0d59 6c37
000001d0: 0f3b e7b5 e036 2f39 6fa2 71b8 d30e 4fb9
000001e0: c205 7db8 ff15 36b8 18bb f238 9eb4 a439
000001f0: f97e bc36 217f e736 badd 9737 0318 fd37
00000200: 95f5 9ab4 2a78 ed37 91ef 0338 8349 a137
00000210: e18a 3438 9759 3239 3848 4d39 9652 20b9
00000220: de55 3139 6f01 3eba dd66 90ba cb30 15ba
00000230: 6fcc 9bb7 0cdf b8b8 e76d 14b9 ee38 aab8
00000240: 9507 0439 a184 1239 a45d 3739 515a 2f39
00000250: 2fb9 d236 c12e 92b8 d525 cab8 b345 73b8
00000260: 4c40 a136 f485 a337 98aa f5b7 3233 e435
00000270: 21d1 4c37 21b9 91b8 ad3a b9b8 f076 a1b8
00000280: f0a6 04b7 bd13 8bb7 f9eb a3b7 bbc2 efb6
00000290: bc3f 3138 a3c8 f938 97b8 7ab9 79bf b8b7
000002a0: 93b7 bd38 7654 efb9 6b14 15ba ada7 07ba
000002b0: 8571 6e37 7e60 dbb7 5415 4c37 8afd 06b6
000002c0: dc9e c635 fa57 05b8 226d f035 6093 48b8
000002d0: e02b c437 a968 b9b8 337c ceb8 0a1f dbb8
000002e0: 41f3 1430 b469 55b7 4bc3 98b8 d3ce 39b8
000002f0: 45fe 7636 f28b bb36 0866 f7b6 f082 d137
00000300: 0c54 dfb6 f3fd 1e38 28e6 ed37 feaf 2838
00000310: e24a 9fb5 2a8a 4fb6 d0bb 9337 a75a 1837
00000320: f5e4 fcb6 cec3 93b8 c8c2 09b9 d07e afb8
00000330: 307a 06b7 ad0b 56b8 d6cb 82b8 6b68 70b8
00000340: 2524 ab37 eb8d edb9 0a54 81ba e128 03ba
00000350: fc7a d137 7bd4 5338 6ee8 fd37 f090 2138
00000360: 6753 8537 fa86 3ab9 6dc8 8ab8 95c0 7bb9
00000370: c800 2db7 1074 0b38 e1df 91b7 8f25 d8b7
00000380: efeb 4e35 70cc 28b7 20e3 b6b8 8790 9eb8
00000390: 9c11 8c37 7dc2 62b8 f3b8 64b9 3745 1db9
000003a0: 9c02 ca38 20da 01ba 69d7 dfb9 dd89 32ba
000003b0: 25c7 4837 225b 6738 4cb5 9838 4307 6538
000003c0: ceb1 5db7 84ea 0dba 9f14 26ba 967a a6b9
000003d0: 1143 8036 ba3a 5338 b046 ac37 1527 7937
000003e0: 24ac f9b6 7f69 d138 bd3e ef38 82eb 7038
000003f0: e478 77b6 7b8d 9f37 1bea a336 6bed b037
-2.9799014e-06 2.3439647e-05 1.9476709e-05 2.5006539e-05 2.4791647e-05 0.00012061001 0.0001506693 0.00014063113
1.4067326e-05 -2.7179165e-06 1.1145166e-05 -4.746115e-05 -6.0391603e-06 -3.4555625e-05 -4.5822264e-05 -4.073487e-05
7.078919e-05 -0.0004904804 -0.00089589716 -0.0006144601 1.00504085e-05 -9.949119e-07 -1.110577e-05 -4.5856996e-06
7.8611316e-05 -0.00035710476 -9.920389e-05 -0.00023230286 -7.2634557e-06 0.00010148224 6.689709e-05 6.982998e-05
-2.3277369e-06 2.5215181e-06 -2.5189009e-05 -1.8473273e-05 1.2449126e-05 -0.00017367359 -0.0003283269 -0.00023028949
9.555733e-05 -0.00040162902 -0.00029506965 -0.0005971306 5.8621945e-06 4.5414796e-05 5.265959e-05 4.813832e-05
5.093165e-05 -0.00027356984 -0.00031501587 -8.507977e-05 1.8050832e-05 6.352554e-05 -2.3776024e-06 4.479249e-05
-1.0687781e-05 2.5011095e-05 5.222661e-05 -6.660675e-06 -4.4748335e-06 3.508737e-05 -1.015125e-05 3.788373e-05
1.2456918e-05 8.1577615e-05 9.600686e-05 7.0996226e-05 -4.4486507e-05 -1.1705922e-05 3.47496e-05 2.0850164e-05
-1.9787935e-06 0.00012591548 0.000117591946 0.00014965629 6.087813e-06 -4.2399428e-05 -4.187156e-05 -4.646597e-05
-2.662427e-05 -7.861296e-05 -6.664731e-05 1.891643e-05 -1.0179026e-05 9.800405e-05 5.71369e-05 3.7254496e-05
0.00018555483 -0.0014989113 -0.0019001337 -0.001656775 0.000108476794 -0.00043764233 -0.00026724557 -0.00050234527
1.5837164e-05 -4.223695e-06 4.999179e-06 -2.1355258e-05 4.016532e-06 -1.9772713e-05 -2.0233576e-05 -3.9405408e-05
2.8776394e-06 1.8943243e-05 3.0218362e-05 1.617666e-05 -9.619145e-06 -4.470511e-05 -4.1697214e-05 -5.6812576e-05
2.3744808e-06 -2.83178e-07 -3.486804e-06 1.408743e-05 -1.722803e-06 0.00016709743 -5.7610156e-05 -0.00019746581
-6.0325263e-05 -4.3412667e-05 0.00011574308 0.00031415088 5.617618e-06 6.899136e-06 1.8103852e-05 3.0171132e-05
-2.886342e-07 2.8308557e-05 3.1455947e-05 1.9226927e-05 4.3044685e-05 0.00017008778 0.00019577227 -0.00015289555
0.00016912023 -0.00072481384 -0.0011016984 -0.00056911696 -1.8572637e-05 -8.8153494e-05 -0.00014155322 -8.116836e-05
0.00012591326 0.00013973053 0.00017487124 0.00016722946 6.280046e-06 -6.970531e-05 -9.639157e-05 -5.8000627e-05
4.805659e-06 1.9493491e-05 -2.9285715e-05 1.7002224e-06 1.2208039e-05 -6.948622e-05 -8.832417e-05 -7.699232e-05
-7.906681e-06 -1.6579283e-05 -1.9540998e-05 -7.1454247e-06 4.2259446e-05 0.00011910617 -0.00023910623 -2.202367e-05
9.046416e-05 -0.0004564856 -0.00056869414 -0.0005174827 1.4212336e-05 -2.6151767e-05 1.2164313e-05 -2.0115135e-06
1.4798384e-06 -3.1791606e-05 1.7913155e-06 -4.782097e-05 2.3385452e-05 -8.840982e-05 -9.8459794e-05 -0.00010448515
5.418777e-10 -1.27204e-05 -7.284301e-05 -4.4300057e-05 3.680486e-06 5.589326e-06 -7.3730516e-06 2.4975714e-05
-6.6557022e-06 3.7906644e-05 2.8359776e-05 4.0218227e-05 -1.1868217e-06 -3.0925826e-06 1.7611223e-05 9.081013e-06
-7.5368393e-06 -7.045978e-05 -0.000131379 -8.368271e-05 -8.015471e-06 -5.103245e-05 -6.2368505e-05 -5.7317706e-05
2.040162e-05 -0.000453099 -0.0009866965 -0.0005003345 2.497201e-05 5.0504208e-05 3.0268184e-05 3.8520375e-05
1.5893673e-05 -0.00017788625 -6.617685e-05 -0.00024008968 -1.0311785e-05 3.3248274e-05 -1.7389599e-05 -2.5766696e-05
7.708431e-07 -1.006118e-05 -8.7207416e-05 -7.5609474e-05 1.66975e-05 -5.406373e-05 -0.00021812673 -0.00014998471
9.6325966e-05 -0.00049534626 -0.00042694368 -0.00068107044 1.1967296e-05 5.5159566e-05 7.281694e-05 5.4604618e-05
-1.3214025e-05 -0.00054136687 -0.000633547 -0.0003175332 3.822505e-06 5.0361014e-05 2.0536914e-05 1.4850656e-05
-7.440818e-06 9.985547e-05 0.00011408094 5.7439793e-05 -3.6876236e-06 1.9020159e-05 4.885032e-06 2.1091391e-05

exp_avg_sq f4 [192, 4]
00000000: 16a1 9a30 c7fb ab33 9ace b833 bc2b c133
00000010: 0b24 1e34 5627 af35 a8f5 ad35 6f61 b835
00000020: bc5c 1f33 f3ba 1537 2447 0837 04cf fd36
00000030: 26a6 2632 440c 2535 dd65 1635 6140 1035
00000040: 0c8c 0c35 3606 3b39 b71f 2e39 49e8 2b39
00000050: d02a f031 4bed 7a34 2071 7934 f20f 9534
00000060: 3d3e 1c34 7c47 4c39 636e 4a39 4027 4e39
00000070: 33fd 9331 e5b5 0635 4f1b b534 6c32 c434
00000080: a64b ba30 c44e 6e33 8ed5 4f33 1c0f 3833
00000090: 70d2 9831 989b c736 2f4b ba36 dfa0 ba36
000000a0: e346 bf36 8182 6c38 06b3 7a38 a402 9238
000000b0: b543 2f31 01e4 7d33 3747 6f33 c5a1 8633
000000c0: d499 a334 ade6 bb37 7208 aa37 de8c a437
000000d0: c803 9a35 db70 ad36 6c0f a236 f9d5 ab36
000000e0: ce3f 5832 7442 4236 ace6 5236 b89c 7136
000000f0: b66b e131 4a2a 5535 d9d3 6435 140e 7735
00000100: 6b26 c332 dd6e 0c34 9888 0634 0b00 1634
00000110: ce3b e033 7945 3337 0e1b 3737 9f2f 4137
00000120: 93d2 6934 2f12 0c36 84d9 1436 d78c 2936
00000130: ae0e af32 85f1 3634 c1b6 3334 5390 4334
00000140: d71d ad31 14fd 0f34 2176 d633 a1ee b633
00000150: 73a5 2833 b59f ae35 47bf a135 5114 aa35
00000160: 8259 5736 8ddf e739 8f38 dd39 748d e439
00000170: c7bc 9c35 54ff 6c38 b4af 6e38 b25c 8438
00000180: 7ca7 1633 4372 4435 9d92 4835 fb2f 6235
00000190: d257 2132 0a6f 0634 161d 1834 a0b1 2a34
000001a0: da15 f631 f267 3734 6eb6 3834 22e2 3534
000001b0: 1f8a 4e32 368b d534 cf6d d534 484e de34
000001c0: ddcf 4032 abfd 9d34 d48d 8034 4230 7534
000001d0: d414 0634 bfef b238 24f1 b138 021f c138
000001e0: 74b6 3533 d379 6037 57f6 3037 3492 4237
000001f0: 5f53 8632 28c0 8b34 70c8 8c34 1104 9134
00000200: 9397 ac30 dcf9 8c33 b7bd 9333 0c38 9333
00000210: 8b25 c835 8164 2c38 0576 2938 1f65 3438
00000220: 7b38 cb35 ebda ca39 5c6f be39 ff94 bf39
00000230: 0b60 5f31 b701 5a35 faae 3235 1524 6235
00000240: 6303 0d35 e43e 5936 c46f 6836 9a09 7a36
00000250: 8f31 cc31 5bac d435 892c d835 fb9e c335
00000260: 2dcf 7331 de1b 6934 a7ff 6834 3258 8434
00000270: d2ff 8231 1ac3 d134 4eca b934 c4f8 bc34
00000280: d31b 2932 5cdc 9834 4789 a834 4713 af34
00000290: e8d0 9f33 b711 bf37 8166 b637 b35e c437
000002a0: a933 ce34 f7ab f137 72d5 e337 7b37 ed37
000002b0: 2e84 d432 9946 e434 6f2b eb34 d153 fe34
000002c0: 4360 1b32 48b8 f635 ee60 0936 a94f 1136
000002d0: e7a3 6232 b698 2136 33a5 4736 9422 6636
000002e0: 3c29 4e32 c752 1f35 ab9f 2e35 aed5 3835
000002f0: 7528 0231 610c a134 a00e 8b34 f83c 9034
00000300: b9bf 9e31 14e0 bb34 6c7b c934 7402 d734
00000310: 6d43 be32 a705 1435 3d5e 1435 befd 1b35
00000320: 21ec 8133 4fda 1537 3924 0237 966d e136
00000330: c8c9 7332 65fe 8a35 63c6 7a35 d8f2 7235
00000340: 4774 db34 56a9 7e39 13e8 7139 b092 7339
00000350: 4a73 f532 eae9 1f34 14ca 2734 4fe2 4234
00000360: f000 eb33 0ffc 1539 e78e 1939 bfc3 1e39
00000370: 63e3 8e31 e977 1d35 6abd bf34 257d b734
00000380: 47b6 2d32 94e4 1835 5ef1 0a35 4580 1135
00000390: f854 9531 aa47 9536 cff7 8c36 cc53 8836
000003a0: fca2 4136 1126 3d38 ccdd 4738 6987 6538
000003b0: 60a4 6231 7031 e933 be52 f333 83d2 e633
000003c0: 9c86 1e35 eb35 0138 090a f437 e0c6 f637
000003d0: dad5 4731 a3da a135 a2db 9335 36a3 9f35
000003e0: 10dc 5432 6eda 2336 e479 3336 a9bc 4936
000003f0: cdfe c232 537a 0b34 2347 0f34 18cd 1f34
1.1250758e-09 8.008606e-08 8.605748e-08 8.995218e-08 1.4728009e-07 1.3049964e-06 1.2961e-06 1.3737425e-06
3.7104414e-08 8.92462e-06 8.122795e-06 7.5640874e-06 9.7002495e-09 6.148514e-07 5.6027585e-07 5.3737864e-07
5.235786e-07 0.00017836023 0.00016605748 0.00016394364 6.9897865e-09 2.3369391e-07 2.3231087e-07 2.7765014e-07
1.4551274e-07 0.00019481586 0.00019305343 0.00019660313 4.3070485e-09 5.018358e-07 3.3733747e-07 3.6544532e-07
1.3554782e-09 5.548533e-08 4.839017e-08 4.285458e-08 4.447706e-09 5.9487757e-06 5.5519845e-06 5.56196e-06
5.700496e-06 5.6388326e-05 5.9771373e-05 6.9623144e-05 2.5504339e-09 5.911352e-08 5.5711293e-08 6.269287e-08
3.047304e-07 2.2399554e-05 2.0269512e-05 1.961592e-05 1.1474995e-06 5.16894e-06 4.8297716e-06 5.121107e-06
1.2587362e-08 2.8946934e-06 3.1426707e-06 3.600302e-06 6.560607e-09 7.941022e-07 8.52449e-07 9.2035157e-07
2.2718458e-08 1.3078848e-07 1.2529415e-07 1.3969854e-07 1.0441691e-07 1.0685407e-05 1.0913949e-05 1.1514784e-05
2.1776422e-07 2.087221e-06 2.218033e-06 2.5264942e-06 2.0379357e-08 1.7037935e-07 1.673716e-07 1.8213295e-07
5.038355e-09 1.3409982e-07 9.986639e-08 8.518442e-08 3.9266023e-08 1.3010491e-06 1.2051104e-06 1.26719e-06
3.2089597e-06 0.00044226312 0.00042194544 0.0004359294 1.1677847e-06 5.6504578e-05 5.6907258e-05 6.311516e-05
3.5076923e-08 7.318196e-07 7.4719156e-07 8.426138e-07 9.391401e-09 1.2520118e-07 1.4166685e-07 1.5897103e-07
7.1620265e-09 1.7081018e-07 1.7202703e-07 1.6939205e-07 1.2022183e-08 3.977563e-07 3.9754238e-07 4.140768e-07
1.12231335e-08 2.9428097e-07 2.3945051e-07 2.2834959e-07 1.24873e-07 8.5323576e-05 8.484934e-05 9.208733e-05
4.2308287e-08 1.3379805e-05 1.0547773e-05 1.1597342e-05 1.5637566e-08 2.603058e-07 2.622287e-07 2.7011313e-07
1.2557727e-09 6.564707e-08 6.87973e-08 6.855416e-08 1.4912088e-06 4.1101597e-05 4.0402654e-05 4.300952e-05
1.5141117e-06 0.0003869155 0.00036322593 0.0003654137 3.2505365e-09 8.1213824e-07 6.656479e-07 8.4244067e-07
5.253152e-07 3.2372127e-06 3.463575e-06 3.7258492e-06 5.9428156e-09 1.5845393e-06 1.6106216e-06 1.4574902e-06
3.547892e-09 2.1709954e-07 2.169969e-07 2.4651087e-07 3.8125814e-09 3.907124e-07 3.460613e-07 3.519873e-07
9.843421e-09 2.847254e-07 3.139232e-07 3.2610316e-07 7.442014e-08 2.2777223e-05 2.1743823e-05 2.3409119e-05
3.8408078e-07 2.8809516e-05 2.7159902e-05 2.8278437e-05 2.4740157e-08 4.2519676e-07 4.3803763e-07 4.737217e-07
9.044075e-09 1.8382061e-06 2.0471011e-06 2.1653052e-06 1.31921984e-08 2.407976e-06 2.974947e-06 3.4292798e-06
1.2000154e-08 5.935257e-07 6.50524e-07 6.8856286e-07 1.8940487e-09 2.9997594e-07 2.590141e-07 2.686645e-07
4.6202016e-09 3.4994503e-07 3.752897e-07 4.0048656e-07 2.2149573e-08 5.514252e-07 5.527143e-07 5.8111243e-07
6.049982e-08 8.931921e-06 7.757038e-06 6.71828e-06 1.4190341e-08 1.035584e-06 9.342095e-07 9.050541e-07
4.0876532e-07 0.0002428641 0.00023070005 0.00023228931 2.8574181e-08 1.4893126e-07 1.5626603e-07 1.8149989e-07
1.0943211e-07 0.00014303646 0.00014644452 0.00015140975 4.158595e-09 5.866155e-07 3.571434e-07 3.417746e-07
1.011137e-08 5.695704e-07 5.176024e-07 5.4203366e-07 4.3461306e-09 4.448889e-06 4.201174e-06 4.062871e-06
2.885411e-06 4.5096564e-05 4.765186e-05 5.4723965e-05 3.2980765e-09 1.08589006e-07 1.133062e-07 1.07485015e-07
5.905547e-07 3.080621e-05 2.909174e-05 2.9418094e-05 2.9079872e-09 1.2059066e-06 1.1016275e-06 1.1893924e-06
1.23900605e-08 2.4416036e-06 2.6744028e-06 3.0061149e-06 2.2700442e-08 1.2989885e-07 1.3343792e-07 1.4882642e-07

exp_avg f4 [192, 48]
00000000: baeb fbb6 d0be 20b6 13f2 ac37 30c9 4cb7
00000010: e29f 7a37 f5f2 26b6 57cc e5b6 9484 6936
00000020: 2ffc e735 b836 7437 b05d c836 63c8 1ab6
00000030: ba96 6c37 efff f6b4 f7a2 f035 42bb 9bb5
00000040: c972 9b34 346a 1a36 7014 1337 fd9d 89b5
00000050: 9d21 93b4 9bcd 4736 c5fb 89b7 add2 53b7
00000060: 59fc 5c36 fceb 0d36 cb9b 7f37 0fab 3436
00000070: addb 9435 359c 60b7 a989 92b6 9614 4a35
00000080: c275 19b7 dd19 7236 5f4a b9b7 d5c9 82b4
00000090: 1d1e 34b7 8e77 0db8 b488 e4b5 4af3 b5b6
000000a0: aee4 3e36 145a 23b7 e6d9 85b7 5a35 4d34
000000b0: afc9 bb37 6fb3 beb6 50a0 25b6 3359 e535
000000c0: 4984 c3b8 c148 4e37 1600 9338 3a08 70b8
000000d0: e32a c237 d83c 3db8 78c6 6db6 d390 fdb6
000000e0: 1904 8037 9834 1738 af91 5437 6aca 9038
000000f0: ea25 4538 8738 6ab7 1f9d 8db7 80d4 2038
00000100: d34b ecb6 747c c238 e8a1 f538 14a5 3837
00000110: b71c 82b6 a386 8bb5 59d3 88b8 03c4 c436
00000120: 4ec8 19b7 1d70 c7b7 bae1 8538 a3fc c2b7
00000130: a6d6 e537 f4d7 ddb8 a2e9 5937 6dab e5b7
00000140: bb6e acb8 c099 39b8 9509 c6b7 d8ec 49b7
00000150: 73f7 09b7 261a d4b8 aeb2 03b7 7d2b 00b8
00000160: 40e9 3938 379f 99b8 5897 9437 849c c2b6
00000170: 661b ecb6 7768 eeb5 cdd9 0b38 dd73 9e37
00000180: 08fc da37 6211 e536 7142 f7b8 0708 4c38
00000190: 581b fcb8 99f7 b636 e125 70b8 0766 5bb7
000001a0: c06c 1db8 090e 30b8 0886 2336 776c 0638
000001b0: a0fc 99b8 353f 8437 86da 3b38 53b4 a736
000001c0: df94 cfb6 57fb 61b8 a4e7 52b7 f736 4837
000001d0: 1212 3d37 1a23 50b5 e060 8438 b730 0c38
000001e0: 04e6 b536 2089 5435 ca9f 09b8 f699 1838
000001f0: 0a18 2bb8 747a ba37 dbce afb7 b37f 9cb6
00000200: c79e 1e38 b537 ffb6 cd75 ce38 d18b a7b7
00000210: b13c 4338 f86f 7338 3001 9936 b715 0238
00000220: bb9d c1b7 4881 2eb8 fcf6 9037 61a5 1eb6
00000230: 412c 20b8 12e7 d337 7576 0238 42a2 cdb6
00000240: 793f 0938 99d5 a836 9fce 18b8 2906 d537
00000250: 1f0b 42b8 5a77 5237 1967 eb36 9070 26b6
00000260: 7985 83b7 518e 91b7 832d 0eb6 b576 25b6
00000270: e6b3 09b8 ad64 4837 2811 6037 6af3 8a37
00000280: 2109 b936 ee25 f2b7 00d4 0437 11e4 26b6
00000290: aa8b 1f36 31af b836 3533 d937 8404 ee36
000002a0: f90e 4635 8b13 0eb8 05e7 d6b6 93c1 13b7
000002b0: 243d 69b7 e650 1738 5a3c 7db7 028a 1836
000002c0: 6d24 b537 8dd5 5b36 13f3 0938 1f4a d7b6
000002d0: 98fb fb37 c8fb 0038 d7be 6434 f707 8637
000002e0: 5ce9 b2b7 17ac 9137 ed81 ea36 f93e 0636
000002f0: 2fc4 46b6 d1fd dc35 0a35 b636 665c dab6
00000300: 0789 f439 5200 c638 98a8 b6b9 c4c4 1d3a
00000310: 8ccc 93ba 8c90 b5b8 22b7 25b8 d2b7 cbb7
00000320: 453c c2b9 e016 2ab8 07e2 dfb7 75c4 61b9
00000330: d30f 2fba 8583 2639 a2aa 8f39 3816 0eb9
00000340: 72c9 d8b8 37c7 27ba 2c2c 70ba 3d40 9e37
00000350: c7bf d338 299b 2138 2c7e 253a 329f 0039
00000360: d2e8 0838 3efc 5f38 c3f9 0eba 8194 aa39
00000370: e141 71b9 59a4 513a 8a17 9db9 2add 8bb8
00000380: 1577 4e3a 5794 9a39 ca59 773a 2dea a435
00000390: cefc 323a 5660 b139 bb1b 0037 4cf3 4439
000003a0: 86af b3b9 8aad 7c39 20f2 8439 952e 64b8
000003b0: 5873 f139 50a6 9138 e05c 8337 9ac0 6ab9
000003c0: 0f9b 3534 b0b6 1037 8c11 d1b5 4cca b237
000003d0: 9b5e 6eb8 849b 64b7 0e00 01b7 8e01 1b36
000003e0: 9cbb 0bb7 3856 9036 3d55 19b6 8ead 1437
000003f0: 5aad e4b7 eb27 c436 1ae2 3bb6 459d ccb6
-7.507825e-06 -2.3952925e-06 2.0616722e-05 -1.220619e-05 1.4938387e-05 -2.4877347e-06 -6.84852e-06 3.4796876e-06
1.7284236e-06 1.45562735e-05 5.971371e-06 -2.3064429e-06 1.410179e-05 -4.6007287e-07 1.7928822e-06 -1.1602899e-06
2.8954517e-07 2.3009607e-06 8.766641e-06 -1.0253276e-06 -2.740534e-07 2.977299e-06 -1.6448912e-05 -1.2625632e-05
3.292944e-06 2.1147998e-06 1.5235458e-05 2.692166e-06 1.1090793e-06 -1.338781e-05 -4.367165e-06 7.528082e-07
-9.146928e-06 3.6075865e-06 -2.208835e-05 -2.436124e-07 -1.0735847e-05 -3.3728364e-05 -1.702711e-06 -5.422543e-06
2.8445315e-06 -9.73653e-06 -1.5956302e-05 1.9111522e-07 2.2386053e-05 -5.68333e-06 -2.468023e-06 1.708779e-06
-9.3229646e-05 1.2295496e-05 7.009522e-05 -5.722812e-05 2.3146573e-05 -4.5117777e-05 -3.5431276e-06 -7.5568473e-06
1.5260697e-05 3.6050187e-05 1.2670104e-05 6.9041576e-05 4.700377e-05 -1.3960648e-05 -1.6881675e-05 3.834488e-05
-7.042175e-06 9.273822e-05 0.00011712668 1.100569e-05 -3.8776448e-06 -1.0395491e-06 -6.524352e-05 5.864074e-06
-9.166148e-06 -2.3774855e-05 6.383979e-05 -2.3244245e-05 2.739888e-05 -0.000105783256 1.2988605e-05 -2.7378754e-05
-8.222224e-05 -4.4250628e-05 -2.3607901e-05 -1.2035678e-05 -8.22345e-06 -0.00010113818 -7.849811e-06 -3.055808e-05
4.4324668e-05 -7.3252646e-05 1.771345e-05 -5.7998714e-06 -7.0365377e-06 -1.7762785e-06 3.3343025e-05 1.888902e-05
2.6104986e-05 6.8267555e-06 -0.000117902535 4.8644866e-05 -0.000120213896 5.452847e-06 -5.7255736e-05 -1.3077172e-05
-3.7533e-05 -4.197474e-05 2.436691e-06 3.2049105e-05 -7.3426636e-05 1.576506e-05 4.478779e-05 4.9979803e-06
-6.1864116e-06 -5.387826e-05 -1.2570908e-05 1.19337265e-05 1.1269485e-05 -7.753712e-07 6.312295e-05 3.342397e-05
5.4209977e-06 7.91757e-07 -3.281216e-05 3.638301e-05 -4.0791965e-05 2.222995e-05 -2.095795e-05 -4.6640284e-06
3.781801e-05 -7.6060774e-06 9.8447876e-05 -1.9973058e-05 4.6548146e-05 5.8039994e-05 4.5598936e-06 3.101464e-05
-2.3080842e-05 -4.1605235e-05 1.7281149e-05 -2.3640098e-06 -3.8188187e-05 2.526076e-05 3.1104737e-05 -6.1283654e-06
3.272246e-05 5.031656e-06 -3.6432055e-05 2.5394447e-05 -4.626356e-05 1.2544764e-05 7.015548e-06 -2.4801448e-06
-1.567857e-05 -1.7351618e-05 -2.118614e-06 -2.4656013e-06 -3.283089e-05 1.1944369e-05 1.3355435e-05 1.656423e-05
5.5144924e-06 -2.886631e-05 7.917173e-06 -2.486868e-06 2.3774141e-06 5.5040223e-06 2.5892261e-05 7.0934784e-06
7.3782536e-07 -3.387364e-05 -6.404591e-06 -8.806953e-06 -1.3902118e-05 3.6076548e-05 -1.5094027e-05 2.2730096e-06
2.1593843e-05 3.2757846e-06 3.2889726e-05 -6.416128e-06 3.003869e-05 3.0752068e-05 2.1303582e-07 1.5977754e-05
-2.132792e-05 1.7365483e-05 6.988869e-06 2.000421e-06 -2.9618493e-06 1.6465148e-06 5.4301972e-06 -6.507663e-06
0.000466414 9.4414354e-05 -0.00034839357 0.0006018395 -0.001127617 -8.6576765e-05 -3.950962e-05 -2.4285084e-05
-0.00037047468 -4.0552462e-05 -2.6688924e-05 -0.00021530858 -0.0006678078 0.00015879988 0.00027402217 -0.00013550452
-0.00010337205 -0.000640023 -0.00091618556 1.8864981e-05 0.00010096985 3.8529895e-05 0.00063130516 0.00012266336
3.2641758e-05 5.3402262e-05 -0.00054540875 0.0003253557 -0.00023008093 0.0007997207 -0.00029962912 -6.6692315e-05
0.0007876021 0.0002948369 0.0009435682 1.2287106e-06 0.0006827832 0.00033831847 7.635851e-06 0.00018782652
-0.00034272316 0.00024097241 0.000253574 -5.440282e-05 0.0004605304 6.945117e-05 1.5659665e-05 -0.00022387729
1.6913349e-07 8.625604e-06 -1.557682e-06 2.1313455e-05 -5.683173e-05 -1.3626068e-05 -7.689012e-06 2.3097705e-06
-8.328727e-06 4.3015716e-06 -2.2848392e-06 8.861896e-06 -2.7260441e-05 5.8459023e-06 -2.799678e-06 -6.0979824e-06

exp_avg_sq f4 [192, 48]
00000000: 3f45 b132 ce75 3430 6b33 6d32 b164 3033
00000010: e486 a033 3c77 9b2f 7f77 0d32 43fe 422f
00000020: 86b1 0c32 1350 be31 4115 1831 baf3 2d32
00000030: 409f 0233 ddb2 6430 c457 2832 709c 3732
00000040: 6977 7730 d8f0 8532 cb40 db33 43db 952f
00000050: dfc2 af2d a607 8630 1f57 3f33 89fd ed31
00000060: 9f00 8730 1a19 4432 7b36 3733 8ff9 1b32
00000070: 7281 0831 99db a433 0aa6 f730 78c7 4c2e
00000080: aadb 8933 4921 1432 dc9d 8633 50b2 d931
00000090: 70cb 0433 0a3a d932 cc95 9430 ea5c ff30
000000a0: ae8a 6032 92ae ab32 20df 4a32 367b 832e
000000b0: 1930 3b33 bf43 3631 b024 b230 b2cd 4531
000000c0: b8d1 7f35 069d 3a33 0cfc 3d36 49c3 8c35
000000d0: 206d 2536 0639 9b34 3f81 3734 4491 1632
000000e0: 68bc 8235 3bd2 9f35 bf40 0e33 31e0 4c35
000000f0: 2fea 2f35 8514 8133 088d 9335 e54f 0b35
00000100: 8294 db33 aea1 8935 2bd8 6736 7582 9b32
00000110: 6f2d 5f32 4e1a 3132 5f1f 8335 918e 7934
00000120: 2bc8 e632 429c 8035 51f5 3e35 79e6 6235
00000130: 3584 b133 a97e 0b36 3ff7 8c34 5275 ad33
00000140: cde9 0536 f3c4 2c35 210b d535 7273 c434
00000150: d755 7f35 e4bc d536 9cba 1433 2d67 0734
00000160: d5fa 4135 e0de 2635 5370 af34 5aa9 ac32
00000170: 5adf c136 1ecf cc34 3bfa d434 01bf 2b34
00000180: eb12 c636 54de 9f33 4a60 3f36 6d51 e636
00000190: da5f 6837 440b 4331 e3c1 b435 9b06 1f33
000001a0: 9298 5836 355f 3e35 115c 9c33 e1c8 9f35
000001b0: 78a0 b136 25d5 d634 dee7 2e34 5d73 0d35
000001c0: 2f87 8633 3023 cb36 5c6e 5737 eeb0 e130
000001d0: 3d2c c532 ea6d 2432 6f55 ba36 2201 f634
000001e0: 5f6b 9b32 e9e7 2b33 9c82 ad36 d24a 8735
000001f0: a64f 0d35 a046 6237 448b e234 2ec4 5d32
00000200: 09d8 1f37 467f 5736 a2f7 1837 11c1 0a34
00000210: f65b f236 4b7a 9635 eaff 7533 e456 1335
00000220: 3d4a 3f36 29dc 9936 f7b5 9d35 5e74 5132
00000230: fed7 9335 64b6 6b33 5a8a 6c34 1c5b 2a35
00000240: 1014 0935 5759 a131 5055 8c35 502e a734
00000250: fbf1 0435 9c5a e932 1acc 3834 d752 1332
00000260: b3dc 1e34 fb89 f834 e104 b12f 889c ec33
00000270: d9e2 c134 afb7 c832 fd2e 3034 5abd ef33
00000280: 089e 3532 e06e e534 e217 5c35 e761 5931
00000290: cc75 8831 e6e1 9231 9015 f933 ade3 2333
000002a0: 4a30 9830 f87c 4834 1b9d 9234 7e19 ce33
000002b0: af89 2f33 72fa 2135 1b36 2b33 cdf4 df30
000002c0: de0b ea34 eb8e d434 0d54 bf34 b082 9733
000002d0: a352 fb34 04be 9235 1680 ba31 5e5b 8432
000002e0: 0377 1034 3657 de34 beba 5b33 4312 1c30
000002f0: 77d4 7c35 f5a9 8933 25f3 3132 b1bb 0533
00000300: 2533 ec38 c73c 9a35 b034 bd38 290a 0139
00000310: 2d09 8339 c28c 3735 8bf4 fa37 a95f 9135
00000320: 62e0 4638 4d84 c137 572c db34 12d2 a737
00000330: d8b4 d238 c81e 0337 bca6 0637 8200 2537
00000340: 8105 e134 b2ed e438 4204 7039 83d6 0334
00000350: d756 9334 26e1 fc34 d286 b138 9663 4536
00000360: a4f1 5434 9b1c a136 612a c438 e11b d237
00000370: a6c6 2037 9239 7f39 a896 b236 515c 8a34
00000380: 1fc0 3539 1a9c 8938 6259 2b39 317e 7236
00000390: edb3 1239 d833 8038 7696 3b35 a102 f836
000003a0: 7028 4038 2f50 ba38 0106 b837 fb54 4b34
000003b0: 28af e537 b66a 2f36 8b4a 1236 e390 1e37
000003c0: 0600 2e34 9c03 b731 5354 7334 cc87 2534
000003d0: d2b3 ad34 efb8 bf32 d269 1033 a8fd 3630
000003e0: 9fd8 2433 f030 2b34 4dfb de30 febd a532
000003f0: 79cd 2d34 e6ee 4832 0ca0 5232 f955 b132
2.0637001e-08 6.565103e-10 1.3806907e-08 4.106977e-08 7.475117e-08 2.8279057e-10 8.2344505e-09 1.7734529e-10
8.189437e-09 5.538831e-09 2.2130993e-09 1.0125342e-08 3.041282e-08 8.3200097e-10 9.798843e-09 1.0687572e-08
9.002777e-10 1.559276e-08 1.0209768e-07 2.7258737e-10 1.9981737e-11 9.751957e-10 4.454989e-08 6.9264314e-09
9.822719e-10 1.1414409e-08 4.2657557e-08 9.0789305e-09 1.9864186e-09 7.67679e-08 1.8018806e-09 4.6561394e-11
6.419516e-08 8.622302e-09 6.268576e-08 6.335803e-09 3.091867e-08 2.5288518e-08 1.0810992e-09 1.85801e-09
1.3070048e-08 1.9986405e-08 1.180868e-08 5.979077e-11 4.3583075e-08 2.6522995e-09 1.2961632e-09 2.8784197e-09
9.5300084e-07 4.344931e-08 2.8309905e-06 1.0487648e-06 2.4650435e-06 2.891249e-07 1.7090223e-07 8.764179e-09
9.740588e-07 1.1907608e-06 3.3120838e-08 7.6322164e-07 6.553336e-07 6.010763e-08 1.0993399e-06 5.1897797e-07
1.02249956e-07 1.025435e-06 3.4547509e-06 1.81037e-08 1.2990639e-08 1.0308737e-08 9.769391e-07 2.3241797e-07
2.686655e-08 9.58222e-07 7.11375e-07 8.452694e-07 8.266253e-08 2.078634e-06 2.6256927e-07 8.077281e-08
1.9954634e-06 6.436159e-07 1.5872976e-06 3.6591842e-07 9.5119816e-07 6.3698844e-06 3.4628655e-08 1.261039e-07
7.226311e-07 6.2164145e-07 3.2678017e-07 2.0100448e-08 5.7778498e-06 3.814866e-07 3.9670144e-07 1.5995103e-07
5.903062e-06 7.444456e-08 2.8517265e-06 6.8640134e-06 1.3850595e-05 2.8382638e-09 1.3467474e-06 3.702608e-08
3.2275316e-06 7.091906e-07 7.281063e-08 1.1904887e-06 5.293692e-06 4.001569e-07 1.6289366e-07 5.269447e-07
6.264451e-08 6.053968e-06 1.2840694e-05 1.6421191e-09 2.2953936e-08 9.571048e-09 5.5531777e-06 4.5821895e-07
1.8093202e-08 4.002496e-08 5.1710067e-06 1.0080059e-06 5.2642497e-07 1.3487093e-05 4.219711e-07 1.2908499e-08
9.527438e-06 3.211158e-06 9.1175625e-06 1.2922489e-07 7.2228677e-06 1.1211463e-06 5.727626e-08 5.488821e-07
2.850443e-06 4.5853853e-06 1.175037e-06 1.219186e-08 1.1015215e-06 5.4881085e-08 2.2029545e-07 6.3462517e-07
5.106567e-07 4.6958735e-09 1.0455642e-06 3.113987e-07 4.952596e-07 2.7165974e-08 1.7210587e-07 8.575362e-09
1.4795187e-07 4.6293994e-07 3.219958e-10 1.1018079e-07 3.6114105e-07 2.3366594e-08 1.6408372e-07 1.11637476e-07
1.0571519e-08 4.2735246e-07 8.199114e-07 3.1633307e-09 3.971513e-09 4.274841e-09 1.1598888e-07 3.8158465e-08
1.107318e-09 1.8671915e-07 2.7308928e-07 9.5972595e-08 4.0870585e-08 6.034162e-07 3.986325e-08 1.6294962e-09
4.359453e-07 3.9592064e-07 3.5637677e-07 7.0552574e-08 4.681252e-07 1.093315e-06 5.427874e-09 1.5408371e-08
1.3454341e-07 4.1414177e-07 5.1159752e-08 5.677842e-10 9.418649e-07 6.4104746e-08 1.0358041e-08 3.113718e-08
0.00011262883 1.1491583e-06 9.022036e-05 0.00012306184 0.00024993104 6.837764e-07 2.9916197e-05 1.0831183e-06
4.741585e-05 2.3069e-05 4.082419e-07 2.0005773e-05 0.00010047265 7.815375e-06 8.025843e-06 9.834885e-06
4.191352e-07 0.000109161614 0.0002288977 1.2278365e-07 2.7444068e-07 4.7102475e-07 8.46513e-05 2.9413254e-06
1.9831947e-07 4.801504e-06 9.353902e-05 2.5046933e-05 9.582995e-06 0.00024340142 5.322352e-06 2.5771672e-07
0.00017333076 6.561745e-05 0.00016341129 3.6134263e-06 0.00013990673 6.113172e-05 6.988188e-07 7.391282e-06
4.5814028e-05 8.8841065e-05 2.1937305e-05 1.8936764e-07 2.738049e-05 2.6139146e-06 2.1799085e-06 9.451268e-06
1.6205021e-07 5.3264113e-09 2.2661816e-07 1.5416225e-07 3.2354598e-07 2.2319425e-08 3.3623856e-08 6.657168e-10
3.838124e-08 1.594342e-07 1.622405e-09 1.9294927e-08 1.6186631e-07 1.1695851e-08 1.2259999e-08 2.0644608e-08
