python/logs/tensorboard/amp_model/21_targets_LSTM40_pwr_GRU8/epoch=15-step=24192.ckpt (torch, 122667 bytes, 30 tensors)

preamp.model.rec.weight_ih_l0 f4 [160, 1]
0	0x3e53df23	0.20690589
1	0x3e5aeac5	0.2137862
2	0xbed17120	-0.4090662
3	0x3eda5d29	0.426492
4	0xbe1a977b	-0.15096848
5	0x3e557a71	0.20847489
6	0xbf45127a	-0.7698132
7	0x3e5d2acf	0.21598361
8	0x3f1ae600	0.605072
9	0x3f354548	0.7080884
10	0x3ec6e5c5	0.38847175
11	0x3e9d61c3	0.3073865
12	0xbf0df116	-0.5544599
13	0x3ef0a66d	0.47001973
14	0x3eba8604	0.3643037
15	0x3d9c5e4f	0.076351754
16	0x3feb9f32	1.8407958
17	0x3e063ee4	0.13109928
18	0xbe7954f0	-0.24348807
19	0x3ebae987	0.36506292
20	0x3dec65e9	0.11542875
21	0xbf94d74d	-1.1628205
22	0x3eeccfef	0.4625239
23	0x3f82b401	1.0211183
24	0x3e350981	0.17679407
25	0xbd9b86e3	-0.07594087
26	0x3ee9d5d9	0.45670965
27	0xbfab685a	-1.339122
28	0x3e748d31	0.23881985
29	0x3efb0c68	0.49032903
30	0x3e34194a	0.17587772
31	0x3f8262e6	1.0186431
32	0xbdc5dba7	-0.09661036
33	0x3e2c1636	0.16805348
34	0x3f02e653	0.51132697
35	0x3ec6d967	0.3883774
36	0x3e0338e0	0.12814665
37	0x3f260c6f	0.6486272
38	0x3e785ecb	0.2425491
39	0x3e26984f	0.16269039
40	0x3ed37e86	0.41307467
41	0x3ec0e211	0.37672475
42	0xbeb2eea6	-0.349477
43	0xbebaa1ac	-0.3645147
44	0xbd01e421	-0.0317117
45	0xbc225ed0	-0.0099103
46	0xbf4d470e	-0.80186546
47	0xbdf3756d	-0.118876316
48	0x3e8761a3	0.26441678
49	0x3e9ff3ee	0.3124079
50	0x3e584870	0.21121383
51	0x3ee10cf0	0.43955183
52	0xbeead55a	-0.458659
53	0x3cda0e34	0.0266181
54	0x3f3b06e5	0.73057395
55	0xbdacf794	-0.08445659
56	0x3fd6fba6	1.6795547
57	0xbe89a50b	-0.2688373
58	0xbf5edf01	-0.87059027
59	0x3f1973f8	0.5994258
60	0x3ee70190	0.4511838
61	0xbfe438b8	-1.7829809
62	0x3f449bfb	0.7680051
63	0x3fa91c66	1.3211792
64	0xbed5b8c3	-0.41742525
65	0xbe846429	-0.25857666
66	0x3eba7292	0.36415535
67	0xbf99fe38	-1.2030706
68	0x3da4ce51	0.08047164
69	0x3f2d0c83	0.67597216
70	0x3e48b67d	0.19600864
71	0xbd8454bf	-0.064614765
72	0x3e990c4d	0.29892197
73	0xbf3dbf8b	-0.74120396
74	0x3ef81a57	0.48457596
75	0xbeb80e10	-0.3594823
76	0x3cf571a0	0.029961407
77	0x3eaee182	0.34156424
78	0xbed39411	-0.41323903
79	0x3e965100	0.29358673
80	0xbe98977f	-0.29803082
81	0xbf329fdc	-0.69775176
82	0xbef269fd	-0.47346488
83	0x3f22519a	0.63405764
84	0xbdc70ae9	-0.09718878
85	0xbe2376c6	-0.15963277
86	0xbf25a809	-0.64709526
87	0x3eae5d65	0.3405563
88	0xbef8d064	-0.4859649
89	0x3fe5174f	1.7897738
90	0x3f32bc1f	0.698183
91	0x3f803496	1.0016048
92	0x3f273b29	0.65324646
93	0x3f904c8f	1.1273364
94	0xbee8bb6c	-0.45455492
95	0x3df2c11c	0.11853239
96	0xc000dd50	-2.0135078
97	0x3eb916ff	0.36150357
98	0xbe193339	-0.14960946
99	0x3ed390a2	0.41321284
100	0x3fed2f09	1.8529979
101	0xbf6fff16	-0.93748605
102	0xbf1991d8	-0.59988165
103	0x3ed7cf35	0.42150274
104	0xbfe5c844	-1.7951741
105	0xbf1cc9b4	-0.61245275
106	0x3e984e6e	0.29747337
107	0xbf9e8130	-1.2383175
108	0x4039c42b	2.9025981
109	0xbd74cc26	-0.059765004
110	0x3ece562b	0.40300116
111	0xbe4551bd	-0.19269462
112	0x3db57414	0.08860031
113	0xbd0a97d3	-0.033836197
114	0xbee51383	-0.4474145
115	0x40583963	3.3785026
116	0xbd60e48a	-0.05490545
117	0x3fa2d29a	1.272052
118	0xbf5fc0b7	-0.87403435
119	0xbd5eb1bc	-0.05436872
120	0x3d6e6604	0.05820276
121	0x3eb70e6d	0.35753193
122	0xbe864bbe	-0.26229662
123	0x3cfc78ae	0.030819263
124	0xbead8a51	-0.3389459
125	0xbd41487e	-0.047188275
126	0xbfe32335	-1.7745119
127	0xbd32b7aa	-0.043632187
128	0x3f3f7626	0.74789655
129	0x3f9fa029	1.2470752
130	0xbe34d36d	-0.17658778
131	0x3c896548	0.016771927
132	0xbf457ab5	-0.7714036
133	0x3f593ff0	0.84863186
134	0x3ecce3a7	0.40017435
135	0xbea96da1	-0.33091453
136	0x4003d872	2.0600858
137	0xbe04bbc0	-0.12962246
138	0xbfb9947a	-1.4498436
139	0x3f25eb7a	0.64812434
140	0x3ddaf1ed	0.10690675
141	0xbeb20e46	-0.34776515
142	0x3f830bf8	1.0238028
143	0x3f946c4f	1.1595553
144	0x3e284f38	0.1643647
145	0xbeba2fdd	-0.36364642
146	0x3ebc2899	0.36749724
147	0xc004bb68	-2.0739384
148	0xbe97799d	-0.2958497
149	0x3f44df35	0.76903087
150	0x3ddc140e	0.10746013
151	0x3f172959	0.59047467
152	0xbe4af273	-0.1981905
153	0xbf3d4c43	-0.7394449
154	0x3f23f1ad	0.6404064
155	0x3edaed0f	0.42758986
156	0x3dd8312d	0.105562545
157	0x3f46e77d	0.77696973
158	0xbe96b9ef	-0.2943873
159	0x3e2dde65	0.16979368

preamp.model.rec.weight_hh_l0 f4 [160, 40]
0	0x3e362501	0.17787553
1	0xbeb2cfd7	-0.34924194
2	0xbeffb8f8	-0.49945807
3	0x3e2f6d59	0.17131557
4	0xbe05331d	-0.1300778
5	0xbcc144b5	-0.023592332
6	0xbee59033	-0.44836578
7	0xbe2cc577	-0.16872202
8	0x3bc330ec	0.0059567597
9	0x3da8dae0	0.08244872
10	0x3e0fc9e0	0.14041853
11	0xbe1fee37	-0.15618216
12	0x3e40b2df	0.18818234
13	0xbdf47e9f	-0.119382136
14	0xbe6b35cb	-0.22969739
15	0x3f12f994	0.57412076
16	0x3b6a5942	0.0035758768
17	0x3f04c827	0.5186791
18	0xbebe191a	-0.37128526
19	0xbe2e51e0	-0.1702342
20	0xbe072607	-0.131981
21	0xbe7b9fc7	-0.24572669
22	0x3de6d340	0.112707615
23	0xbeff5fd8	-0.4987781
24	0xbee397f2	-0.44451863
25	0xbe979067	-0.29602358
26	0xbe552dab	-0.20818202
27	0xbe36b488	-0.17842305
28	0x3e8060b0	0.25073767
29	0xbe8e95aa	-0.2784856
30	0xbe834b2a	-0.25643283
31	0x3d8c1ed7	0.0684182
32	0xbe5356c2	-0.20638564
33	0xbe7e4a90	-0.24833131
34	0xbe5629d1	-0.20914389
35	0x3cb5d14f	0.022194533
36	0x3e772e12	0.24138668
37	0x3ddf0eb9	0.1089148
38	0xbdb199dc	-0.086719245
39	0xbe127464	-0.14302212
40	0x3edc2240	0.4299488
41	0x3d18db47	0.037318494
42	0x3cec2a4b	0.02882876
43	0x3be2af8e	0.0069179004
44	0x3e83b7de	0.25726217
45	0x3dac4b9c	0.08412859
46	0xbe3a87e0	-0.18215895
47	0xbe3d0abd	-0.18461128
48	0xbe21cdbc	-0.15801138
49	0x3d563437	0.05229589
50	0x3ef74357	0.48293564
51	0xbe4b0b3a	-0.19828501
52	0x3ec29449	0.38003758
53	0x3d963379	0.073340364
54	0xbdcc481f	-0.099746935
55	0x3dd2708d	0.102753736
56	0x3d46adc6	0.048505567
57	0x3e687195	0.22699578
58	0x3dd390c4	0.10330346
59	0x3dc07268	0.09396821
60	0xbecd691b	-0.40119252
61	0x3eab8b90	0.33504915
62	0x3d53d918	0.05172071
63	0xbe92883c	-0.28619564
64	0xbeac242d	-0.3362135
65	0xbe4c7ea7	-0.19970189
66	0xbe0c8390	-0.13722062
67	0x3da8768f	0.08225738
68	0xbd15d7b1	-0.036582652
69	0xbef2314b	-0.47303233
70	0xbe2097f3	-0.15682964
71	0xbef41c7c	-0.47677982
72	0xbdc48e50	-0.095974565
73	0x3d85741c	0.06516287
74	0x3ea57c01	0.3232117
75	0x3ee41bcb	0.44552454
76	0x3e6cc11a	0.23120537
77	0x3f2d1b67	0.6761994
78	0xbe13b3b4	-0.1442402
79	0xbe8fc929	-0.2808316
80	0x3e3c2795	0.18374474
81	0xbe21d1c4	-0.15802675
82	0x3e36065d	0.17775865
83	0xbedaee02	-0.4275971
84	0x3c46d7d2	0.0121364165
85	0xbca2e129	-0.019882755
86	0xbd8e1022	-0.06936671
87	0xbd985692	-0.07438387
88	0xbe03f65d	-0.12886949
89	0xbe82f404	-0.25576794
90	0xbde4543f	-0.11148881
91	0x3d6ce6d1	0.05783731
92	0x3dba93b4	0.091102034
93	0xbd78e7ce	-0.06076794
94	0xbd9160f3	-0.0709857
95	0x3eb5eb53	0.355311
96	0xbe6feae1	-0.23429443
97	0x3e9a6c95	0.30160967
98	0xbe1c93b2	-0.15290716
99	0x3de4401c	0.111450404
100	0xbe6f5c23	-0.23374991
101	0x3e994f7c	0.29943454
102	0xbe1fc5fc	-0.15602869
103	0x3e0d8e89	0.13823904
104	0x3e0828dc	0.13296837
105	0xbdbdea7f	-0.09273242
106	0x3ec19e7d	0.3781623
107	0x3c9ca8e6	0.019123506
108	0xbe3146fe	-0.17312238
109	0x3e82eeb7	0.2557275
110	0x3ca77e87	0.020446075
111	0xbeaa8140	-0.33301735
112	0xbe00327d	-0.1251926
113	0xbc8b3f14	-0.016997851
114	0xbe5f0884	-0.21780592
115	0xbe982740	-0.29717445
116	0x3d275195	0.040849287
117	0xbdc596cd	-0.096479036
118	0xbe715632	-0.23568037
119	0xbe2bd96b	-0.16782157
120	0x3bfcfe65	0.007720756
121	0x3b415a4a	0.002950328
122	0xbeb6cb90	-0.3570218
123	0x3d1eca2a	0.038767017
124	0xbdd96167	-0.10614281
125	0xbd48f8b2	-0.0490653
126	0xbee0f605	-0.43937698
127	0xbeb9b763	-0.36272725
128	0xbe2c8d94	-0.16850883
129	0xbe2d154b	-0.16902654
130	0xbcc440a1	-0.023956599
131	0x3e33d9b7	0.1756352
132	0x3e81cf80	0.25353622
133	0x3e50ee0a	0.20403305
134	0x3e5a87e4	0.213409
135	0xbed0a0c0	-0.40747643
136	0x3e30d8e6	0.1727024
137	0x3e917f45	0.2841741
138	0xbf1e4b82	-0.61833966
139	0xbf10c682	-0.565529
140	0xbececb5c	-0.40389526
141	0x3baaeb98	0.0052160732
142	0x3ca28d00	0.019842625
143	0xbeffda67	-0.49971315
144	0x3d8ca910	0.068681836
145	0xbe034327	-0.12818585
146	0xbe95a1be	-0.29224962
147	0xbe1ee670	-0.15517592
148	0x3ea13852	0.3148828
149	0xbeeb5917	-0.45966408
150	0xbec041ba	-0.37550145
151	0xbeccaeca	-0.39977103
152	0xbee1282b	-0.43975958
153	0xbe10dade	-0.14145991
154	0xbe46f07d	-0.19427676
155	0x3f126faf	0.57201666
156	0x3ed356d4	0.41277182
157	0x3d2f3ad3	0.04278071
158	0xbe88c38d	-0.26711693
159	0xbf051f41	-0.52000815
160	0x3db27be9	0.0871504
161	0x3e15abc7	0.14616309
162	0x3a9b0b3b	0.0011828908
163	0xbdd22923	-0.102617525
164	0x3ba81a3d	0.005130081
165	0xbda2fe50	-0.079586625
166	0xbe2496b1	-0.16073109
167	0xbe8024be	-0.25028032
168	0xbe565451	-0.20930602
169	0x3e826cb8	0.2547357
170	0xbde08262	-0.109623685
171	0x3d7bbf37	0.061461654
172	0x3de7e46e	0.113228664
173	0xbc92f204	-0.017937668
174	0xbe761dcf	-0.24034809
175	0x3dafe9f7	0.08589547
176	0x3e0f33d0	0.13984609
177	0x3e410d07	0.18852626
178	0xbf0ef1c5	-0.5583766
179	0xbe858556	-0.2607829
180	0xbd2a1b73	-0.041530084
181	0x3eaa4d64	0.3326217
182	0xbe7f65ad	-0.2494113
183	0xbdaf731d	-0.08566878
184	0xbe87991d	-0.26484004
185	0xbe332186	-0.17493257
186	0xbddfba9d	-0.109242655
187	0xbe959b83	-0.2922021
188	0x3eea6c09	0.4578555
189	0xbe861d06	-0.26194018
190	0xbe8b07e2	-0.27154452
191	0xbe7bb84d	-0.24582024
192	0xbe3f88d9	-0.18704547
193	0xbed247d7	-0.41070434
194	0x3d27b3b9	0.04094288
195	0x3d7df868	0.062004477
196	0x3e09fcf0	0.13475394
197	0xbc8b3316	-0.016992133
198	0x3c12a2a4	0.008949909
199	0xbe94657d	-0.2898368
200	0xbe4ddf39	-0.20104684
201	0xbd47c183	-0.04876853
202	0xbcd06ffa	-0.02544402
203	0xbe83dac5	-0.25752845
204	0xbcc8acc4	-0.024496444
205	0x3dc8673d	0.09785316
206	0xbd939a38	-0.07207149
207	0xbe3ffa9c	-0.18747944
208	0x3d94ba0d	0.07262049
209	0x3ea7d73b	0.32781395
210	0xbde51790	-0.11186135
211	0xbe568167	-0.209478
212	0x3e044b1e	0.1291928
213	0xbea626e7	-0.32451555
214	0x3d220d70	0.039563596
215	0x3d631889	0.05544332
216	0x3dca0510	0.09864247
217	0xbcfad9a6	-0.030621361
218	0xbec279e7	-0.3798363
219	0xbdab945e	-0.08377908
220	0xbe03885b	-0.12844984
221	0xbe249ae3	-0.1607471
222	0x3da24a86	0.079243705
223	0xbe151542	-0.1455889
224	0xbedb8fb0	-0.42883062
225	0xbe16ff49	-0.14745821
226	0x3f31023d	0.6914404
227	0xbdf437a8	-0.11924678
228	0x3e740b90	0.23832536
229	0xbe478968	-0.1948601
230	0xbdfa1c04	-0.12212375
231	0xbe07ca11	-0.13260676
232	0xbe740550	-0.23830152
233	0xbdee0133	-0.116213225
234	0x3e44f53c	0.19234174
235	0x3e6bc53d	0.23024459
236	0x3ea3678a	0.31914932
237	0x3e997a93	0.2997633
238	0x3d4cd864	0.050011054
239	0x3d9b19c3	0.07573273
240	0x3da1f40a	0.07907875
241	0x3e5f81f0	0.21826911
242	0x3e363d9c	0.1779694
243	0xbf1cb8b8	-0.6121936
244	0x3ee41e19	0.44554213
245	0xbc327fa4	-0.01089469
246	0x3e148753	0.14504747
247	0x3ebd0f79	0.36925867
248	0xbce650d1	-0.028114708
249	0xbe7b2e71	-0.24529435
250	0xbecb44b1	-0.39700845
251	0xbdb47400	-0.08811188
252	0x3cae1375	0.021249512
253	0xbefff483	-0.49991235
254	0xbdc17236	-0.09445612
255	0xbea8221c	-0.32838523

preamp.model.rec.bias_ih_l0 f4 [160]
0	0xbe5cf862	-0.21579126
1	0xbea3f5c1	-0.32023433
2	0xbd15c016	-0.03656014
3	0xbeb94d48	-0.36191773
4	0xbe723d18	-0.23656118
5	0xbd247740	-0.04015279
6	0x3cf44abd	0.029820794
7	0xbe836804	-0.25665295
8	0x3cf55f9e	0.02995282
9	0x3f1c3c64	0.6102965
10	0xbe82e8de	-0.2556829
11	0xbd4de0de	-0.05026328
12	0xbd7f059f	-0.06226122
13	0x3eb2491c	0.34821403
14	0xbe7ebe0e	-0.24877188
15	0xbced1901	-0.028942587
16	0xbd234e71	-0.03986973
17	0x3e04928d	0.1294653
18	0xbebd7a4d	-0.3700737
19	0xbdfefabb	-0.12450167
20	0x3f775153	0.96608466
21	0x3f015ac4	0.5052912
22	0xbe3636d0	-0.17794347
23	0xbdb76139	-0.089540906
24	0x3ee82456	0.45340222
25	0xbd887cbc	-0.06664416
26	0xbee9890f	-0.4561238
27	0x3bff679f	0.007794335
28	0x3e51e4fa	0.20497504
29	0x3e989f60	0.29809093
30	0xbd848df7	-0.0647239
31	0xbeaf5a18	-0.34248424
32	0xbe80fbd8	-0.25192142
33	0xbe4a4972	-0.1975458
34	0xbe493a64	-0.1965118
35	0x3efac2cb	0.4897674
36	0x3e6f69d4	0.23380214
37	0xbd345feb	-0.044036787
38	0xbe821919	-0.25409773
39	0xbe4bb80a	-0.19894424
40	0x3ea25c7b	0.31711182
41	0x3dea70ce	0.11447297
42	0x3e903b10	0.2817006
43	0x3f375a3c	0.7162206
44	0x3e204dea	0.15654722
45	0x3e33295d	0.17496248
46	0x3cf6bd40	0.030119538
47	0x3ecc1c37	0.39865276
48	0x3cc310d0	0.023811728
49	0xbeaf1e92	-0.3420301
50	0xbc854372	-0.016267512
51	0x3d1fb726	0.038993023
52	0x3cbb8c2e	0.022893991
53	0xbe4f8c6c	-0.2026841
54	0x3dd605f8	0.10450357
55	0x3d595128	0.053055912
56	0xbdcb22c8	-0.09918743
57	0xbd5a2fae	-0.053268127
58	0x3e58f221	0.21186115
59	0x3e40235e	0.18763492
60	0x3cd06573	0.025439
61	0x3d312fe7	0.043258574
62	0x3ea8f792	0.3300138
63	0x3e22c9f0	0.15897346
64	0x3d1d0474	0.038334325
65	0x3de24849	0.110489435
66	0x3c549eec	0.012977343
67	0xbe107400	-0.1410675
68	0xbe8a30c3	-0.26990327
69	0x3e4146bd	0.18874641
70	0x3e324d4d	0.174123
71	0x3f319ed8	0.69383
72	0x3e8e4ac6	0.27791423
73	0x3ed08fe5	0.40734783
74	0x3e77851b	0.2417187
75	0x3e8190c1	0.2530575
76	0x3e5582b4	0.2085064
77	0x3e7c465c	0.24636215
78	0x3edb5ee6	0.4284584
79	0x3e35bfee	0.17748997
80	0x3c4d6542	0.012536349
81	0xbe117245	-0.14203747
82	0x3e6ca2e8	0.23109019
83	0xbc9ee3ec	-0.019395791
84	0xbe683acb	-0.22678678
85	0xbe04d5cf	-0.12972187
86	0x3cd609bd	0.02612769
87	0xbcc22ee8	-0.023704007
88	0xbd6a2efa	-0.057173707
89	0x3dc2192c	0.094774574
90	0x3d220cac	0.039562866
91	0x3de4b24b	0.11166819
92	0x3dd6c3b3	0.104865454
93	0x3da1c735	0.07899324
94	0xbd8981d7	-0.06714218
95	0x3e97075a	0.29497796
96	0xbe546775	-0.2074259
97	0xbd98f432	-0.074684516
98	0xbdd31644	-0.10306981
99	0x3c447481	0.011990667
100	0x3e7a93b5	0.24470408
101	0xbe13d5bb	-0.14437
102	0xbe4ada36	-0.19809803
103	0x3ea41a60	0.32051373
104	0x3e059d8c	0.1304838
105	0x3e127d74	0.14305669
106	0x3c3bab32	0.01145439
107	0xbd3618d8	-0.044457287
108	0x3dd52ee3	0.104093336
109	0x3e8cb456	0.27481335
110	0x3d2cf420	0.042225003
111	0xbe4b20c5	-0.1983672
112	0xbd68e656	-0.05686029
113	0xbd050591	-0.03247601
114	0xbe575e3c	-0.21032041
115	0x3d3ef888	0.046623737
116	0xbdbb5f17	-0.09148996
117	0x3dbd302b	0.09237703
118	0xbe17075a	-0.14748898
119	0xbdc20ef1	-0.09475506
120	0xbe296ddd	-0.16545816
121	0xbe06b418	-0.13154638
122	0x3e5ec2c7	0.21753989
123	0x39f0642b	0.00045850998
124	0x3cd46bee	0.025930371
125	0xbde51399	-0.111853786
126	0x3e0d3e27	0.1379324
127	0xbc13c9c5	-0.009020274
128	0xbd107f05	-0.035277385
129	0x3f03d08d	0.514901
130	0x3ec6f471	0.3885837
131	0x3d2f6c1c	0.04282771
132	0xbb2e999c	-0.0026641851
133	0x3ec4e65f	0.3845701
134	0xbd6a6b57	-0.057231274
135	0x3e7c40a3	0.24634032
136	0x3c264f33	0.0101507185
137	0x3e22ae5f	0.1588683
138	0xbdd3d23c	-0.103428334
139	0xbe1e4d26	-0.15459117
140	0x3f4617fe	0.7738036
141	0x3f17f150	0.5935259
142	0x3bc600a3	0.0060425564
143	0x3e56362e	0.20919105
144	0x3f014be5	0.5050643
145	0x3c9d0049	0.019165175
146	0xbe758e4c	-0.23980063
147	0xbdfc4a93	-0.123189114
148	0x3f57a33a	0.8423344
149	0x3eaf8b56	0.34285992
150	0x3d4e3a28	0.05034843
151	0x3e862fee	0.26208442
152	0x3dc00707	0.0937634
153	0x3dbb97ea	0.09159835
154	0xbb8211c3	-0.0039694025
155	0x3ef583f5	0.47952238
156	0x3e1c0207	0.15235148
157	0xbe18817f	-0.14893149
158	0x3e67ddd3	0.22643213
159	0x3e2b6561	0.16737892

preamp.model.rec.bias_hh_l0 f4 [160]
0	0xbecf395d	-0.40473452
1	0xbe8ccc70	-0.27499723
2	0xbd222709	-0.039588008
3	0xbec7427e	-0.38917917
4	0xbe791304	-0.2432366
5	0xbe4aacff	-0.19792555
6	0x3e17acdf	0.14812039
7	0x3c4b782e	0.01241879
8	0xba7574c8	-0.000936341
9	0x3f20d149	0.62819344
10	0xbe84a0b7	-0.25903866
11	0xbd6695ee	-0.056295328
12	0x3d8a8757	0.06764095
13	0x3eac7f72	0.33690983
14	0xba647597	-0.0008715032
15	0xbdf26cd0	-0.118371606
16	0xbdc5cbb9	-0.09657998
17	0x3cdccf30	0.026954263
18	0xbed608eb	-0.4180368
19	0xbdd53d48	-0.10412079
20	0x3f49c983	0.7882311
21	0x3f46e8cf	0.7769899
22	0xbda17db2	-0.078853026
23	0x3dee7e88	0.11645228
24	0x3ec25b3f	0.3796024
25	0x3d6bb46e	0.057545118
26	0xbecf430b	-0.40480837
27	0x3dcf917c	0.10135171
28	0x3e7c5ab7	0.2464398
29	0x3df6cd86	0.12050919
30	0x3dde279e	0.108474
31	0xbea0cf7a	-0.31408292
32	0xbdab9350	-0.08377707
33	0xbecba733	-0.39776
34	0xbdcbacaf	-0.09945046
35	0x3ee667c4	0.45001042
36	0x3df01a3f	0.11723756
37	0xbdcc4ee3	-0.09975984
38	0xbdf96b1c	-0.121786326
39	0xbd6ce13f	-0.057832
40	0x3e97f29d	0.29677287
41	0x3ea15d4c	0.31516492
42	0x3e3354cf	0.1751282
43	0x3f43acf7	0.764358
44	0x3eb7bd29	0.35886505
45	0x3e7114e3	0.23543124
46	0x3e15f6aa	0.14644876
47	0x3ec11d0d	0.37717476
48	0xbdae89f2	-0.08522405
49	0xbed0d4d2	-0.4078737
50	0x3be4b78d	0.006979889
51	0x3da4c260	0.080448866
52	0x3dafcc83	0.085839294
53	0xbe9f603f	-0.31128117
54	0x3dedf967	0.11619835
55	0x3e85093c	0.25983608
56	0xbe264598	-0.16237485
57	0x3e234c72	0.1594713
58	0x3ed4b8e0	0.41547298
59	0x3ddbdda0	0.10735631
60	0x3e009619	0.12557258
61	0xbd16d993	-0.03682859
62	0x3e806ee2	0.25084597
63	0x3dc2f965	0.095202245
64	0xbe41b348	-0.18916047
65	0x3e0c6a03	0.13712315
66	0x3e07b38f	0.1325209
67	0xbe2b27f6	-0.16714463
68	0xbec8135f	-0.3907728
69	0x3daedd68	0.08538324
70	0x3ebdc71c	0.3706597
71	0x3f11d61a	0.5696732
72	0x3ea7e7d1	0.3279405
73	0x3e97b2cd	0.29628602
74	0x3df91c37	0.12163585
75	0x3dea1483	0.114296935
76	0x3e2ab6f4	0.16671354
77	0x3e0ef87e	0.1396198
78	0x3f0a94e4	0.5413344
79	0x3e8585ba	0.26078588
80	0x3db60b76	0.08888905
81	0x3cb8c065	0.022552678
82	0xbc84714d	-0.016167307
83	0x3d34432a	0.044009365
84	0x3d4025ff	0.046911236
85	0xbdff3427	-0.12461119
86	0xbd9e5ee1	-0.077329405
87	0x3dd3f774	0.10349932
88	0x3cd8a44d	0.026445532
89	0x3e607268	0.21918643
90	0xbde9de17	-0.114193134
91	0xbd425632	-0.047445484
92	0xbe01c4a2	-0.12672666
93	0x3e2cf12d	0.16888876
94	0xbca93b38	-0.02065812
95	0x3eafe43c	0.34353817
96	0xbe8b2769	-0.27178505
97	0xbce2b5a7	-0.02767451
98	0x3d9bf958	0.07615918
99	0x3e3ba87e	0.18325993
100	0x3ea85d6a	0.3288377
101	0xbd88fd18	-0.06688899
102	0xbe469323	-0.19392066
103	0x3eb2a1f3	0.34889182
104	0xbd7750c1	-0.060379747
105	0xbc9733ad	-0.018457258
106	0xbe2bc8a7	-0.16775762
107	0x3d683cb5	0.05669852
108	0x3e75adf7	0.23992144
109	0x3e6070ea	0.21918073
110	0x3de517ee	0.11186205
111	0xbe0ca3dd	-0.13734384
112	0x3d2cd207	0.042192485
113	0xbca88359	-0.020570444
114	0xbe0f5570	-0.13997436
115	0x3e8f754f	0.28019187
116	0xbe0e41fd	-0.1389236
117	0x3d107bbd	0.035274256
118	0xbd8d9411	-0.06913007
119	0x3e160ca8	0.14653265
120	0xbd61874c	-0.05506067
121	0xbdd64e2b	-0.10464128
122	0x3d1af956	0.03783544
123	0xbc3638f4	-0.011121977
124	0xbd98e92d	-0.0746635
125	0xbd9b4b6c	-0.07582745
126	0x3e3448b9	0.17605866
127	0x3d34259f	0.04398119
128	0xbe03d3b3	-0.12873726
129	0x3f022b45	0.50847274
130	0x3e723638	0.23653495
131	0x3e606e49	0.2191707
132	0xbd03945a	-0.0321239
133	0x3e707f26	0.23486003
134	0x3d807049	0.06271417
135	0x3e84b9c9	0.25922993
136	0xbded9963	-0.11601522
137	0x3c1f11f3	0.009708869
138	0xbdc59ebd	-0.096494175
139	0x3db039c9	0.08604772
140	0x3f394fec	0.72387576
141	0x3ee2267a	0.4416998
142	0xbc5576c8	-0.013028808
143	0x3eaabe2f	0.33348224
144	0x3f198279	0.5996471
145	0x3d871d1e	0.065973505
146	0xbe381f6f	-0.17980741
147	0x3e0e20d9	0.13879718
148	0x3f51a2ba	0.81888926
149	0x3e8cc616	0.27494878
150	0x3e651746	0.2237216
151	0x3ba0b36b	0.004904201
152	0x3da7bafb	0.081899606
153	0xbdf1e612	-0.118114606
154	0x3d9572a5	0.07297257
155	0x3f1166b3	0.5679733
156	0x3e0d9c24	0.13829094
157	0x3cda87a5	0.026676008
158	0xbc4da912	-0.012552517
159	0x3c73e105	0.014885192

preamp.model.lin.weight f4 [1, 40]
0	0x3e3ef68b	0.18648736
1	0x3e39476c	0.18093652
2	0x3d526ff6	0.051376306
3	0x3f0e2042	0.5551797
4	0xbde70370	-0.112799525
5	0xbddccfca	-0.1078182
6	0x3dc8a342	0.09796764
7	0xbe013291	-0.12616946
8	0xbf1e0a8c	-0.61734843
9	0xbec39d0c	-0.38205755
10	0xbfb026d1	-1.3761846
11	0x3c8077a5	0.015682051
12	0x3e84aaf2	0.2591167
13	0x3e2c9550	0.16853833
14	0xbe6c1b90	-0.2305739
15	0xbeebd505	-0.46060959
16	0x3dc87379	0.0978765
17	0xbd52252a	-0.051304974
18	0xbe3a0b37	-0.1816834
19	0xbda2103b	-0.07913252
20	0xbf5e7e11	-0.8691111
21	0x3d413584	0.047170177
22	0x3e28551a	0.16438714
23	0x3e634722	0.22195104
24	0x3e36cec4	0.17852312
25	0x3e27f9dc	0.16403908
26	0xbe1018a8	-0.14071906
27	0xbdf02fbe	-0.11727856
28	0x3d276bbf	0.04087424
29	0xbece24ea	-0.40262538
30	0xbe7921d9	-0.24329318
31	0xbf48d156	-0.7844442
32	0xbd8902e0	-0.066900015
33	0x3d12ba1d	0.035822023
34	0x3ec7a33a	0.3899172
35	0x3d85b5f8	0.065288484
36	0x3de7f923	0.11326816
37	0x3dfcf3b8	0.12351173
38	0xbe2d0592	-0.16896656
39	0xbd88eb6d	-0.06685529

poweramp.model.rec.weight_ih_l0 f4 [24, 1]
0	0x3f9bbd52	1.2167151
1	0x3ea9977a	0.3312338
2	0xbe14645f	-0.14491414
3	0xbe871547	-0.2638342
4	0x3f2369ec	0.638335
5	0xbe428e6b	-0.1899964
6	0xbcca301e	-0.024681147
7	0xbda09640	-0.07841158
8	0xbf673566	-0.90315855
9	0x3f2cae9f	0.6745395
10	0xbe769f79	-0.24084271
11	0xbeecde20	-0.46263218
12	0x408b3ac6	4.3509245
13	0x40efe6ea	7.4969378
14	0xc03e7869	-2.9760993
15	0x40cd18e4	6.4092884
16	0xbe5197b0	-0.2046802
17	0x3ec45ce1	0.3835211
18	0x3f0d8255	0.55276996
19	0x3d7b5723	0.061362397
20	0xbcdfd741	-0.02732432
21	0x3e57d494	0.21077186
22	0xbf1fff4b	-0.6249892
23	0xbfa8ba9e	-1.3181951

poweramp.model.rec.weight_hh_l0 f4 [24, 8]
0	0xbf8a1528	-1.0787706
1	0x3fd6a6c2	1.676964
2	0x3d1207e8	0.03565207
3	0xbefef2c2	-0.49794585
4	0xbf4b309e	-0.7937106
5	0x3ef1191e	0.47089475
6	0x3eb1fa22	0.3476115
7	0xc001daa5	-2.02897
8	0x3e94a7f2	0.29034382
9	0xbeaee6ad	-0.34160367
10	0xbc9578ae	-0.018246021
11	0x3eacb7ec	0.3373407
12	0x3d572e8f	0.052534636
13	0xbeed9f91	-0.46410802
14	0x3e988f47	0.29796812
15	0x3c98224a	0.018571038
16	0x3dbf2133	0.09332504
17	0xbddffdef	-0.10937106
18	0xbeed7426	-0.46377677
19	0xbe665f87	-0.22497378
20	0x3e0eb43e	0.13935944
21	0xbd239a65	-0.039942164
22	0xbe541246	-0.20710096
23	0xbe09a98a	-0.1344358
24	0x3f018b5a	0.5060326
25	0xbf43f353	-0.7654316
26	0xbf0a217b	-0.5395734
27	0x3e192ea2	0.14959195
28	0x3ecb6080	0.3972206
29	0xbe4ff063	-0.20306544
30	0xbe506d3c	-0.2035417
31	0xbe64bd62	-0.22337869
32	0xbeee8b2d	-0.46590558
33	0x3ed8af80	0.42321396
34	0x3ded6b9e	0.11592792
35	0x3ebdca64	0.37068474
36	0xbf662c49	-0.89911324
37	0xbf8497a4	-1.0358777
38	0xbf1809e8	-0.59390116
39	0xbf8a6bd4	-1.0814157
40	0xbf11147b	-0.56671876
41	0x3f28ef8f	0.6599054
42	0x3f4dc18f	0.8037347
43	0x3f8b4c96	1.0882747
44	0x3d88a0f0	0.066713214
45	0xbf2a27fa	-0.6646725
46	0xbefa0871	-0.48834565
47	0xbf4ce38e	-0.8003472
48	0xbe083fc0	-0.13305569
49	0x3ed72d5d	0.42026797
50	0x3f277e99	0.6542755
51	0xbea8ff22	-0.3300715
52	0xbf74d6f9	-0.9564052
53	0xbb1aa0b1	-0.0023594315
54	0xbe871cfa	-0.26389295
55	0x3e6f130d	0.23347111
56	0xbf5db86c	-0.8660953
57	0xbe84cb4c	-0.25936353
58	0x3f09c0e6	0.53809965
59	0xbf9f0bd8	-1.242549
60	0x3d0cd16b	0.034379404
61	0x3ff76d4c	1.933023
62	0x3d4153be	0.047199003
63	0xbe8a018e	-0.2695431
64	0x3f3e5082	0.74341595
65	0x3ecd9d6c	0.40159166
66	0x3ff4ab0c	1.9114699
67	0xbf02d7c4	-0.5111048
68	0xbfe1772e	-1.7614496
69	0xbe78a852	-0.24282959
70	0x3f83fb5d	1.0311085
71	0xbf785227	-0.97000355
72	0x3fb361f2	1.4014266
73	0x3fcaa88e	1.5832689
74	0x3fc604bc	1.5470195
75	0x3e3df082	0.18548778
76	0xc048a299	-3.1349242
77	0x3ef8f645	0.4862539
78	0x3f902d78	1.1263876
79	0xc01eaca2	-2.4792867
80	0x3f0a24a2	0.5396215
81	0xbdba71ae	-0.09103714
82	0x3df86b05	0.12129787
83	0x3f75e586	0.9605335
84	0xbe7b84ad	-0.2456233
85	0xbf3db6e4	-0.74107194
86	0xbf520c10	-0.82049656
87	0xbea118aa	-0.3146413
88	0xbf4bc09d	-0.7959078
89	0xbe3f904f	-0.18707393
90	0xbf0f368c	-0.55942607
91	0xbf4489bf	-0.76772684
92	0x3e84d63d	0.259447
93	0xbfa3be1e	-1.2792394
94	0xbfc38114	-1.5273767
95	0x3eb38d51	0.35068753
96	0x3f8feb58	1.1243696
97	0xc00bc4c7	-2.1838853
98	0xbfc2a2a5	-1.5205885
99	0x3fc4089a	1.5315125
100	0x3fafbd18	1.3729582
101	0xc0d880d8	-6.765728
102	0xbe7970f2	-0.24359491
103	0xbd3aed25	-0.045636315
104	0x3fc37be3	1.5272182
105	0xc0749af0	-3.8219566
106	0x3ec19e57	0.37816116
107	0xbf3a650d	-0.7281044
108	0x3fa39e91	1.2782766
109	0xc0399ec3	-2.900315
110	0x3f5fcbf4	0.8742058
111	0x409ad715	4.838755
112	0x3f36a435	0.7134431
113	0xbf773ccf	-0.9657716
114	0x3d1750ce	0.036942296
115	0xc090e4d6	-4.527934
116	0xbfa6cfe2	-1.3032191
117	0xbe9187c9	-0.28423908
118	0x400ae553	2.1702468
119	0xbe97ac32	-0.29623562
120	0x401353c0	2.3019867
121	0xc0a7e6c8	-5.2469215
122	0xbfe10b92	-1.7581656
123	0xbf54d712	-0.8314067
124	0xbf06b53d	-0.526203
125	0xc0461fe4	-3.0956964
126	0x401a4a16	2.4107718
127	0xbf82c4e7	-1.021634
128	0x3ea3a626	0.319627
129	0xbf127602	-0.57211316
130	0xbe4303ac	-0.1904437
131	0xbe9feda6	-0.31236
132	0x3dda09f5	0.106464304
133	0x3e9d9305	0.3077623
134	0xbecb7e02	-0.39744574
135	0x3f1d796d	0.61513406
136	0xbd8e22ce	-0.06940232
137	0xbe2936c0	-0.16524792
138	0xbe2ed272	-0.17072466
139	0x3eafafde	0.34313864
140	0xbf0e25d8	-0.55526495
141	0xbf467c5d	-0.77533513
142	0xbcd5c457	-0.026094599
143	0xbd9313e4	-0.07181528
144	0xbd03ac16	-0.032146536
145	0x3e6ea145	0.23303707
146	0x3ee38c56	0.44443005
147	0x3f18f44b	0.5974776
148	0xbedb3fd7	-0.42822143
149	0xbeb47d75	-0.35251966
150	0xbe3d9745	-0.18514736
151	0xbee2af18	-0.4427421
152	0x3eb828a2	0.359685
153	0xbf0da271	-0.5532599
154	0xbf450186	-0.7695545
155	0x3f17f6b7	0.5936083
156	0x3f1d5a48	0.61465883
157	0x3e88b9e8	0.26704335
158	0xbe28b883	-0.16476636
159	0xbeadd661	-0.3395262
160	0x3e8e20e5	0.27759472
161	0xbe9d5c86	-0.30734652
162	0x3e79211e	0.2432904
163	0xbf59fa0e	-0.8514718
164	0x3f6bb72e	0.92076385
165	0x3e112ab2	0.14176443
166	0xbf018ef9	-0.50608784
167	0xbf55d9d6	-0.83535516
168	0xbe40b664	-0.18819577
169	0x3f2236da	0.63364947
170	0xbe94ed93	-0.29087505
171	0x3e17cd53	0.14824419
172	0x3f35d1ae	0.7102307
173	0xbf63a41f	-0.88922304
174	0x3df979e6	0.121814534
175	0xbefcd60c	-0.49382055
176	0xbd27a787	-0.04093125
177	0x3e9c1a90	0.30489016
178	0xbec7ae7f	-0.39000317
179	0xbccb2c7a	-0.024801482
180	0xbebc34f8	-0.36759162
181	0x3e58866e	0.21145031
182	0xbd270354	-0.04077466
183	0x3e9f24e2	0.31082827
184	0xbeff7ef0	-0.49901533
185	0x3f1a393a	0.6024357
186	0x3f1c4fe5	0.6105941
187	0x3d99b834	0.07505837
188	0xbea97e6e	-0.3310427
189	0xbe4b5888	-0.1985799
190	0xbde4f600	-0.11179733
191	0x3f1c463e	0.6104468

poweramp.model.rec.bias_ih_l0 f4 [24]
0	0xbe4b0832	-0.19827345
1	0xbdc25ae9	-0.09489996
2	0xbe6c7185	-0.2309018
3	0x3f009549	0.5022779
4	0x3ec667b4	0.38750994
5	0x3e2cf2cf	0.16889499
6	0xbe28e3da	-0.16493168
7	0x3d24e0f8	0.04025361
8	0xbf99b40c	-1.2008071
9	0xbfd2a4df	-1.6456565
10	0x3e7f9b8b	0.24961679
11	0x3f8c3e71	1.0956556
12	0x3f812c00	1.0091553
13	0xbf3f4239	-0.7471042
14	0xbfbd0633	-1.4767517
15	0xbfaf9b7b	-1.3719324
16	0xbdc68d7b	-0.09694954
17	0xbe7a3a04	-0.24436194
18	0xbd8a7e08	-0.0676232
19	0xbe9bdfd1	-0.30444196
20	0xbd415963	-0.047204386
21	0xbea9b1b7	-0.33143398
22	0xbeb049ef	-0.34431407
23	0x3e1f4b81	0.15556146

poweramp.model.rec.bias_hh_l0 f4 [24]
0	0xbe5e030f	-0.21680854
1	0xbeb8331f	-0.35976502
2	0x3e2dff57	0.16991936
3	0x3dc2bb6c	0.09508404
4	0x3f06c0f9	0.526382
5	0x3cc6e2ee	0.02427813
6	0xbd5bce6f	-0.053663667
7	0xbdad4130	-0.08459699
8	0xbf56aa4e	-0.83853614
9	0xbfd16e68	-1.6361818
10	0x3f1d4034	0.6142609
11	0x3fa20fae	1.2661035
12	0x3f6fca36	0.93667924
13	0xbeb51666	-0.3536865
14	0xbfaa9389	-1.3326274
15	0xbf6934d0	-0.9109621
16	0xbe2404e1	-0.16017486
17	0x3e85d09e	0.26135725
18	0x3d8177d9	0.06321687
19	0x3e1bc5e9	0.15212215
20	0x3dfe1df5	0.124080576
21	0xbe6e2276	-0.23255333
22	0x3e22761c	0.15865368
23	0x3dab6f21	0.083708055

poweramp.model.lin.weight f4 [1, 8]
0	0x3ea369b0	0.3191657
1	0xbd8fc073	-0.07019129
2	0xbeab032e	-0.33400863
3	0xbeb54361	-0.3540297
4	0xbeb2df06	-0.34935778
5	0xbdc73a9d	-0.097279765
6	0x3d70075d	0.058600772
7	0xbeb840c6	-0.35986918

exp_avg f4 [160, 1]
0	0xb6197191	-2.286488e-06
1	0xb6a616ad	-4.9498253e-06
2	0x37e0a882	2.6781348e-05
3	0x370ebda3	8.508013e-06
4	0x37a0a2d2	1.9149305e-05
5	0xb8063e1a	-3.2005926e-05
6	0xb68ae43f	-4.139292e-06
7	0x38954a9b	7.11877e-05
8	0x38b0de37	8.433725e-05
9	0xb671e03a	-3.6042316e-06
10	0xb749cd78	-1.2028373e-05
11	0x36daa60f	6.516238e-06
12	0xb710f27f	-8.639529e-06
13	0xb5146614	-5.528284e-07
14	0x37186151	9.082564e-06
15	0x3889aa3c	6.564378e-05
16	0x365c65d1	3.284182e-06
17	0x36760db3	3.666483e-06
18	0xb786a4cc	-1.6050784e-05
19	0x38cad4ad	9.6717245e-05
20	0x36c41e9c	5.8448186e-06
21	0x37b9ed00	2.216408e-05
22	0x3822c6f2	3.8809092e-05
23	0x3919460b	0.0001461731
24	0xb7ee92ea	-2.8440223e-05
25	0xb841318d	-4.6060934e-05
26	0xb82d34f5	-4.1295734e-05
27	0xb6938952	-4.3969276e-06
28	0xb7785f5a	-1.4804153e-05
29	0xb8970d03	-7.202665e-05
30	0xb5848166	-9.872426e-07
31	0x3885e7c6	6.3851054e-05
32	0x3903b196	0.0001255929
33	0xb80fbe53	-3.427111e-05
34	0xb7494ebf	-1.1998868e-05
35	0xb8832e10	-6.2551466e-05
36	0x35990c1b	1.1402911e-06
37	0xb8f25a02	-0.000115562245
38	0xb7a86815	-2.0075628e-05
39	0xb6fbb515	-7.5014636e-06
40	0xb89f4cdb	-7.596026e-05
41	0x37a548b4	1.9703388e-05
42	0x37fc240f	3.0057532e-05
43	0xb86fc918	-5.7169324e-05
44	0x38986fce	7.26875e-05
45	0xb6f78a59	-7.3772794e-06
46	0xb800a66d	-3.0672574e-05
47	0x38afeced	8.388781e-05
48	0x383308f2	4.2685257e-05
49	0xb88f51b3	-6.833989e-05
50	0x37c8089b	2.3845865e-05
51	0x37b6dee8	2.179989e-05
52	0xb74d93fa	-1.2253406e-05
53	0xb8387be3	-4.3984397e-05
54	0x361e1918	2.3558441e-06
55	0x38576268	5.1351642e-05
56	0x382b087d	4.0777482e-05
57	0x36aaf226	5.0945846e-06
58	0xb824f883	-3.933209e-05
59	0x389c463e	7.451743e-05
60	0x38b39e8d	8.5649175e-05
61	0x37d9b6db	2.5953565e-05
62	0x39481bd0	0.00019083847
63	0x3997b6f5	0.00028937278
64	0xb5b98f23	-1.3825232e-06
65	0x386437a5	5.441126e-05
66	0xb8b424d6	-8.58993e-05
67	0xb61118d0	-2.1621127e-06
68	0xb7af7519	-2.0916154e-05
69	0xb8a47c0a	-7.8432335e-05
70	0xb6e3370e	-6.7715364e-06
71	0xb855eb9c	-5.1002586e-05
72	0x392890bc	0.00016075646
73	0xb81c12da	-3.7210855e-05
74	0xb7613bc5	-1.3424961e-05
75	0x37a0298d	1.9092835e-05
76	0xb45e3f43	-2.0698376e-07
77	0xb883bc57	-6.281648e-05
78	0xb7e94c7b	-2.7811378e-05
79	0xb71fe8c4	-9.5313335e-06
80	0xb7a56a45	-1.9719018e-05
81	0x38be8c67	9.086058e-05
82	0x38dea857	0.00010617141
83	0x392d0369	0.00016499836
84	0x394edd09	0.00019728033
85	0x39f7e542	0.00047282322
86	0xb7e92d68	-2.7796908e-05
87	0xb6b16b00	-5.2874675e-06
88	0x3917a3cb	0.000144615
89	0x3a31d664	0.0006783961
90	0xb5ac55fd	-1.2840025e-06
91	0x38883a0b	6.495797e-05
92	0x3902adb8	0.00012462481
93	0xb9116ed7	-0.00013869569
94	0x38990dad	7.298156e-05
95	0x383a1cf4	4.437282e-05
96	0xb828a810	-4.021084e-05
97	0xb7be595a	-2.2691373e-05
98	0xb8108d52	-3.446389e-05
99	0x39c8b0da	0.00038278737
100	0x39ab7437	0.00032702248
101	0xb90c7449	-0.0001339476
102	0x395c29e1	0.00020996436
103	0xb9e97f56	-0.00044536096
104	0x38b9b9bd	8.856084e-05
105	0x3994f8ec	0.0002841422
106	0xb5772b9c	-9.207813e-07
107	0xb8699e73	-5.5699096e-05
108	0x35e5143b	1.7067717e-06
109	0xb8bcd3ea	-9.004011e-05
110	0x37b8b5b5	2.2019123e-05
111	0xb9332136	-0.00017083142
112	0x398e9e79	0.00027202422
113	0x374d7d54	1.2248132e-05
114	0xb81a6de4	-3.6818805e-05
115	0x39d5a32b	0.00040748095
116	0xb61eb935	-2.365164e-06
117	0xb9c7d29d	-0.00038113157
118	0xb764e0af	-1.3642172e-05
119	0xb7174ed6	-9.018657e-06
120	0xb7c1d7bf	-2.3107857e-05
121	0xb88f090a	-6.820455e-05
122	0x3489edb9	2.5691205e-07
123	0xb81f3baf	-3.796414e-05
124	0x38a62f61	7.924322e-05
125	0xb8ac4c01	-8.215756e-05
126	0x3466a129	2.1479049e-07
127	0x386bf7b9	5.6259076e-05
128	0x3812a6e0	3.4964527e-05
129	0xb6bd737f	-5.6460844e-06
130	0xb8450cb9	-4.698031e-05
131	0x37a538bf	1.9695957e-05
132	0xb6bd5567	-5.642581e-06
133	0xb6f121f4	-7.1863124e-06
134	0x375816b2	1.2879887e-05
135	0x37cb40e3	2.4229701e-05
136	0x3623026e	2.4290307e-06
137	0xb7712682	-1.4373685e-05
138	0xb7b7cd4e	-2.1910902e-05
139	0x380ab3ce	3.306922e-05
140	0x381fe8b8	3.812529e-05
141	0x3837d69e	4.3830478e-05
142	0x3808f30e	3.265129e-05
143	0x3773b4cf	1.45260265e-05
144	0xb7c164e1	-2.3054368e-05
145	0xb80a1b91	-3.2927437e-05
146	0xb7f164f9	-2.8776458e-05
147	0xb6127cf4	-2.1828428e-06
148	0xb88e11dd	-6.774415e-05
149	0xb874e90d	-5.839118e-05
150	0x377cb517	1.5062534e-05
151	0xb78ae383	-1.6556825e-05
152	0xb6aa849e	-5.0818335e-06
153	0xb86c349e	-5.631579e-05
154	0x373fede5	1.1439876e-05
155	0xb81a40b7	-3.677673e-05
156	0x37fd1e4a	3.0174055e-05
157	0xb75c9ec9	-1.3149992e-05
158	0x388a054e	6.581341e-05
159	0x3795d3fe	1.78609e-05

exp_avg_sq f4 [160, 1]
0	0x351060c2	5.378498e-07
1	0x32b30e3c	2.0844816e-08
2	0x344854af	1.8657259e-07
3	0x3614432a	2.2092813e-06
4	0x358195ae	9.654811e-07
5	0x32e3a26a	2.6500135e-08
6	0x326e4231	1.38684735e-08
7	0x3521ec29	6.032083e-07
8	0x331d4031	3.6612793e-08
9	0x2fe41aad	4.1491913e-10
10	0x3383ddb7	6.1404926e-08
11	0x341841ce	1.4180043e-07
12	0x33a0362b	7.460434e-08
13	0x323589c2	1.0566909e-08
14	0x36271dfc	2.4902392e-06
15	0x3502c572	4.8716095e-07
16	0x33d145d4	9.7450226e-08
17	0x32cbb068	2.371253e-08
18	0x341edddd	1.479561e-07
19	0x34381a31	1.7145864e-07
20	0x318b0c71	4.046847e-09
21	0x326a8f18	1.3653128e-08
22	0x3563f46c	8.491977e-07
23	0x377b62ea	1.4983796e-05
24	0x31ae55d5	5.0738245e-09
25	0x339009cc	6.7073046e-08
26	0x36f491fc	7.2887615e-06
27	0x31d67983	6.242034e-09
28	0x3222fabe	9.486653e-09
29	0x34a38fed	3.0465836e-07
30	0x340423fc	1.2306549e-07
31	0x35eade48	1.7499051e-06
32	0x362fa24b	2.61715e-06
33	0x34deeabd	4.1521517e-07
34	0x343466c2	1.680119e-07
35	0x331b1d96	3.6115658e-08
36	0x32d05d68	2.4256863e-08
37	0x34434484	1.8185716e-07
38	0x36628702	3.375521e-06
39	0x33b78761	8.546227e-08
40	0x3666ecf0	3.4410587e-06
41	0x32dda246	2.580158e-08
42	0x3498bd84	2.8450097e-07
43	0x354a8370	7.544213e-07
44	0x35834171	9.779307e-07
45	0x335d76aa	5.1563497e-08
46	0x333c4902	4.383856e-08
47	0x35eb1daf	1.7517503e-06
48	0x3294a02c	1.7302305e-08
49	0x33db2f8f	1.0206633e-07
50	0x351169db	5.417075e-07
51	0x345f49c2	2.0795326e-07
52	0x32bdac3b	2.2080817e-08
53	0x335e08fb	5.169657e-08
54	0x361f04b0	2.3695575e-06
55	0x34d70881	4.0053058e-07
56	0x3588c32c	1.0189592e-06
57	0x33130c08	3.4237047e-08
58	0x3420f466	1.4990073e-07
59	0x3417034c	1.406417e-07
60	0x3599a96f	1.14487e-06
61	0x330c40a2	3.2655073e-08
62	0x3584cc2c	9.894188e-07
63	0x367b78ff	3.7472344e-06
64	0x32a7fbc7	1.9555854e-08
65	0x341babf9	1.4498063e-07
66	0x36cc999b	6.097556e-06
67	0x314e6933	3.0036744e-09
68	0x3290c162	1.6851747e-08
69	0x34a18963	3.008855e-07
70	0x34d01fc1	3.8766123e-07
71	0x356e1a10	8.8699835e-07
72	0x3633c20b	2.6786026e-06
73	0x3546b2a1	7.402069e-07
74	0x3418131c	1.4163055e-07
75	0x34e3dc11	4.2442164e-07
76	0x33b58683	8.452937e-08
77	0x3424750b	1.531627e-07
78	0x364db232	3.0651104e-06
79	0x34562de3	1.9946997e-07
80	0x374a0b65	1.2042791e-05
81	0x3532ec3e	6.6653945e-07
82	0x363eaacf	2.841163e-06
83	0x3751fc03	1.2516047e-05
84	0x36fc7328	7.523591e-06
85	0x3586c9c6	1.0042502e-06
86	0x36552a01	3.1763923e-06
87	0x387b6323	5.993539e-05
88	0x346c460d	2.2004697e-07
89	0x36ea1db2	6.9772004e-06
90	0x3524b0d7	6.1352097e-07
91	0x35138a66	5.4963164e-07
92	0x35b019f2	1.3120573e-06
93	0x368b1cce	4.145876e-06
94	0x361ed9fa	2.3670714e-06
95	0x3546a455	7.399988e-07
96	0x3774aa0d	1.4583126e-05
97	0x35296db7	6.311706e-07
98	0x3743aa87	1.166261e-05
99	0x36918b35	4.3375426e-06
100	0x372381d5	9.745786e-06
101	0x37d195fe	2.4984587e-05
102	0x373a3f60	1.110122e-05
103	0x38cead0d	9.855079e-05
104	0x36858030	3.978632e-06
105	0x35bbf2e3	1.4003275e-06
106	0x3736c5f0	1.0894131e-05
107	0x35c9f1c9	1.5046036e-06
108	0x36039052	1.9604527e-06
109	0x35858a21	9.949473e-07
110	0x36785040	3.7001591e-06
111	0x37a3958a	1.9500749e-05
112	0x37ad9ddc	2.0696716e-05
113	0x37dc1843	2.6237341e-05
114	0x359f0920	1.1849079e-06
115	0x370dacc8	8.444484e-06
116	0x350e090b	5.291228e-07
117	0x36fa3046	7.4562004e-06
118	0x3717434c	9.01597e-06
119	0x3579b67b	9.302527e-07
120	0x36010a5b	1.9228526e-06
121	0x32953584	1.7370219e-08
122	0x345c1dfd	2.0500006e-07
123	0x34369a7c	1.7006272e-07
124	0x34efdefc	4.4679462e-07
125	0x33b07d87	8.218472e-08
126	0x3333b86f	4.1844427e-08
127	0x3508d601	5.0975365e-07
128	0x3300d14f	2.9992687e-08
129	0x30192219	5.570953e-10
130	0x34b306aa	3.3346197e-07
131	0x350731a8	5.036368e-07
132	0x34819e5b	2.414334e-07
133	0x30b595cd	1.3212059e-09
134	0x35726dfa	9.031206e-07
135	0x341830e1	1.4173885e-07
136	0x33d65c4d	9.981941e-08
137	0x3310321b	3.3573183e-08
138	0x34211c15	1.500451e-07
139	0x3309db8e	3.2097482e-08
140	0x33eb1901	1.09475884e-07
141	0x32d5c4ac	2.48859e-08
142	0x35c0be39	1.4360477e-06
143	0x32298e87	9.869502e-09
144	0x31a02123	4.66038e-09
145	0x33f81d93	1.15537794e-07
146	0x3690be56	4.3136924e-06
147	0x31b7938f	5.3427764e-09
148	0x326bebb1	1.373239e-08
149	0x340fc201	1.3388491e-07
150	0x3500b661	4.794911e-07
151	0x35ca2993	1.5062272e-06
152	0x34d04399	3.8792203e-07
153	0x359b4ab7	1.1570145e-06
154	0x3342112a	4.5184755e-08
155	0x32a56f0b	1.9259025e-08
156	0x355967ff	8.0990134e-07
157	0x33932cbe	6.8533595e-08
158	0x368156ba	3.854596e-06
159	0x3549ba50	7.5149455e-07

exp_avg f4 [160, 40]
0	0xba324e14	-0.00068017957
1	0x386d58b4	5.6587814e-05
2	0x38a80d61	8.013356e-05
3	0xb8cb2148	-9.6859934e-05
4	0x3939d577	0.00017722497
5	0x38ceffd7	9.870499e-05
6	0x39c0fdb3	0.00036810114
7	0x3a2528af	0.0006300313
8	0x392eca1e	0.00016669228
9	0xb83df9ae	-4.5293644e-05
10	0xb9cd07f1	-0.00039106564
11	0x392f3c0b	0.00016711668
12	0xb8ce01b3	-9.823162e-05
13	0xb80bdf2d	-3.334803e-05
14	0x3a0726c9	0.0005155621
15	0x37906dc6	1.7217255e-05
16	0xb80e1047	-3.3870598e-05
17	0xb9912fbe	-0.00027692126
18	0x375348d5	1.2593538e-05
19	0x398e08db	0.00027090948
20	0x3a1ef958	0.0006064377
21	0x38318639	4.2325093e-05
22	0x39f863b3	0.00047376528
23	0x36540cd3	3.1597926e-06
24	0x39637730	0.00021692808
25	0x3a26a1dc	0.00063565164
26	0x3a05a461	0.0005098042
27	0xb7e146c3	-2.6855041e-05
28	0x389a0ef0	7.3460746e-05
29	0x398f69af	0.00027353826
30	0x3a2c1831	0.0006564884
31	0x399a9083	0.0002948084
32	0x3a1b4376	0.0005922833
33	0x38ddd7c1	0.000105782885
34	0xb8d2b158	-0.00010046613
35	0x38840b60	6.296369e-05
36	0xba25ed4f	-0.0006329612
37	0x37dda5ed	2.6422518e-05
38	0xb95c603e	-0.00021016688
39	0x3a213108	0.0006148969
40	0x392ae3d9	0.00016297343
41	0x372fb7c6	1.0473601e-05
42	0xb7c8e83b	-2.3949999e-05
43	0xb2344ba2	-1.0494576e-08
44	0xb70e6bb2	-8.488934e-06
45	0xb7ef06e0	-2.8494222e-05
46	0xb873bcf1	-5.811168e-05
47	0xb9358f00	-0.00017314777
48	0xb7dfafb8	-2.6665497e-05
49	0xb7140613	-8.822902e-06
50	0x380486ea	3.15969e-05
51	0xb88a4982	-6.594045e-05
52	0x38905be9	6.883575e-05
53	0xb7df140b	-2.6593005e-05
54	0xb8ae3bfc	-8.3081395e-05
55	0xb5193ab6	-5.708238e-07
56	0x38a16490	7.6958095e-05
57	0x386b8415	5.6151377e-05
58	0xb7d078c7	-2.4851774e-05
59	0xb88d5a39	-6.740209e-05
60	0xb9162a09	-0.00014320774
61	0x385aef4b	5.219811e-05
62	0xb8eeea95	-0.00011392419
63	0xb60cdf7f	-2.0991718e-06
64	0x36dca56f	6.57577e-06
65	0xb9361ea3	-0.00017368286
66	0xb8c20bb2	-9.252819e-05
67	0xb59e6abd	-1.1802982e-06
68	0x364a6cf3	3.0163762e-06
69	0xb83c063d	-4.4828503e-05
70	0xb941dcf5	-0.00018488227
71	0xb807e822	-3.24027e-05
72	0xb93dae15	-0.00018089295
73	0xb73e423a	-1.1340302e-05
74	0x37408473	1.147493e-05
75	0xb8032622	-3.1268348e-05
76	0x39394825	0.00017669851
77	0xb78531be	-1.5877999e-05
78	0x3892b72e	6.9959424e-05
79	0xb932f17b	-0.00017065361
80	0xb81f12f2	-3.79262e-05
81	0xb83ddfa8	-4.5269408e-05
82	0xb602d4f7	-1.9495471e-06
83	0xb81e231d	-3.7702837e-05
84	0x385ad86f	5.217682e-05
85	0x382093f9	3.8284783e-05
86	0x38919069	6.941037e-05
87	0x383cedf6	4.504431e-05
88	0x380c90dd	3.3513516e-05
89	0xb78e994e	-1.6999107e-05
90	0x399ca99c	0.00029881008
91	0x373196d3	1.0585139e-05
92	0x374bb97a	1.21429275e-05
93	0xb88de79a	-6.766543e-05
94	0x37e5e140	2.7403818e-05
95	0xb5ef3f8b	-1.7825381e-06
96	0x35f4e08c	1.8244768e-06
97	0xb74ff775	-1.2395777e-05
98	0x36865f0f	4.0045775e-06
99	0x38af2575	8.351627e-05
100	0x3796643a	1.7928065e-05
101	0xb7eff435	-2.8604738e-05
102	0x38987950	7.270521e-05
103	0xb87432c0	-5.8221398e-05
104	0x388566cd	6.361082e-05
105	0x37ddfa50	2.6461814e-05
106	0x389a219a	7.349551e-05
107	0xb40c4a09	-1.306545e-07
108	0xb7379896	-1.0943177e-05
109	0x3843a673	4.664664e-05
110	0x37a4a28f	1.962602e-05
111	0x37024b7b	7.766178e-06
112	0x38137d1b	3.5164045e-05
113	0x37121b0a	8.708574e-06
114	0x37952dbe	1.7783485e-05
115	0x351db88d	5.8755614e-07
116	0xb7aef4fa	-2.0856492e-05
117	0x37d92221	2.5884308e-05
118	0xb7efc042	-2.8580547e-05
119	0x3787c104	1.6183134e-05
120	0x37584c52	1.2892373e-05
121	0x38c44833	9.3594565e-05
122	0xb986bc68	-0.00025698845
123	0x3912f1f7	0.00014013784
124	0xb9c4341e	-0.00037422864
125	0xb8651ab6	-5.462273e-05
126	0xb9f10015	-0.00045967163
127	0xb881e5ec	-6.1940256e-05
128	0xb8a61460	-7.919292e-05
129	0x382172f1	3.849244e-05
130	0x3991c4f0	0.00027803285
131	0x39265b32	0.00015864967
132	0x37a78c8e	1.9973402e-05
133	0x3a20985c	0.0006126219
134	0xb62bce7f	-2.5601182e-06
135	0xb72d86a4	-1.0342952e-05
136	0xb99213ee	-0.0002786214
137	0x3975afd5	0.00023430523
138	0xb70e9be2	-8.500154e-06
139	0xb9af99cc	-0.0003349319
140	0xb79071c5	-1.7219116e-05
141	0xb99f2459	-0.00030353924
142	0xb927756f	-0.00015970109
143	0x392f7c33	0.00016735568
144	0xb9597c66	-0.00020741075
145	0xb84193c6	-4.615241e-05
146	0xb90456fc	-0.00012620905
147	0xb75af27d	-1.3050271e-05
148	0x394f4379	0.00019766194
149	0x38a93bf5	8.069716e-05
150	0x373110fe	1.0553978e-05
151	0x39912dda	0.00027690717
152	0x3837aec2	4.3793356e-05
153	0x391ff654	0.00015255186
154	0xb969eb4a	-0.00022308264
155	0x395addb8	0.00020872697
156	0xb7be3b12	-2.2677272e-05
157	0xb93c62d8	-0.000179659
158	0x3825bfbb	3.951763e-05
159	0x388f8277	6.843072e-05
160	0x399b4d18	0.00029621343
161	0xb82b0708	-4.0776125e-05
162	0xb8eb8448	-0.000112303125
163	0xb7c342c2	-2.3276898e-05
164	0x37090044	8.165898e-06
165	0xb88b613f	-6.64615e-05
166	0xb97ace5c	-0.00023918733
167	0xb9b399bf	-0.0003425609
168	0xb7fa08c2	-2.98064e-05
169	0x39033e29	0.0001251629
170	0x3a4af131	0.0007741629
171	0xb83346dd	-4.2742922e-05
172	0xb75dadf2	-1.3213126e-05
173	0xb90af35f	-0.00013251368
174	0xb9a183c8	-0.00030806498
175	0xb8536da4	-5.040843e-05
176	0xb7a9dcc6	-2.0249176e-05
177	0x3908a1f6	0.00013030306
178	0xb8c8acb2	-9.56891e-05
179	0x3860c10a	5.3585543e-05
180	0xb9bb09f2	-0.0003567483
181	0xb81581b8	-3.564518e-05
182	0xb931753c	-0.00016923709
183	0xb6da62d8	-6.508413e-06
184	0xb8baedbf	-8.913455e-05
185	0xb9b2c059	-0.00034094116
186	0xb95f40a7	-0.00021291022
187	0xb6eb46c1	-7.0117826e-06
188	0xb8279e26	-3.996319e-05
189	0xb8e3dc18	-0.00010865199
190	0xb9b85d14	-0.00035164563
191	0xb84b3927	-4.84522e-05
192	0xb9e0bf1e	-0.00042867003
193	0xb91f9757	-0.000152198
194	0x3702e455	7.8017665e-06
195	0xb8a42b5d	-7.8282064e-05
196	0x39ba5114	0.00035537092
197	0xb8b5498c	-8.644452e-05
198	0x38801a9d	6.108473e-05
199	0xb9a553bd	-0.00031533642
200	0xb814945a	-3.5424113e-05
201	0x386e9d35	5.6890032e-05
202	0x380e80aa	3.3975266e-05
203	0xb791acbc	-1.7365783e-05
204	0x3781f48b	1.5491873e-05
205	0x36967e7d	4.4850735e-06
206	0x38215ad9	3.847e-05
207	0x380860e2	3.2515156e-05
208	0xb6944aed	-4.419466e-06
209	0x370c70cd	8.370914e-06
210	0xb91e3d27	-0.00015090835
211	0xb70f2c13	-8.533726e-06
212	0xb7e18f3d	-2.688879e-05
213	0x384e5874	4.9196606e-05
214	0x37c22470	2.314357e-05
215	0x36017171	1.928853e-06
216	0xb79e0161	-1.883571e-05
217	0xb7d17458	-2.4968918e-05
218	0x36bd4f57	5.6418753e-06
219	0x37f0e2be	2.8715815e-05
220	0x3840336a	4.582425e-05
221	0x38803831	6.113982e-05
222	0x363bb320	2.7969436e-06
223	0x3856cacd	5.121045e-05
224	0x37de8e67	2.6530774e-05
225	0x385f02a9	5.316982e-05
226	0xb7229bd1	-9.692231e-06
227	0xb6762a98	-3.668165e-06
228	0xb6cc639e	-6.0912707e-06
229	0x35540e27	7.899675e-07
230	0x382eaeab	4.1647505e-05
231	0x378f9f02	1.7120972e-05
232	0x380fd767	3.4294466e-05
233	0x37c48664	2.3427601e-05
234	0xb6614986	-3.357041e-06
235	0xb7831bca	-1.5629357e-05
236	0xb81ac84d	-3.6903006e-05
237	0xb78230be	-1.5519905e-05
238	0xb54378cb	-7.281894e-07
239	0x380ec473	3.4038396e-05
240	0xb8752346	-5.8445403e-05
241	0xb717e14d	-9.052758e-06
242	0x38522916	5.0106166e-05
243	0xb7c8202f	-2.3856845e-05
244	0x380883ab	3.2547552e-05
245	0x37fa5d9e	2.9845916e-05
246	0x389463c1	7.0757706e-05
247	0x388f2f7e	6.8276175e-05
248	0x3797c8e7	1.8094155e-05
249	0xb7266104	-9.916959e-06
250	0xb8965354	-7.1680784e-05
251	0x36a52ee4	4.922842e-06
252	0xb7bce923	-2.251991e-05
253	0xb749a031	-1.2017831e-05
254	0x384ea29a	4.926566e-05
255	0x3734d184	1.0777618e-05
